pretrained.pth (torch, 84476 bytes, 92 tensors)

model.encoder.edge_encoder.0.0.weight f4 [16, 1]
00000000: 0660 73bf 1381 ee3e 2369 623f e2f2 06bf
00000010: 5491 103f d0f9 c73d 6cca 8ebe 8bc7 80be
00000020: 08b5 7fbf 829c 1cbf e67a 0ebf 1085 a43d
00000030: 81dd 753f 5033 41bf dee2 45bf 585f 4bbe
-0.95068395 0.4658285 0.88441676 -0.5271436 0.56471753 0.09764445 -0.2788881 -0.2515224
-0.99885607 -0.6117631 -0.5565628 0.08033192 0.96041113 -0.7546892 -0.77299297 -0.1986059

model.encoder.edge_encoder.0.0.bias f4 [16]
00000000: 88ef 163e 4b65 b33c c36f 053f 20db 303e
00000010: 74cb dfbe 18c0 3dbf b007 c8bd 5ad5 a53e
00000020: 0e0b 343f d453 93be 88e3 c3be ca24 48bf
00000030: eb70 b0be 5a9d 213f 30df 6abe 520c 65bf
0.14739811 0.021898886 0.5212366 0.1727109 -0.4370991 -0.74121237 -0.09767091 0.32389337
0.7032937 -0.28774893 -0.3825953 -0.78181136 -0.3446115 0.63130724 -0.22936702 -0.89471924

model.encoder.edge_encoder.0.2.weight f4 [16, 16]
00000000: 18db 0ebd 64fa 2bbe a070 553c 5af5 6cbe
00000010: f87f 283d 2049 453d 5080 05bd b0c4 003d
00000020: 2809 0f3e a4d5 ecbd 98f7 3c3e 6853 27be
00000030: 1a65 32be 8c1a 343e 18b9 703d 3463 dabd
00000040: dc45 693e e233 de3d fbd1 a93b 1ced 15be
00000050: 60bc d83d 26d4 1abe 004e c4ba 9b74 e63b
00000060: ccd1 e33d 9a6c 2d3e f07d ecbd 0830 8abd
00000070: 5e16 593e f061 663d 4007 683e e008 20bd
00000080: 509c abbd 4c5f c7bd ba93 16be c039 463c
00000090: b896 3b3d b873 a3bd 226b 7bbe 2022 3f3e
000000a0: 5048 a2bc 2472 e43d e0dc b9bd 76f9 103e
000000b0: 6870 273d ecab 133e 88b2 76bd da83 4b3e
000000c0: 30d5 46bd b43a efbd 648a 44bd 887f 343e
000000d0: 632a 5cbc 344b ac3d 002f 7c3c 5f70 313e
000000e0: c0d6 1a3e e8e5 57be b672 543e 9c2d 603e
000000f0: 20f2 bf3d 9cff 7bbe c891 6d3e 9c01 963d
00000100: 508e 32be 47b3 6cbe 3179 5d3e 46e3 7b3e
00000110: 947a 5b3c 2c86 813d d0b1 44be fd68 213e
00000120: a005 4abd 5278 7c3e 048e a93d 800a 93bd
00000130: 2186 70be d8d6 c7bd a0e3 49bc 24aa 1cbe
00000140: 0001 ce3c e600 4c3e 100d 37be d4d4 b73d
00000150: 206e 0fbe 04ea b13d fc42 15be f840 68be
00000160: f4ff 63be 082b 653e b060 513e e04c 37bc
00000170: 60bf 5abd 4031 e23c b8cc dbbd 009c 853a
00000180: 5074 c1bc f0ea 5fbd 807c 4a3c b832 32be
00000190: 4044 17be d43c 193e 503e 4d3e 3e88 33be
000001a0: 5ee1 5fbe 1254 05be 3864 3dbd b03f 96bc
000001b0: 6e0b 02be a0fc 4dbd ac0d 75be 0829 fdbd
000001c0: 9059 aa3d b7be 52be c4ed c1bc 6c29 5ebe
000001d0: 4ee1 febd 709a 813d 4e74 5dbe c785 a33d
000001e0: c40c 7c3e 7c83 ec3d c88e 293e 14e6 cabd
000001f0: 0fef 173e 6830 583d d0d9 df3c 88c5 603e
00000200: 70e9 eebc 2e9e 67be 000d 8b3b 305c ec3c
00000210: 206a ecbc 009d 99bb 1c3e 91bd 0ebd 49be
00000220: 0053 3dbb 5c93 5cbe 8c58 87bd 98e1 b4bd
00000230: a477 743e 56e3 2c3e a890 31bd 1c62 c3bd
00000240: 4c07 e3bd e5b2 1b3e c272 20bd a0c1 b83d
00000250: 21dc 913d 88cf 453d 02a4 0cbe 3476 9fbd
00000260: 6e16 453e c414 2fbe 482a 3fbd 80af 083b
00000270: a2c2 413c 10fd 26bd 662b 4cbe 08de 1dbd
00000280: 1096 77be eeee 5cbe b06f 06bd 848a fcbd
00000290: 78f6 aa3d 00c1 033c 02be 493e b45c d7bd
000002a0: 1032 88bc ce70 173e c031 d13b fe3f 35be
000002b0: 9001 2cbd 0a8d 65be 7c9d e0bd e8a4 1d3d
000002c0: 7c76 ed3d 42b3 66be a8e5 143d 80b9 56bb
000002d0: 8a4d 6bbe a0aa 643c d0e2 0d3e 8ea7 273e
000002e0: cc2a 13be 4099 13be fc2b b63d 0061 6dbb
000002f0: 78e7 7f3d f051 09bd dc9e 9b3d c08a e63b
00000300: 6871 6b3e a0a0 043d aae4 23be 1c1c d6bd
00000310: 0e70 003e 5813 393d 4c3c dabd f871 77bd
00000320: 9ac8 3cbe 044f b13d 20dc 6cbd 0080 153c
00000330: 9ca6 b03d 282d 48bd d80b 913d 4e40 58be
00000340: 0010 fbb9 d80b 313e d5ef c0bd 605f d0bd
00000350: c09d 7bbe 100f 8e3d e865 4abe 56bc 11bd
00000360: 16f6 103e 1880 febd 5c74 8bbd bae8 19be
00000370: 337e 0a3e e8b8 383d 3cf3 1c3e d47f 703e
00000380: 98cb d9bd e63f 07be 1c8d 9d3d c07e f7bc
00000390: 1804 a3bd a002 b6bc 106c eabc c422 ebbd
000003a0: 8242 6f3e d038 63be 2c8d 1b3e d075 adbd
000003b0: 642f 4dbe 7c4d 70be 8057 a13d 5053 cbbc
000003c0: 26f3 30be 7609 083e 1aae 2cbe d4ed 833d
000003d0: d843 083e 568a 6c3e c43e f93d c229 25be
000003e0: 7c00 3e3e ca58 50be 5014 d43d dab2 463e
000003f0: ac70 e0bd 8241 183e e23c 0c3e 3e74 783e
-0.034876913 -0.16794735 0.01302734 -0.23140469 0.041137666 0.04816544 -0.03259307 0.031437576
0.13968337 -0.11564186 0.18453825 -0.1634041 -0.1742138 0.17588252 0.05877027 -0.10663453
0.22780555 0.108497396 0.0051825023 -0.14641231 0.10582805 -0.1511999 -0.0014976859 0.0070329434
0.11124 0.1693596 -0.11547458 -0.067474425 0.21199939 0.056245744 0.22659016 -0.039070964
-0.083794236 -0.09734973 -0.1470479 0.01209873 0.045798033 -0.07981056 -0.24552587 0.18665361
-0.019809872 0.11154583 -0.09075332 0.14157662 0.040878683 0.14421052 -0.060228854 0.19874516
-0.048543155 -0.116811186 -0.047983542 0.17626774 -0.01343784 0.08412781 0.015392065 0.17328022
0.15120983 -0.21083796 0.20746884 0.21892399 0.093723536 -0.24609226 0.23200142 0.07324526
-0.174371 -0.23115264 0.21628262 0.24598417 0.013395924 0.063244194 -0.19208455 0.15762706
-0.04932177 0.24655274 0.082790405 -0.07179737 -0.23488666 -0.09757775 -0.012322336 -0.15299278
0.025146961 0.19922218 -0.17876077 0.089761406 -0.14006853 0.08687213 -0.14576334 -0.22681034
-0.22265607 0.22379696 0.2044704 -0.011187762 -0.053405166 0.027611375 -0.107324064 0.0010193586
-0.023615032 -0.054667413 0.012358785 -0.1740216 -0.14772129 0.1496461 0.20043302 -0.17532441
-0.21863315 -0.13020352 -0.046238154 -0.018340915 -0.12699673 -0.05028975 -0.23930997 -0.12361342
0.08317864 -0.20580564 -0.023672946 -0.21695489 -0.12445317 0.06328285 -0.21626398 0.079845004
0.24614245 0.11548516 0.16558373 -0.09907165 0.14837287 0.05278054 0.02732554 0.21950352
-0.029164046 -0.22618935 0.004243493 0.028852552 -0.028859198 -0.0046879053 -0.070919245 -0.19701025
-0.0028888583 -0.21540588 -0.06608686 -0.08832091 0.23873764 0.16883597 -0.043350846 -0.09540197
-0.11085376 0.15204962 -0.03917194 0.09021306 0.071220644 0.04829362 -0.13734439 -0.07786217
0.19246837 -0.17097765 -0.046671182 0.002085656 0.011826189 -0.040768683 -0.1993843 -0.038541824
-0.24178338 -0.2157552 -0.032821357 -0.12331107 0.083477914 0.00804162 0.19701388 -0.105157286
-0.016625434 0.14789125 0.0063841045 -0.17700192 -0.041993678 -0.22417083 -0.10967538 0.038487345
0.11594865 -0.22529319 0.03635183 -0.0032764375 -0.22978798 0.013956696 0.13856053 0.16372511
-0.14371794 -0.14413929 0.08895108 -0.0036221147 0.062476605 -0.033525407 0.075986594 0.0070355833
0.2299248 0.032379746 -0.16005197 -0.1045458 0.12542745 0.045184463 -0.10656032 -0.060411423
-0.18435898 0.08657649 -0.057827115 0.009124756 0.08625528 -0.04887119 0.07082337 -0.2111828
-0.00047886372 0.17289674 -0.09420744 -0.10174441 -0.24571896 0.06936467 -0.19765437 -0.03558
0.14156374 -0.12426776 -0.06809303 -0.15030184 0.13524704 0.045098215 0.15327162 0.23486263
-0.106345356 -0.13207969 0.0769293 -0.030211806 -0.07959765 -0.022218049 -0.028615981 -0.114812404
0.23365214 -0.22189641 0.15190572 -0.084697366 -0.2003761 -0.23467058 0.078780174 -0.02482
-0.17280254 0.13284859 -0.1686329 0.064418465 0.1330713 0.23099646 0.12170175 -0.1612921
0.18554872 -0.2034637 0.10355437 0.19404164 -0.109589905 0.14868739 0.136951 0.24263093

model.encoder.edge_encoder.0.2.bias f4 [16]
00000000: 0ca9 febd a850 ce3d 7227 54be b4f0 733e
00000010: 03d1 8cbd f0ef 133e 3000 0fbd e701 613e
00000020: 64bf cfbd aefe 793d 1035 3cbd 0050 3e3a
00000030: ae81 3dbe 07b7 93bd 903f a3bc 5850 32be
-0.12434587 0.10073978 -0.20718172 0.2382229 -0.06875803 0.14446998 -0.03491229 0.21973382
-0.10143927 0.061033897 -0.04594904 0.0007259846 -0.185065 -0.07212644 -0.01992777 -0.17413461

model.encoder.edge_encoder.0.4.weight f4 [16, 16]
00000000: faac 68be 43da 383e 5868 d33d bf93 56be
00000010: fc87 6c3e ee94 12be 388a 50be d880 28be
00000020: 7ad5 04be 7597 b33c b8b7 6cbd f659 32be
00000030: c65c 2e3e 91da b4bc 0c43 4cbe 121d 53be
00000040: 08c5 88bd 1cd6 1abe a0a4 2cbe 488f 6bbd
00000050: 34d8 293e 4218 533e c406 3c3e 4400 0fbe
00000060: 10cc b63d de47 20be 2ac4 67be 56ca 123e
00000070: e012 f8bc 00e2 843b 0058 57ba a072 123e
00000080: 84e8 773e 37bb fc3d 6454 debd 9ca7 56be
00000090: 531d fa3d 1852 193d 349c 093e 3ce7 af3d
000000a0: 40a5 18be 0a48 5f3e b0c1 8fbd d489 ba3d
000000b0: c00c 60be c841 debd f6a0 33be 3acb 6fbe
000000c0: 86d9 793e 5c5f 0c3c 007a 0dbd 4f9a 31be
000000d0: 6f3a 2a3e 38b3 7cbe a8b9 2f3e b497 1fbe
000000e0: 746d e1bd 8e01 373e 48ea 26be 8c1e a8bd
000000f0: cc7c bb3d 7f58 80be 22ea 08be 684d 02be
00000100: 3cdc 4bbe 904f bbbb 5c8f 023e 774f 3ebe
00000110: d84c 723c 4a6b 5cbe 8497 753e 9d9d 5f3d
00000120: 467d 57be d973 aabd 00a5 fc3b f2ad 683e
00000130: c21f 6ebe f8d8 07be 3499 9e3d 56fb 5fbe
00000140: eca6 843d 2a8a 3b3e 7a2b 413e 444f df3d
00000150: a055 0d3c c095 46be 40d0 2abd a0f9 febd
00000160: 5e69 053e ae1b 563e 0669 69be 488d 9f3d
00000170: 327d 4c3e 8c0a db3d 186a b6bd 4048 4d3c
00000180: 9424 853d 74f5 f7bd 0089 d43b a063 b33c
00000190: da99 443e 3c54 853d 003a 66ba bec4 0dbe
000001a0: 5c4c 0abe c46d b3bd 34f5 a93d e00d 18be
000001b0: 309e 713d a00b 58bd e4e4 ea3d 809a 263c
000001c0: a65d 023e f01f a33d 8036 57bc 9cef 763e
000001d0: 840a 58bd e880 673d 0024 423c 340f 65bd
000001e0: 80d8 403e f6b9 cd3c f2e3 40be e29e 743e
000001f0: d286 35be b555 32be da94 44be 4616 693e
00000200: 9461 4cbe 0b0e 82be d68d 623e 18ed 12bc
00000210: 84be 99bd e01d a83c ac19 d4bd 24d1 7f3d
00000220: fc11 fdbd 1046 8bbd cef4 2d3e 0048 213b
00000230: ba9a 333e 5da6 c73d fe89 29be d044 f9bc
00000240: 30dc 96bc ca3a 56be 80c6 0e3d 4232 2b3e
00000250: 3a5f 3e3e b4a4 b8bd 7492 f23d 74ce 1fbe
00000260: e07a 473e 284e 68bd 4016 65be c0e5 403e
00000270: 02e1 743e 88de 193e 6231 133e 8088 b13d
00000280: e4f5 5e3e 4894 23be 7038 cd3d d897 623e
00000290: 0ecc 02be d8e4 763d e0b4 c3bd 8a92 693e
000002a0: 00c4 5cba 80b8 c6bc 587c 7abe 70c6 d6bd
000002b0: d471 5e3e 48b4 c93d e48a 29be 6059 453d
000002c0: c0df 3cbe d843 53be 0018 c3bc 30f0 bcbd
000002d0: f0fb ab3d 748b ca3d 8296 3d3e a0af 013e
000002e0: 7024 4e3e c0c5 cdbb 7c29 443e 8c1f 08be
000002f0: 90a2 873d 500e ab3c e885 9abd e458 553e
00000300: 148b 81bd a400 34be 1057 3a3e f6eb 26be
00000310: 6cd5 79be 88bd b3bd 64e0 843d 24f8 8a3d
00000320: 607d 6d3c 662c 21be 30e8 d7bc a0ef 8c3d
00000330: c058 9e3d 3800 7f3e 70d9 5c3d 1e12 303e
00000340: 0687 293e 7b70 c8bd f4a0 14be 434e 383d
00000350: 2df6 543e 6e0b 4bbe 8030 033e 2713 21bc
00000360: f20c 5f3e 5954 843d d0c2 423e e2f5 34be
00000370: 6625 01be 6978 423c 90af 953d c813 d4bd
00000380: 00c1 42bc 5a6a 02be 0092 f33a c83e 27bd
00000390: a0df 693e 081b c7bd 061f 71be b812 a6bd
000003a0: 40f6 503e bea6 0ebe e8db 88bd 1049 f8bc
000003b0: 9095 bebd 0874 783e 68d4 6f3e 502e 503d
000003c0: 1a2e 49be 9a8e 51be d606 67be 8892 453d
000003d0: c6db 37be 14a3 383e f256 2cbe e436 a0bd
000003e0: 3440 ce3d 6049 2fbc f6a4 58be e097 52be
000003f0: 5004 5e3d 0871 7bbd 107a b1bc c068 44bd
-0.22722235 0.1805201 0.10322636 -0.20954798 0.23098749 -0.14314625 -0.20365226 -0.164554
-0.1297206 0.021922806 -0.057792395 -0.1741713 0.17027578 -0.022076877 -0.19947451 -0.20616558
-0.06678206 -0.15120739 -0.16859674 -0.05750969 0.16586381 0.20614722 0.18361956 -0.13964945
0.089256406 -0.15652415 -0.22633424 0.14334998 -0.030282438 0.0040552616 -0.0008214712 0.14301538
0.24209791 0.12340396 -0.1085594 -0.20962375 0.122126244 0.037431806 0.13438493 0.08589026
-0.14906788 0.21804824 -0.07019365 0.0910832 -0.21879864 -0.108523905 -0.1754187 -0.23417369
0.24399385 0.008567657 -0.034540176 -0.1734402 0.16623853 -0.24677742 0.17160666 -0.15585214
-0.11007205 0.17871687 -0.16300309 -0.08208951 0.091546625 -0.25067517 -0.13370565 -0.1272484
-0.19908231 -0.0057162717 0.1275 -0.18585001 0.014788829 -0.21525303 0.2398358 0.05459367
-0.21043882 -0.083228774 0.007710099 0.22722605 -0.23254302 -0.13266361 0.07744065 -0.21873221
0.0647715 0.18314424 0.18864241 0.109037906 0.008626372 -0.19393063 -0.04170251 -0.12449956
0.13028476 0.20908996 -0.2279397 0.07790619 0.19969633 0.10695371 -0.089069545 0.012529433
0.06501117 -0.12107363 0.0064860582 0.02189809 0.19199315 0.06510207 -0.00087824464 -0.13844582
-0.13505691 -0.087611705 0.08298722 -0.14849043 0.05898875 -0.05274546 0.11469439 0.010168672
0.12731037 0.07965076 -0.013135552 0.24114841 -0.052744403 0.05651942 0.011849403 -0.055922702
0.18832588 0.025113087 -0.18836954 0.23888734 -0.17727211 -0.17415507 -0.19197407 0.22762403
-0.19959098 -0.2540134 0.22124419 -0.00896766 -0.07507041 0.020522058 -0.10356459 0.06245531
-0.12356946 -0.06800473 0.16987917 0.0024609566 0.17539492 0.09748528 -0.16556546 -0.03042832
-0.01841554 -0.20920864 0.034857273 0.1671839 0.18591014 -0.0901579 0.1184434 -0.156061
0.19480467 -0.05671516 -0.22371769 0.18837643 0.23913959 0.15026295 0.14374307 0.086686134
0.21773487 -0.15974534 0.1002053 0.22128236 -0.12773153 0.060276836 -0.095559835 0.22809806
-0.000842154 -0.024257898 -0.24461496 -0.10487068 0.2172311 0.09848839 -0.16556889 0.048180938
-0.18444729 -0.20631349 -0.023815155 -0.092255 0.08397663 0.0988988 0.18514445 0.12664652
0.20131087 -0.006279677 0.1915645 -0.13293284 0.06622803 0.020880848 -0.07545072 0.2083469
-0.06325355 -0.1757837 0.18197274 -0.1630095 -0.2439782 -0.087763846 0.064881116 0.0678561
0.014495224 -0.15739593 -0.026355833 0.06881642 0.077317715 0.24902427 0.053918302 0.17194411
0.16555414 -0.09787079 -0.14514524 0.04499651 0.20797034 -0.19828579 0.1281147 -0.009831226
0.21782282 0.064614005 0.19019628 -0.17671922 -0.12611923 0.011869528 0.073088765 -0.103553355
-0.011886835 -0.12735882 0.001858294 -0.040831357 0.22839212 -0.09721953 -0.23546991 -0.08109039
0.20406437 -0.13930795 -0.06682569 -0.030308276 -0.093058705 0.24263012 0.2342087 0.050825417
-0.19646493 -0.20464554 -0.22561201 0.048235446 -0.1795493 0.1803096 -0.16830042 -0.078229696
0.100708395 -0.010698646 -0.21156678 -0.20565748 0.05420333 -0.061387092 -0.02166465 -0.04795146

model.encoder.edge_encoder.0.4.bias f4 [16]
00000000: 0bd7 5e3d 6288 61be 686b c1bd 0033 2b3d
00000010: ecd8 4b3e 80e4 39be e009 1bbd f37c 3c3e
00000020: ec7b 243e dc73 efbd 9c21 3bbe b01a d83c
00000030: a028 b93c 77cd 0f3e 02ca 5cbe 1ef4 30be
0.0544043 -0.22024682 -0.09444314 0.041796684 0.19906968 -0.18153572 -0.037851214 0.1840704
0.16062897 -0.1169202 -0.1827454 0.026379913 0.02260238 0.14043222 -0.21561435 -0.17280623

model.encoder.edge_encoder.0.6.weight f4 [16, 16]
00000000: 80da ae3d f8da d63d fb65 253e e442 1bbe
00000010: 6f5a 4cbe bc66 2dbe 547c d1bd ba8c d43c
00000020: 2d77 0ebe fcfe d7bd e857 8abd c8e9 813d
00000030: 84dd bebd aa7d 33be d2d4 3abe 0608 63be
00000040: 8b5d 403e 2006 babc a9dd e03b 5d6a ff3d
00000050: b71d b53d 007f 59bd f896 883d 8146 413e
00000060: bc15 0e3d 1a79 20be 46c5 56be acd9 483e
00000070: 0072 793d 057a 7f3e 9015 493e 40a4 ddbc
00000080: 20aa 72bd c0f2 293e 2e88 5abe a53e de3d
00000090: e054 dabd ac15 c63d ec7e fbbd 0e79 59bc
000000a0: e15e ea3d 608c d73c 8c58 cebd 0e83 573e
000000b0: 08e1 863d 4384 92bd 6057 c63d e07b f9bc
000000c0: fd71 153e feb1 68be 904e 7abe 9bf0 b53c
000000d0: 9a47 0d3e c26b 293e 587f da3d 7609 6a3e
000000e0: fdb4 0ebd 80de 653b d4dc 30be 50ab 8a3c
000000f0: e0b6 58be 222e 5bbd 1c26 38be b6f1 043e
00000100: 40bd c83d 3264 6d3e 889f 053e 6a8a 2b3d
00000110: a585 393d 4ceb cdbd f4af 263e c2f9 f93d
00000120: 6870 0a3c ae6c 41be 3425 8bbd baaf 003e
00000130: 70ed 113d 4147 5d3e be70 533e d216 223e
00000140: 200d 2bbe 9c28 9fbd 58d2 463e ef89 f9bd
00000150: a4b0 1e3d 8896 96bd 98fe 8e3d ab2a e43d
00000160: 68c5 75bd 986b 373e 606d f8bc 14b6 9e3d
00000170: a6cc 78be e0e2 4bbe aab0 6bbe 9c2b d6bd
00000180: 8c95 51be d087 333e 75f5 05be a32d 27be
00000190: bfba af3d 7a68 3abe 6cd3 423e 7b3b f03d
000001a0: 4a1b d03d a051 9d3c d88b 363d 0691 0dbe
000001b0: fe49 41be 2c91 95bd e0d9 223c 9063 9abd
000001c0: ddf5 f13c e8c6 ea3d 08f9 c33d 630b 473e
000001d0: 843e 243e eeee 493e 8061 35bc 71c2 433e
000001e0: 71e4 06be d4cd 8bbd 8086 2a3c d42d 64be
000001f0: 3cbf 913d 6c30 8bbc f001 fd3c 1e33 76be
00000200: 0789 193e 60f7 133c 6e3e 363d 3df3 253d
00000210: dc63 82be 127f 0cbe 0013 323b c2a6 1bbe
00000220: 5f15 ea3d 406b 623d c0b9 91bc 0092 993a
00000230: 0c7f c63d f769 b83d da6d 7fbe 5888 483d
00000240: 26b4 a93d 80b2 173c f002 003e aca5 ed3d
00000250: b5e0 80be d434 c53d 10ba 4cbd 73f7 aebc
00000260: 7c32 fc3d 6e9e 5cbe 804f 3cbc 32ef 5fbe
00000270: 7838 203d e956 e9bd ce54 783e 30ee ff3c
00000280: e906 47bd 7c20 f63d 175e 9ebd a55e fe3d
00000290: baf3 72bc 24fb d1bd 2c33 403e 9f61 8d3e
000002a0: fdd6 843e f046 4b3e 60ce d63c bee7 163e
000002b0: b0dd b53d 0ff6 9fbd b04c 07bd c020 40bd
000002c0: c5b5 05be 2855 153e 79be 69bd 1141 09bd
000002d0: 687f 473e e4af b6bd 1411 d7bd dda4 453e
000002e0: 47b4 e4bd 7e54 5d3e b6d7 493e b0d6 5f3d
000002f0: 942e 62be 7172 9a3d b0c2 19be 9841 a6bd
00000300: 1194 2fbd 029a 2dbe d17b 44bd dd49 cf3d
00000310: c201 2abc d8c5 e63d 8a80 61be dc29 723e
00000320: 6fa5 1abe b8df 003e 3824 bbbd 18ba 753d
00000330: 6459 f5bd a674 c83c 1c63 f4bd 528f 38be
00000340: 2e35 8bbe 380b 1ebe f7d6 bc3c cf9c c13d
00000350: 4a98 1c3e 3c0e df3d 0c0c 543e 0679 21be
00000360: fb8e 3cbd 80d5 9a3c 3434 46be f260 6abe
00000370: e06a 7cbc ef11 8cbe c84c 3cbd 009f da3a
00000380: 5de9 20be e8db 293d 9f65 b13d 7b85 c83d
00000390: 1d55 4bbe 125f 743e 3075 2e3d e1ed e53d
000003a0: ab17 e33d f4db 293e 101c 3a3d 6e79 353e
000003b0: 8094 0d3e 022e 913d b237 01be d037 60bd
000003c0: 72d1 55be e44b ed3d aceb 083e c681 003e
000003d0: b090 54be c070 d93b dca0 b33d 1af7 193e
000003e0: 339d 25be baa7 4abe 600a 403e e25e 51be
000003f0: 1828 7b3d 430a 9c3d 8ac4 3cbe 98cd 563e
0.08537769 0.10490984 0.16152184 -0.15162235 -0.19956373 -0.16933721 -0.10228792 0.02594601
-0.1391265 -0.10546681 -0.06755048 0.06343418 -0.093195945 -0.17528406 -0.18245247 -0.2217103
0.18785684 -0.022707999 0.0068623614 0.12471459 0.08843558 -0.053099632 0.0666942 0.18874551
0.034688696 -0.15671197 -0.20973691 0.19614285 0.060899734 0.2494889 0.19637132 -0.02705586
-0.059244275 0.16596508 -0.21341011 0.10851792 -0.1066072 0.09672102 -0.12280068 -0.013273491
0.11443878 0.026312053 -0.10075483 0.21046087 0.0658589 -0.07154133 0.09684634 -0.030454576
0.14594264 -0.22724149 -0.24444032 0.022209456 0.13796845 0.16545013 0.1066882 0.22855172
-0.034840573 0.0035075247 -0.17271739 0.016927391 -0.21163511 -0.053510793 -0.17983288 0.1298283
0.098017216 0.23182753 0.13049138 0.04188005 0.04529347 -0.10054645 0.16278058 0.12205841
0.008449651 -0.18889114 -0.06794205 0.12567034 0.03562683 0.21609212 0.20648476 0.15829018
-0.16704226 -0.077714175 0.19416177 -0.12184512 0.038742676 -0.0735293 0.06982154 0.11140951
-0.060002714 0.17912138 -0.030325592 0.077495724 -0.24296817 -0.19910765 -0.2301661 -0.104575366
-0.20467204 0.17532277 -0.13081916 -0.16326003 0.08580541 -0.18203917 0.19025964 0.11730095
0.10161455 0.01920396 0.04456696 -0.13824853 -0.18875882 -0.0730308 0.009939641 -0.07538521
0.029536182 0.114637196 0.09568983 0.19437937 0.16039473 0.1972005 -0.011070609 0.19117142
-0.13173081 -0.06826368 0.010408044 -0.22283107 0.07116553 -0.016990863 0.030884713 -0.24042937
0.14993678 0.009031147 0.04449313 0.040515173 -0.25466812 -0.13720348 0.002717197 -0.15200332
0.114298575 0.055278063 -0.017788768 0.0011716485 0.09692201 0.09004586 -0.24944249 0.048958153
0.08286314 0.009258866 0.1250112 0.11603865 -0.25171438 0.09629217 -0.04998213 -0.021358227
0.12314317 -0.21544811 -0.011493564 -0.2186859 0.039116353 -0.1139353 0.242511 0.031241506
-0.048590574 0.12017915 -0.0773279 0.12420396 -0.014828617 -0.102529794 0.1876952 0.2761354
0.25945273 0.1985128 0.026221454 0.1473684 0.08880174 -0.07810604 -0.03303212 -0.046906233
-0.13057621 0.14583266 -0.057066415 -0.033509318 0.19482195 -0.08920267 -0.10501304 0.19301172
-0.11167198 0.21614262 0.19711193 0.0546481 -0.2208808 0.07541359 -0.15015674 -0.0811798
-0.042865817 -0.1695328 -0.047969643 0.1012151 -0.010376396 0.112682045 -0.2202169 0.2364878
-0.1510217 0.12585342 -0.091377676 0.059991926 -0.119799405 0.024469685 -0.11932966 -0.18023422
-0.2718901 -0.15433967 0.023051722 0.09453737 0.15292469 0.10891387 0.2070772 -0.15768823
-0.046034794 0.018900633 -0.19355851 -0.22888544 -0.01540634 -0.27357432 -0.04597166 0.0016679466
-0.15714021 0.041469485 0.08661961 0.097910844 -0.19856687 0.23864391 0.042592227 0.112270124
0.11088499 0.16587812 0.04543692 0.17722103 0.1382618 0.070888534 -0.12618902 -0.054740727
-0.20880678 0.115867406 0.13371152 0.12549505 -0.20758319 0.0066357553 0.08770916 0.15035668
-0.16173248 -0.19790545 0.18753958 -0.20446351 0.061317533 0.07619145 -0.18434349 0.20976865

model.encoder.edge_encoder.0.6.bias f4 [16]
00000000: 773d 543e c856 2abe 5b66 c93d 1121 76bd
00000010: 5958 023e 9b59 553e 028f 11be 64ae a43c
00000020: 7ec7 3e3d 3952 8fbe 5288 913c b1f5 19bd
00000030: 0897 61be 7ef4 a7bd 937a a8bd e5df 95bd
0.20726572 -0.16634667 0.09833976 -0.06009013 0.12729014 0.20834963 -0.1421471 0.020102687
0.04657697 -0.27992418 0.017765198 -0.037587825 -0.2203027 -0.0820093 -0.08226504 -0.07318095

model.encoder.edge_encoder.1.weight f4 [16]
00000000: 6e85 7e3f ad8c 773f 3abe 773f 139c 7b3f
00000010: 60e3 7c3f 970e 7b3f c245 7a3f 9abb 793f
00000020: 2ade 653f 5561 803f 9b2c 813f 7875 763f
00000030: 37d2 793f a7de 733f 5e2d 7e3f 91bf 7c3f
0.9942235 0.9669903 0.9677464 0.98285025 0.98784447 0.9806914 0.9776269 0.9755188
0.8979212 1.0029703 1.0091738 0.96272993 0.9758639 0.95261616 0.99287975 0.9872981

model.encoder.edge_encoder.1.bias f4 [16]
00000000: 5456 18bb b2a0 b13c 6e99 f0bc 5da9 e23b
00000010: 204a 1ebc cfdb 86bc 379a 803c 3742 8ebc
00000020: aad2 babc dda7 97bb 0bdb 293c 5c71 b8bb
00000030: 701f b73c 47b4 203d 16f4 08bb ea3d 053c
-0.0023244815 0.02168307 -0.029370036 0.0069171623 -0.009661227 -0.016462235 0.015698535 -0.017365558
-0.02280553 -0.004628165 0.010367165 -0.005628748 0.022353858 0.039234426 -0.002089744 0.008132437

model.encoder.node_encoder.0.0.weight f4 [16, 3]
00000000: 0324 03bf a32a 29be bc45 5f3d 8777 ff3e
00000010: 660a 723e 7065 30bd e9b0 c63e 8702 17bf
00000020: c8f6 60be 3a73 15bf ae4e dfbe 64a8 b83e
00000030: 574c 163f 7a46 e6be 0092 e6be b245 203f
00000040: eeda 573d d85c 34be 6d91 ff3d a451 d9be
00000050: 5a52 afbe d88c f4be 3cda 303e a02b 98bd
00000060: c179 fb3d e229 c3be 4c3c 8dbe 099c 4d3d
00000070: e7b3 acbc 4c04 063f 409c 443e 68bb e2be
00000080: 0f6b 10bf b196 1c3f 9e7c 14bd d42e ecbd
00000090: b1e4 923e eb2f 2dbe e631 c53e db51 e23e
000000a0: c65a 88be 98d5 84bd 4ebc f5be 3b03 823e
000000b0: 2adf 963e cdd1 dc3e 194a 313e d864 633e
-0.51226825 -0.16520171 0.054509863 0.4989588 0.23636779 -0.04306549 0.38806847 -0.5898823
-0.2196914 -0.58378947 -0.43614715 0.36065972 0.58710235 -0.44975644 -0.45033264 0.62606347
0.052699022 -0.17613542 0.1247891 -0.424451 -0.34242517 -0.47763705 0.1727075 -0.07430196
0.12279082 -0.38117892 -0.27585065 0.050197635 -0.021081878 0.52350307 0.1920023 -0.44283605
-0.5641336 0.61167437 -0.036251657 -0.11532369 0.28690103 -0.1691281 0.38514632 0.44203076
-0.26631755 -0.06486052 -0.47995228 0.2539309 0.29467136 0.43128815 0.17313422 0.22206438

model.encoder.node_encoder.0.0.bias f4 [16]
00000000: 4a67 bbbe 55b9 84be b9bc d2be 9a01 96bd
00000010: f534 76be 3047 e3be 5e46 0bbf 6f77 a4bd
00000020: 4b2b 9c3e 9608 823e a535 0bbf 06ca 563e
00000030: 5aed 55bf ba4f e23e 3b8e ab3e 6929 533e
-0.3660224 -0.25922647 -0.4115961 -0.07324524 -0.24043639 -0.4439025 -0.54404247 -0.08030593
0.3050178 0.25397176 -0.5437873 0.20975503 -0.83565295 0.44201452 0.3350695 0.20621265

model.encoder.node_encoder.0.2.weight f4 [16, 16]
00000000: f807 813d 60d5 83bb b194 04be 94e6 813e
00000010: 1a7d fabd 8d77 72bd 4d95 803e c768 8e3e
00000020: 2cf6 e3bd 2a40 493e bf5f 073e 3121 bd3d
00000030: 8eb6 f53e 17db bb3d 0043 243e 9925 d53c
00000040: 2d44 393d 39d3 37be 9596 1abe 1283 3f3d
00000050: 4156 60be 4b5a e63d dd18 67be 6da6 56be
00000060: 8872 193e 4800 eabd f31d 56be 1ad0 543d
00000070: ace7 1c3c 2628 5bbd 5059 b9bd 51c3 4c3d
00000080: 6997 1b3e 9217 5bbd c05d cdbd b13e 1bbe
00000090: 92ff 4cbe 6c8c 563e 9e76 6f3e 224b 42be
000000a0: 5093 e2bd a7b2 83bc 5811 51bd 2c6a 54be
000000b0: dad1 213e 04a8 3fbe 2e07 d63d 67f2 19bd
000000c0: a17e cd3d 940b 5b3e 2f3f 133e 27f7 31be
000000d0: c318 25be b3ff 6e3e 3ac8 36bc 1cd6 3c3e
000000e0: c95d 603e 30e6 c0be 442a c1be b713 813e
000000f0: 81ab ddbe 6ec7 5bbe 1086 db3d 32c5 3b3c
00000100: 241d 873e af0c 50be c468 ab3e c086 a7bd
00000110: b908 003e 3604 34be b404 91bd ef59 ed3d
00000120: 276b 023e a0b3 f23c c1cb 8f3e f5b4 f13c
00000130: 4547 bfbe ee52 34be 9a26 6c3e e89d 1b3c
00000140: 6929 ab3d 5a3b 983d 1ef2 a53e 657c 113d
00000150: 6852 2c3d 947b ba3d ed0e 733c 0f24 fb3d
00000160: b69d 42bd 7a5a 7bbd 82c3 d4bd 3b62 763d
00000170: 3da1 72be 1657 e53d 1ef5 99bc ab01 2a3e
00000180: 92e3 b0be 0841 853d c399 783d 1fa0 72be
00000190: eaaf 9cbe 5646 533e 4a20 2c3d e466 1d3e
000001a0: 87e5 d83c 3dd1 2ebe 09a3 883e 10de 1dbd
000001b0: 45a6 efbe 7e33 dd3d a4b1 d03d 4ee6 793c
000001c0: 15f2 54be e70b adbd 01c6 213e edd0 2c3e
000001d0: d6f4 573e 9414 303e 8172 353d 75a3 13be
000001e0: f526 0c3d d5aa 053e fc93 963e e850 3d3e
000001f0: 2b3a a43e ff7d 393d 8a97 e23d d136 9c3e
00000200: 571f d43d f76c e33d 62f5 7bbd a5e2 503e
00000210: ba91 e7bc 419a 79be 5ebb 0c3d 8c64 0fbd
00000220: d52c 243e 6f18 033e ce10 7f3e b771 723e
00000230: c93a 18bf f38d 463e d8f3 66be 4b86 2abe
00000240: 0400 b4ba dbc1 163e 8b15 2f3e 986b 173e
00000250: c2db b3bc 01df a53c 8e0f 923d 8ea9 153e
00000260: ccb7 8ebc af0e 93be ecb8 f9bd 8c52 34be
00000270: 1a5d 2f3f 84d6 813c c5a2 0abe 0114 16be
00000280: 5558 b23d 5af9 3ebe fed2 5bbe d5d8 82bb
00000290: 54cd 553e f575 063c a74a 9b3c 6e2a 06bd
000002a0: 9982 853d b94a 6fbe 0270 e7bd 3a81 263e
000002b0: 9962 50be efdb 5dbe 61b4 1ebe 179f 963d
000002c0: 4651 333e 314b 623e 5280 a93c 39e7 78bc
000002d0: 3ff4 72be 46a2 eebd eaae 39be 68f8 423d
000002e0: 9675 98bd aa88 eb3d 75fd acbe 4ab6 973e
000002f0: bd1f 0cbe 6801 2c3e 7aac 2f3e 7f32 533e
00000300: 32bd 173e 3915 4cbd 5048 543d 4dfa 2c3d
00000310: 8f71 df3d 5539 9d3e cd00 043e ccc1 e8bd
00000320: 2ec7 ebbd a2dc 9d3d e2e0 743d a39c 70bc
00000330: 72bd e03e 27d3 a43c ae41 b83c 3cfe 233e
00000340: c0bc adbd 031a 20bf 951d ad3e 4a4b f43d
00000350: 2ea0 6f3d d4b0 1f3e 5cbb 46be a6aa fe3c
00000360: a4f6 603e 17a1 d4bd b690 8abe 03ba 64be
00000370: 098d 2cbf 1245 4dbe 4e3c 853e 32c3 72be
00000380: d33f 88be 1d6b 0fbd 6721 7d3e 596e 81be
00000390: 22fd e5bd 169b 0b3d 5c4e 4fbe 1f1f 8cbe
000003a0: f1db f23d 6e34 13be 2987 f2bd fa2d 193d
000003b0: 22e7 da3e c912 7b3e 6995 47ba 8bfe f73d
000003c0: b6be b03c 6d6f 25be 9d21 3fbe d062 82be
000003d0: abd3 043e 4f1c 13be 7528 3b3e faab ce3d
000003e0: 609d 4b3e e176 813d 08e4 a43e 6aef 013d
000003f0: 01ab 08be f9a6 623e e8c9 52bd 868b b53d
0.06300348 -0.004023239 -0.12947346 0.2537123 -0.122308925 -0.059196044 0.25113907 0.27814314
-0.11130938 0.19653383 0.13220118 0.092348464 0.4799084 0.091726474 0.16041183 0.026018905
0.045231033 -0.17951669 -0.15096505 0.046755858 -0.21907903 0.11247691 -0.22568078 -0.20961924
0.14985096 -0.11425835 -0.20909862 0.051956274 0.009576719 -0.053505085 -0.09050238 0.049990956
0.15194477 -0.053489275 -0.10027647 -0.15160634 -0.20019367 0.20952004 0.23385093 -0.18973973
-0.11063254 -0.016076399 -0.05104193 -0.20743626 0.15802708 -0.18716437 0.10450588 -0.03758469
0.10033918 0.21391135 0.14379571 -0.17379437 -0.16122727 0.23339729 -0.011156136 0.18441051
0.21910776 -0.3767562 -0.3772756 0.25210354 -0.4329491 -0.21462795 0.1071893 0.011460589
0.2638942 -0.20317338 0.33478367 -0.081799984 0.12503327 -0.17579731 -0.07080975 0.11589419
0.12736188 0.029626667 0.2808514 0.029505232 -0.37359062 -0.1760976 0.230616 0.009498097
0.08357508 0.074331954 0.32411283 0.035519022 0.042070776 0.09105602 0.014835102 0.12262737
-0.047513686 -0.061365582 -0.10388853 0.060152274 -0.2369432 0.11198251 -0.018793639 0.16602199
-0.34548622 0.06506544 0.060693514 -0.23693894 -0.30602962 0.206323 0.04202298 0.15371281
0.026476635 -0.17072006 0.26686886 -0.038541853 -0.4680654 0.10800837 0.10190132 0.015252663
-0.20795472 -0.08449536 0.15798189 0.16876574 0.21089491 0.1719535 0.044298653 -0.14417823
0.03421684 0.13053448 0.29409778 0.18487895 0.3207563 0.045286175 0.1106406 0.30510572
0.1035754 0.11104768 -0.061513312 0.20398958 -0.02826773 -0.2437525 0.034358375 -0.035008
0.16032727 0.1280229 0.24908754 0.23676191 -0.594647 0.19390087 -0.22553957 -0.16652791
-0.0013732915 0.14722387 0.17098062 0.14787138 -0.021955375 0.020247938 0.07131873 0.14615461
-0.017421626 -0.2872214 -0.12193474 -0.17609614 0.68501437 0.01584936 -0.13538654 -0.14656068
0.08708254 -0.18649808 -0.21467206 -0.0039931335 0.20879108 0.008206834 0.018956495 -0.032755308
0.0651905 -0.23368348 -0.11300661 0.16260234 -0.20350112 -0.2166593 -0.15498497 0.07354563
0.17511472 0.22098996 0.02069107 -0.0151918465 -0.23725985 -0.11652045 -0.1813313 0.04760018
-0.07444303 0.11500676 -0.33787122 0.29631263 -0.13683982 0.16797411 0.17155638 0.20624731
0.14818266 -0.049824927 0.051826775 0.042230893 0.109103315 0.30707803 0.1289093 -0.11365089
-0.115126 0.07708098 0.059784777 -0.014685783 0.43894535 0.020120217 0.022492256 0.16014951
-0.08483267 -0.6253969 0.33811632 0.11928423 0.05850237 0.15594798 -0.1940741 0.03108723
0.21969086 -0.10382288 -0.2706353 -0.22336583 -0.674027 -0.2004588 0.2602257 -0.23707274
-0.26611194 -0.03501426 0.24719773 -0.252795 -0.11229922 0.03408345 -0.20244735 -0.27367494
0.11858357 -0.14375469 -0.11842186 0.037397362 0.42754465 0.24518885 -0.00076135114 0.12109097
0.021575313 -0.16155787 -0.18665166 -0.25466013 0.1297137 -0.14366268 0.18277152 0.10091396
0.19884253 0.063215025 0.32205224 0.031722464 -0.13346483 0.22134008 -0.051462084 0.088645026

model.encoder.node_encoder.0.2.bias f4 [16]
00000000: a816 01be e12d e0bd cf55 16be 3290 9abe
00000010: 199d be3d 0241 5cbd d8a6 5d3e cbda 2c3e
00000020: 820b 813d d808 4f3e 2da9 5bbe c6ce b63d
00000030: 3861 d1be b0f4 f0bd 2cdf d2bd 8ad9 8c3c
-0.12606299 -0.10946251 -0.14681171 -0.30188137 0.09307308 -0.053772934 0.21645677 0.16880338
0.06301023 0.20218217 -0.21451254 0.08926158 -0.40894485 -0.117654204 -0.10296473 0.017193574

model.encoder.node_encoder.0.4.weight f4 [16, 16]
00000000: b33c 7bbe 5c99 62be d672 563e 6428 673e
00000010: adad 103e 18c6 6bbe 85dc 88be 7599 fb3b
00000020: 0d10 7fbd 2ded a8bd 422f 5cbe cda0 65be
00000030: 01a8 adbd 3438 6bbe f4a6 35be 6e46 2b3d
00000040: 4875 bc3d 61ed 983e 060d 32bd 5fe7 b53d
00000050: abc6 5bbd 6e94 6fbd 8f4e 8a3c c69d 2a3e
00000060: 19b0 473e 6ba2 973d 70bd b43d bb9e 523e
00000070: cc33 d3bd 90e3 81be a1e9 233e 73ad 1f3d
00000080: 6de3 463e 92ff 0fbe dc93 05bd fcbc 033d
00000090: c022 083e e2a5 10bd d014 62be 744a 29bc
000000a0: 0372 823c 9cd7 3fbe eb1c 243e 4ea9 97bc
000000b0: 09b3 f3bd d547 963c 52d5 bb3d a1ac 64be
000000c0: a742 3ebe 93bd 0f3e 0dfd 47be 4f3b 7c3e
000000d0: 5262 f63d 675e 923e cc87 983c 86b4 a23e
000000e0: d552 aabc 6a93 e2bd 6ca6 ee3d 4a6a 833e
000000f0: 9677 aa3d 5ba9 36be b7ed bfbd a841 643c
00000100: c075 f03c 9ef4 1a3e 6854 4b3d a0bc cf3c
00000110: f91b 05be e21f e4bd bc03 90bd 85e9 0b3e
00000120: 1428 603e a2d6 9bbd 58fb be3d f020 4fbe
00000130: fb63 2dbe 0e7d 06be a6e5 a0bd 6efd 6ebe
00000140: 15ff 363e efa8 babd 49b0 d93d 5433 2abd
00000150: b8b3 c83d 62e1 1d3e a954 753e 8ab7 d4bd
00000160: df90 773e c9e9 9d3d 9816 3b3c cd5b d6bd
00000170: 2af0 ed3d f7ec 94be 3229 aa3d 0de2 05be
00000180: 6467 eebe c596 4ebd 3792 17be 96a2 16bf
00000190: 2162 003e f1dd 613e 9b4f ebbc e94f 40be
000001a0: 7e00 3d3e 387d 92bd d4c2 053e 8dbd 4a3e
000001b0: 2925 03bf 51d8 fbbd d554 f53d d029 853e
000001c0: 67a0 1ebe 436f 59be 542f 65be b200 71be
000001d0: b2a1 9fbc 6b0a 8d3d 912b 68be 36cd bbbc
000001e0: 60d5 963e 1ad0 6e3d 2df9 1bbe ca33 523e
000001f0: 5781 20be 72d8 5c3e 5566 32be 95c6 4f3e
00000200: 2e8a 84bd 27d1 1fbe f62f 173e 1ccc db3d
00000210: 2d24 163e d9e4 043e cb2c 753e 9286 1dbd
00000220: 8e69 eb3d 517e 7cbe 929f 5c3d 71a3 9d3d
00000230: 8bf0 c03d aa56 773e 8990 d8bd e458 143c
00000240: ed4a 9dba 59bb 373e b4d1 9a3d 2118 2abe
00000250: ff7e 17be 3972 d03d 25b3 bdbc c766 273e
00000260: d43f a6bd 4d5e 55be 4dc1 5b3e 6afa dabd
00000270: 6cee fe3d 3f5d 993d 7a36 5a3d a04a 4e3e
00000280: 8c86 333e dd84 7abe b020 2bbe 4504 793e
00000290: 6e7b 2c3c c89d 103d b273 10be 1f4c 87be
000002a0: 003d cb3d 6b58 bf3d a7fb 2fbe 75a7 053e
000002b0: 1479 173e dd4f 00be 5697 6e3e 8445 e53d
000002c0: 3c4b 4a3e 7174 3dbe 8f11 c3bd 89fe 5c3e
000002d0: 6aec 983d 6373 613e bf86 893d f08b 30be
000002e0: 306b 18be 7763 063c c12b 8cbd 4a41 383e
000002f0: ecfd 01be be9e 10be aa1c 033e 334e a33c
00000300: 7906 a13c ede5 80bc 8106 56be 0b4f 063d
00000310: ff84 543b 9bd7 d8bd fcae 923e a6ee c6bd
00000320: 1b27 213e aefa 92bd 452d 6a3e 875c 6f3e
00000330: e50a 82bc f64f 82bd ad7c 56be c5d3 21be
00000340: fa9b 103c dff7 f9bd 7c64 4f3e 9b16 91be
00000350: 1d22 873e 5290 6bbe 08cf 163c 355f 1fbe
00000360: e0ec 753c 8a8b ed3d dd01 65be 2792 723e
00000370: 8000 a93e 2c22 ddbd 5a8f 9b3d 43b1 0d3e
00000380: e89b b9be e9dd ffbd 4461 d3bd 7a91 eabd
00000390: b451 62be befb b23d 3022 06be f2d5 d43c
000003a0: f716 1cbe e146 59bd 109a 8a3d 5f5f 073e
000003b0: 2cb4 d63d 0a70 1bbe c95a 1f3e 0b65 433e
000003c0: c872 673e 846c 42bd be51 aebc 6979 b1bd
000003d0: c970 8d3e f944 89bd d6f5 723e 9081 c6bc
000003e0: 02e8 14bd fc3b 1dbe f99b 1b3e c296 a13d
000003f0: 3cb8 2f3d b205 c43d 41b4 3cbe 98e7 9c3d
-0.24534874 -0.22128814 0.20942244 0.22574002 0.14128752 -0.23024786 -0.26730743 0.0076782056
-0.062271167 -0.08248363 -0.21502402 -0.22424622 -0.0847931 -0.22970659 -0.17739469 0.041815214
0.09202057 0.29868606 -0.04346945 0.08882021 -0.05365626 -0.058491163 0.016883163 0.16661748
0.1950077 0.07404026 0.08825195 0.20568363 -0.10312614 -0.2536893 0.16007091 0.038983773
0.19422694 -0.14062336 -0.032611713 0.03216265 0.13294506 -0.03531445 -0.22078252 -0.010332692
0.015923506 -0.18734592 0.16026656 -0.018513348 -0.118993826 0.018344799 0.09171547 -0.22331478
-0.18580113 0.1403716 -0.19530125 0.24632 0.12030472 0.28587648 0.01861944 0.31778353
-0.02079145 -0.11063273 0.11652836 0.2566703 0.083235905 -0.17838041 -0.093715124 0.013931669
0.029353023 0.15132377 0.049641043 0.025358498 -0.12998952 -0.11138894 -0.07031962 0.136633
0.21890289 -0.07609297 0.09325284 -0.20227408 -0.16932671 -0.13133642 -0.07856302 -0.23338863
0.17870744 -0.09114253 0.10629327 -0.041552857 0.09799904 0.15418008 0.23958077 -0.1038657
0.24176358 0.077106066 0.011418961 -0.10466728 0.11618073 -0.2908704 0.08308639 -0.13074513
-0.46563256 -0.050436754 -0.1480187 -0.58841836 0.12537433 0.2205732 -0.028724482 -0.18780483
0.18457219 -0.0715279 0.13062602 0.1979887 -0.51228577 -0.122971185 0.11979071 0.26008463
-0.15490876 -0.21233849 -0.22381335 -0.23535421 -0.019486282 0.06886753 -0.2267287 -0.022925
0.29459667 0.05830393 -0.15231772 0.20527568 -0.15674339 0.21566942 -0.17421849 0.20290597
-0.06471668 -0.15607129 0.1476439 0.1073229 0.14662237 0.12977923 0.23942868 -0.038458414
0.11494742 -0.24657561 0.053863116 0.076971896 0.0942088 0.24154153 -0.10574443 0.009054396
-0.0012000479 0.17942561 0.07559529 -0.16610767 -0.14794539 0.10178036 -0.023156712 0.163478
-0.08117643 -0.20836754 0.21460457 -0.10692294 0.12447819 0.074884884 0.05327461 0.20145655
0.17531794 -0.24464746 -0.16711688 0.24318035 0.010527475 0.035306722 -0.14106634 -0.26425263
0.09923744 0.09343036 -0.17185842 0.13052161 0.14792281 -0.12530465 0.23299918 0.111949
0.19755262 -0.1850145 -0.095248334 0.21581472 0.074669674 0.22016673 0.06715154 -0.17240882
-0.14884639 0.008202425 -0.06844283 0.17993656 -0.1269452 -0.14123055 0.12803903 0.01993475
0.019656407 -0.015734637 -0.20900919 0.032790225 0.0032427905 -0.105879985 0.28649127 -0.09713487
0.15737574 -0.071767196 0.22868831 0.2337514 -0.015874336 -0.063629076 -0.20945998 -0.1580344
0.00882625 -0.12205481 0.20253175 -0.2833756 0.26393214 -0.23004273 0.0092046335 -0.15563662
0.015010089 0.115988806 -0.22363992 0.23688565 0.33008194 -0.107975334 0.075957015 0.13837151
-0.3625176 -0.12493498 -0.10321286 -0.11453529 -0.2210148 0.08739422 -0.13098979 0.025980923
-0.15243135 -0.05304611 0.06767666 0.13219975 0.10483584 -0.15179458 0.15561976 0.19081514
0.2260238 -0.04746677 -0.021279212 -0.08665735 0.2762511 -0.067026086 0.23726591 -0.024231702
-0.036354072 -0.15354913 0.15196218 0.07890083 0.04290031 0.09571399 -0.18428136 0.076613605

model.encoder.node_encoder.0.4.bias f4 [16]
00000000: 9a35 323d c570 01be 799c 3c3e cdb5 abbd
00000010: 738b 41be 46c4 ad3d cbce 043d ca79 e53d
00000020: d006 3a3e 0055 b63d 54f3 d63d 488e eaba
00000030: 3e01 7abc 76d5 c2bd 992f 65bd 2219 1d3d
0.04350815 -0.12640674 0.18419065 -0.08384285 -0.18900852 0.08484702 0.032423776 0.1120487
0.18166661 0.08902931 0.1049563 -0.0017895186 -0.015259085 -0.09513371 -0.055953596 0.038354047

model.encoder.node_encoder.0.6.weight f4 [16, 16]
00000000: d444 70bd e679 c4bb a89b 2fbe 7fee 943d
00000010: 32f6 c3bd a848 213e 93f2 a1be 511e 773e
00000020: 96ab 49be c17b aa3e ca5f be3d 7844 163e
00000030: bbbc 193d 9697 58be fd8a 24be 754c 3bbe
00000040: 676b 0dbe 6b36 a1bd f95b fa3d 8b12 06be
00000050: 1cf3 283e b6c7 83bd 5061 5b3d 620f 423e
00000060: a9f9 f0bc 29f0 3a3d 0995 463d cdc2 f2bd
00000070: 6289 203e 56fe fbbd 50d7 933e 3bfd 3f3e
00000080: 15a6 d13d 247b 20be 3292 6f3e 6fc0 adbc
00000090: f79a 203e 00d2 5fbe 85b0 43bd 64d6 9abd
000000a0: 4000 503e 36c0 693c 1796 bfbd 34df 8f3e
000000b0: 9448 18bd eca3 72bd f9ea 8cbe ff0f 69bd
000000c0: a571 6abe b1d2 5fbe 5bb0 6ebd f4fb 4f3d
000000d0: ac2a 393e 112e 3cbe 62ed 1ebe 186a 5fbe
000000e0: 2cfb 373e e7e5 4cbe b70d 603d 9fe2 d13d
000000f0: da27 9c3e 37c3 953c d2ef 613d aab4 713c
00000100: e8d3 8dbd bc70 97bd b7ad 0f3d 6976 15be
00000110: 08d5 7e3e 0404 813e e613 76bd 27cd 043d
00000120: 7f9b f53d c5d9 683d 27cf 16be efbd 7cbd
00000130: 369d 50be db08 ecbd 62fb 2a3e 3bf5 003e
00000140: e6b0 de3d 5dc1 953d d126 93bc 29c1 9ebe
00000150: f585 fa3d 7cd0 c9bd 7d37 6fbe 35c5 87bc
00000160: d58b 453d 5d31 1bbb 3fa0 e2bd 514d 51bd
00000170: 2fa9 8a3d e6de ce3d 04d5 05be 31e2 a4bc
00000180: be60 263e 67eb 49be ef69 09be c5fe 583e
00000190: 3524 023e 68e2 9a3d 6770 3b3e cbab 853d
000001a0: 44a9 513e e30b 673e 4e9e 3ebe 0cff 5abe
000001b0: 77ea 8f3d a7d5 b4be c49a c6bd a155 6bbe
000001c0: 96da f5bc 93e8 433e 5060 9cbd 9426 603e
000001d0: 1399 693e f2c9 293d 70f0 523e b215 74be
000001e0: 1895 dfbb 09f2 bcbd 8429 c7bd a18e 02be
000001f0: f16f 4c3e 30e7 a2be ba92 a23d 89f5 44bd
00000200: 1541 943c b3fd adbd 7cc1 88bb 9421 20be
00000210: 3515 41be 7877 2cbe 3250 02be 21aa 34be
00000220: f9f1 d23d cc83 16be be67 02be 9e24 7e3e
00000230: 3545 7e3d 366e 8c3d 0fc3 00bd f113 e1bd
00000240: 55c6 5a3d 371c 67be 97ca 3bbe b1ff 6dbc
00000250: 588a 353b 669d bf3d 9a12 8ebd a432 baba
00000260: 9e23 543d aeff 15be 541b 073e 8022 96bd
00000270: 335f 1ebe 78db 62be dc13 5e3e eaad a63d
00000280: 11a2 543e 1109 8aba 4213 893c 82d0 2bbe
00000290: c4ea 7b3e 381c 2d3e 6ec5 9fbd fbe0 87be
000002a0: b846 eabd dd13 b2bd 69bb bc3b 35d0 c03d
000002b0: 1288 693e 8b1f 7a3e 3428 fabd 69eb 903d
000002c0: e325 f3bd 36da 77be d186 7bbd 5af8 42bd
000002d0: 1e0f 05be 5e74 c6bc 1491 3ebc c2a3 bc3c
000002e0: 69e1 f8bc 1f2c 24be cb4f 633c 5182 203d
000002f0: 8e76 4e3d 97c8 26be 7913 febd e302 a53d
00000300: fe28 babd ecfd 0a3e b1b9 0c3e 50c9 02be
00000310: fdae 53bd 870a 6dbe 2f12 833e 2323 d13c
00000320: 7ce9 43be 8f7f 19be 63b2 73be 5f56 a93d
00000330: 3835 c7be f2c7 f83d 9b73 0d3e 9fbf 1bbe
00000340: ff1e 723e 87ba ffbd 92e7 3abe 30e1 c43d
00000350: b606 4f3e 95de 71bd 718c 07bd 9824 00be
00000360: 51b0 0e3e 081c 0fbe 2aa5 74bc 875d 813d
00000370: 2fbb 42bc 0819 9c3e 070b 333c e02c 053d
00000380: cc80 ddbd 6158 76bd 1c5a febb 2d21 05be
00000390: 500c 12be a490 003d d80a 893c ba45 643e
000003a0: 24c5 913c 15db 18be fa37 6a3e ea7b 21be
000003b0: c42f 2bbe 4c93 b8bd 1731 76bd d790 63be
000003c0: 689f 3e3e 5411 40be c945 30bd b359 48be
000003d0: c42f 6b3e d8aa c5bd 2b18 91bd 42a5 46be
000003e0: 9b58 19bc efe0 4bbe 3ae1 e6bd e68d 013e
000003f0: 9401 c0bd e47e eb3d dab6 b23e 575e 98bc
-0.05865939 -0.0059959767 -0.17149222 0.07272052 -0.095684424 0.15750372 -0.31630382 0.24132659
-0.19694361 0.33297542 0.09295614 0.14674556 0.037533503 -0.21151575 -0.16068645 -0.18290885
-0.13810502 -0.078717075 0.12224574 -0.13093011 0.16498989 -0.06434576 0.0535596 0.1895118
-0.029415922 0.04563919 0.048481975 -0.118535616 0.15677407 -0.1230437 0.28875208 0.18748944
0.10236756 -0.15671974 0.23395613 -0.021209924 0.15684114 -0.21857452 -0.047775764 -0.07560423
0.20312595 0.014267018 -0.09354799 0.28099978 -0.03717859 -0.05923836 -0.2752302 -0.05690002
-0.22894914 -0.21857716 -0.058273654 0.05077739 0.18082684 -0.18376948 -0.15520242 -0.21817815
0.17966908 -0.20009576 0.05470058 0.10248303 0.30499154 0.018281562 0.05516035 0.014752546
-0.069251835 -0.07394549 0.035077777 -0.14595951 0.24885952 0.25198376 -0.06007757 0.03242221
0.11992549 0.056848306 -0.1472746 -0.061704572 -0.20372471 -0.115251265 0.16697457 0.12593548
0.108735844 0.07312272 -0.017962845 -0.31006745 0.122325815 -0.09854218 -0.23361011 -0.016573528
0.048229057 -0.0023680546 -0.11065721 -0.051099125 0.067705505 0.10101108 -0.1306954 -0.020127388
0.16247842 -0.19718705 -0.13419317 0.21190937 0.12709124 0.07562715 0.18304597 0.065269075
0.20474726 0.22563128 -0.18615076 -0.21386355 0.070271425 -0.35319254 -0.09697488 -0.22981884
-0.030011456 0.19131689 -0.07635558 0.21889716 0.228123 0.041452356 0.20599532 -0.23836401
-0.0068231933 -0.09225852 -0.09724715 -0.12749721 0.19964577 -0.31817007 0.07938142 -0.048085723
0.01809744 -0.08495655 -0.0041734558 -0.15637809 -0.18855746 -0.16842449 -0.12725905 -0.17643024
0.10300059 -0.14698714 -0.12734887 0.24818656 0.06207772 0.068569586 -0.031436022 -0.10990132
0.0534118 -0.22569357 -0.18339 -0.014526294 0.0027700868 0.09356193 -0.06937142 -0.0014205766
0.05179178 -0.14648315 0.13194019 -0.07330799 -0.15466003 -0.22154033 0.21687263 0.0813864
0.20764948 -0.0010531266 0.016732816 -0.16778758 0.24601275 0.16905296 -0.078013286 -0.26538834
-0.1143927 -0.08695195 0.0057596457 0.09414712 0.22805813 0.24426095 -0.122146994 0.07076151
-0.11872461 -0.24204335 -0.061407868 -0.047600128 -0.12994048 -0.02422541 -0.011631269 0.023027305
-0.030380921 -0.16032456 0.013874005 0.03918678 0.05040603 -0.16287456 -0.12406058 0.08057191
-0.0908985 0.13573426 0.1374271 -0.12772107 -0.051680554 -0.23148547 0.2559981 0.02552945
-0.19132036 -0.14990066 -0.23798518 0.08268427 -0.3890779 0.121475115 0.13813631 -0.15209816
0.23644637 -0.12486749 -0.182524 0.096132636 0.20217404 -0.05905016 -0.03309292 -0.1251396
0.13934447 -0.13975537 -0.014931956 0.06316667 -0.011885448 0.30487847 0.010927922 0.0325135
-0.10815582 -0.06014288 -0.0077622067 -0.13000937 -0.1426251 0.03138794 0.016728804 0.22292224
0.0177942 -0.14927323 0.22872916 -0.15769926 -0.1671744 -0.0901247 -0.06010541 -0.22223221
0.18615496 -0.1875661 -0.043035302 -0.19565468 0.2296744 -0.096517265 -0.07084688 -0.19398978
-0.009359504 -0.19910024 -0.11273427 0.12651786 -0.09375301 0.11498812 0.3490513 -0.018599672

model.encoder.node_encoder.0.6.bias f4 [16]
00000000: 54b9 78bd eb8c 86be ed98 9fbe decd 13be
00000010: 4b51 20be 5e58 cc3d aa14 233e 15eb 5dbd
00000020: c93c a23b 6be6 073d d677 b8bb 7aaf 8c3e
00000030: 77c3 443e a924 9abe b376 093e 80b9 863e
-0.060723618 -0.26279387 -0.3117136 -0.14434001 -0.15656011 0.09977792 0.15925851 -0.05417927
0.004951094 0.033178728 -0.00562952 0.27477628 0.19215189 -0.30106094 0.13424186 0.263134

model.encoder.node_encoder.1.weight f4 [16]
00000000: ea01 a93f 27af 823f 440e 873f fd80 913f
00000010: 633a 823f 61fd 803f 1549 9c3f c204 943f
00000020: fc17 7d3f 8403 7b3f d072 8f3f d80f 793f
00000030: 2d67 993f 007b 853f daec 7b3f 3c97 893f
1.3203709 1.0209702 1.0551229 1.1367489 1.0174068 1.0077325 1.2209803 1.1563952
0.9886472 0.9805224 1.1206913 0.972898 1.1984612 1.0428162 0.9840828 1.0749278

model.encoder.node_encoder.1.bias f4 [16]
00000000: 597b cb3c af58 123c 3f9b ca3d 34cf d13d
00000010: fe35 983c d94d 60bd 7724 45bd 959d 613c
00000020: a954 a23b 8ca4 a2ba a936 95bc f343 31bc
00000030: b539 8fbd a5de 1b3d 09e1 86bd eafd a9bc
0.02483909 0.008932277 0.09892892 0.10244599 0.018580433 -0.05476174 -0.04813048 0.013770481
0.00495394 -0.0012408658 -0.01821454 -0.010819423 -0.069934286 0.038054127 -0.06585891 -0.020750958

model.processer_list.0.node_updater.0.0.weight f4 [16, 32]
00000000: 6b49 ccbd 3b79 773d 5851 023e ed8e fc3c
00000010: 8b44 693b 5d23 29bc 4452 203e cfaf b8bc
00000020: 745f 23bd 67f4 ca3d 1be1 133e 87c8 d7bd
00000030: 69df 19be f46f c4bd 8d1e 1ebe b3ae 193e
00000040: a29c 1ebe 1798 2cbe 8407 6a3d df82 ad3d
00000050: 0aba 33be c2a0 363e 178c 833d e165 aabd
00000060: 1b92 643d 3ea9 aa3d ee5b 653d aa0e 3d3c
00000070: cd67 993d 1706 d6bd d57e d9bd 4cf2 cbbb
00000080: 6b98 45be e9d9 3cbe 0087 8b3d 3cd0 0bbe
00000090: a77d abbd 4779 523c 5e1a 1dbe 8c22 3a3d
000000a0: b96a f3bd 9b47 b3bd 0555 843d 7d5b a8bd
000000b0: 9379 9d3c 69f6 ef3d 3958 fdbd 8395 363e
000000c0: 7f25 f4bd 1f8c cebd 9d51 a53e df52 023e
000000d0: bbf6 00be 77d7 bc3d 5f46 b5be ee88 993b
000000e0: ae68 33bc 5f6e b63d 53bf 75be 2e0e 46be
000000f0: 924b 8b3e 87f3 5c3e 2124 a7bd 5563 a53d
00000100: f9da 613d 63dd 223e 9798 d43d 7539 d0bd
00000110: 0c8d 26bd 143f 8a3d 0322 a0bc 2968 9bbe
00000120: f340 0fbe 3a3c bf3d 3a6f 01be c09c 3f3c
00000130: 3c6a 19bd ed11 8f3d b459 b5bd 815c 263e
00000140: f591 bbbd d814 203d 7a29 ff3c 53fd b8bd
00000150: 5c8d b1bd 2f41 2bbe e985 a13d c49f 88bc
00000160: 2b41 773c bcb8 1dbe a1de 2e3e 2bc5 15be
00000170: aba2 0bbe d586 bebc ae9d 14be 0f26 b53d
00000180: dc28 0abe 3c8d 8e3d c9df 143e bdd9 c83a
00000190: 937e 5d3d 2bb8 37bd 7343 963d 6b40 fdbd
000001a0: 1102 2b3e acae 39be d74a fa3d 451b da3c
000001b0: 1589 113e 1b26 303e 1d3b b2bd 5329 683d
000001c0: 2a32 30bc 958a c3bd 1828 bebd caea e43d
000001d0: 9d87 42be eafa 893d b3da 9c3d a244 0fbe
000001e0: a007 a63d 4a1d 5e39 4579 023c 2f82 2cbe
000001f0: ae5b eabc d33e 25be 71f0 c0bd 9db3 aebd
00000200: ccff 6dbd 71b2 283d 8622 9fbd f04f 853d
00000210: 3275 8dbd 78a2 323e ee3f 343d 120e 31bb
00000220: 7fc2 acbd 5af7 31be 124d 2d3e 8877 3bbe
00000230: db4f 7dbe 20a7 cd3d 01e0 a9bc bd39 3dbd
00000240: dc76 19bb 987d 1b3e 61e1 d43c 0793 c1bc
00000250: 9127 e0bd c146 1cbe de23 213c f0d6 16be
00000260: 1dc5 d1bd 63e0 07be 012e a93d 6a06 08bd
00000270: 122c 9c3d a88c 1a3e 9e5a 293e 36c1 b1bd
00000280: f82f 8f3e 3f53 c8bd 6ce2 fabd ae29 99bc
00000290: 7b83 003c 617c 8cbd b07d ed3d 8b04 b13e
000002a0: d8b7 6bbd 22ae e9bd d91c 02bc 07bf 03be
000002b0: 5f83 5cbe 7c9c 07bd a90c 2ebe c139 c2be
000002c0: 9338 043e 9b4a e9bd 463b b5bd 82c4 0dbe
000002d0: a4aa e63c 1100 8dbd dc9a 09be a6e3 1fbe
000002e0: cdbf 2c3e 1df0 d13d a460 063e 905b f43d
000002f0: 800a c93d 9717 c33c 527f c6bc eb92 81bd
00000300: 576c 443e 89bf a8bd 9edb 27be e920 0fbe
00000310: c6d4 f63c 8435 1f3d be7e 2e3e d514 fb3d
00000320: a5f6 1c3d 988c acbd dc44 ffbd 00a5 82bd
00000330: 97a8 58be 626b a83d 6e58 2f3d 5084 debd
00000340: ef89 923d 280c c63c 92d0 8a3d 9b3d aabd
00000350: 9dc2 eb3d dfb2 1bbe deed ee3d ac7e bebd
00000360: ad90 1abe a53e 3c3e 94c5 c9bd 356e 1d3e
00000370: b853 13be 6b45 6cbd f636 41bc bf4e 21be
00000380: 6ef2 b8ba a996 c83d 784d de3d baa0 b2bd
00000390: 0753 75bd dfc7 9d3d 35d8 8dbc f3d6 d93d
000003a0: e16e 0ebe 6f4f acbd 96f1 2ebd ed27 d1bc
000003b0: 9fa6 123e 3bec e93d 7699 413d 7f7e 30be
000003c0: 9f08 bcbd ed89 cebd 2c16 043e 6af3 3f3e
000003d0: 8b8a f83c 2f45 d23c 9840 643c 580d 06be
000003e0: 21d0 5d3e 029e a33d 1558 cabd 9e07 c93d
000003f0: 0381 143e 0c00 883e ea7c 3abe 5f31 193d
-0.09974941 0.06041835 0.12726343 0.030829871 0.0035593833 -0.010323373 0.15656382 -0.02254477
-0.039885953 0.09909897 0.1444134 -0.105362944 -0.1502663 -0.09591666 -0.15441342 0.15008049
-0.15489438 -0.16854893 0.057136074 0.08472227 -0.17551437 0.17834762 0.064232044 -0.08320213
0.0558034 0.08333062 0.055995874 0.011539141 0.074905016 -0.1045038 -0.106198944 -0.0062239524
-0.19296424 -0.18442501 0.068128586 -0.13653654 -0.08373576 0.012846298 -0.1534209 0.045443103
-0.1188559 -0.08753892 0.06461529 -0.08220575 0.01922301 0.11716921 -0.12370343 0.17830472
-0.11921214 -0.1008532 0.32288828 0.12726925 -0.1259412 0.09220784 -0.3540525 0.0046855127
-0.010950251 0.0890777 -0.23998766 -0.19341347 0.27206093 0.21577273 -0.08161188 0.08075587
0.05514047 0.15904765 0.10380667 -0.10167209 -0.040661857 0.067503124 -0.019547468 -0.30352905
-0.1398962 0.09337659 -0.12640086 0.011695087 -0.03745483 0.06985841 -0.08855 0.16246225
-0.091586985 0.03908238 0.031147707 -0.09032693 -0.0866954 -0.16724084 0.078868695 -0.016677745
0.015091221 -0.15402502 0.17077114 -0.14625995 -0.13636272 -0.023257652 -0.14513275 0.0884515
-0.13492149 0.06960532 0.14538492 0.001532368 0.05407579 -0.04485337 0.07337084 -0.123658024
0.16700007 -0.18133038 0.12221306 0.026624331 0.14212449 0.17202036 -0.08702681 0.056680035
-0.010754148 -0.09547917 -0.09284991 0.11177595 -0.18997045 0.06737311 0.07658901 -0.13991025
0.08106923 0.00021182481 0.007963483 -0.16846536 -0.02860817 -0.16137247 -0.094208606 -0.08530352
-0.058105275 0.0411858 -0.07770257 0.065093875 -0.06907119 0.1744479 0.04400628 -0.0027016443
-0.08435535 -0.17379513 0.16923931 -0.18307316 -0.24737494 0.10041642 -0.020736696 -0.04619764
-0.0023416793 0.15184629 0.025986375 -0.023629678 -0.10945047 -0.15261365 0.009835212 -0.1473043
-0.102426745 -0.1326919 0.08260728 -0.033209242 0.07625593 0.15092719 0.16538474 -0.0867943
0.27966285 -0.09781503 -0.12250218 -0.018696632 0.007843847 -0.06859661 0.115962386 0.3457378
-0.057548374 -0.11410166 -0.007941448 -0.1286584 -0.21534489 -0.03310822 -0.16997017 -0.37934688
0.12912206 -0.11391183 -0.08849196 -0.13844493 0.02815754 -0.06884778 -0.1343798 -0.15614185
0.16870041 0.10250876 0.13122803 0.11931527 0.09816456 0.02381496 -0.024230633 -0.063268505
0.19181953 -0.082396574 -0.16392371 -0.13977398 0.030130755 0.038869396 0.17040536 0.12259833
0.038321156 -0.08425254 -0.12464306 -0.063791275 -0.21158062 0.08223607 0.042808942 -0.1086508
0.07155215 0.024175718 0.06778063 -0.083125316 0.11511729 -0.15204953 0.11666463 -0.093015045
-0.15094252 0.18383272 -0.09852138 0.15374072 -0.14387405 -0.05768339 -0.011792889 -0.15752696
-0.0014110336 0.09794361 0.1085462 -0.087220624 -0.059893634 0.07704138 -0.01731501 0.106367014
-0.13909484 -0.08413588 -0.042710863 -0.025531733 0.14321373 0.114220105 0.047265492 -0.17235754
-0.09181332 -0.10084901 0.12899083 0.18745199 0.0303395 0.025667755 0.013931416 -0.13091028
0.21661426 0.07989122 -0.098800816 0.09815906 0.14502339 0.26562536 -0.18211713 0.0374006

model.processer_list.0.node_updater.0.0.bias f4 [16]
00000000: db13 bc3d 880c 95bd c5c4 f4bd 94e1 64bd
00000010: f6b5 053e e2c7 8b3b 3277 b3bd 6ce4 babd
00000020: 03e4 7fbd 0534 113e 1752 dfbd 338a afbd
00000030: 415d 00be 2095 9a3d 5eca 863d 4402 3ebd
0.09183475 -0.07277781 -0.11951593 -0.05587919 0.13057694 0.0042657712 -0.08762969 -0.09125599
-0.06247331 0.1418 -0.10904329 -0.08571281 -0.12535574 0.075479746 0.06581567 -0.04638888
