simulator.pth (torch, 84476 bytes, 92 tensors)

model.encoder.edge_encoder.0.0.weight f4 [16, 1]
0	0xbf736006	-0.95068395
1	0x3ef2ff14	0.47460234
2	0x3f68b142	0.90895474
3	0xbf06f2e2	-0.5271436
4	0x3f1276c0	0.5721245
5	0x3dc7f9d0	0.09764445
6	0xbe8eca6c	-0.2788881
7	0xbe848dd9	-0.2588947
8	0xbf7fb508	-0.99885607
9	0xbf1c9c82	-0.6117631
10	0xbf0e7ae6	-0.5565628
11	0x3da48510	0.08033192
12	0x3f7587bf	0.9591026
13	0xbf413350	-0.7546892
14	0xbf45e2de	-0.77299297
15	0xbe4b5f58	-0.1986059

model.encoder.edge_encoder.0.0.bias f4 [16]
0	0x3e16ef88	0.14739811
1	0x3cfb4553	0.030672705
2	0x3f0bb7e2	0.5457746
3	0x3e30db20	0.1727109
4	0xbedc0088	-0.42969155
5	0xbf3dc018	-0.74121237
6	0xbdc807b0	-0.09767091
7	0x3ea20f02	0.31652075
8	0x3f340b0e	0.7032937
9	0xbe9353d4	-0.28774893
10	0xbec3e388	-0.3825953
11	0xbf4824ca	-0.78181136
12	0xbeb11c91	-0.34592107
13	0x3f219d5a	0.63130724
14	0xbe6adf30	-0.22936702
15	0xbf650c52	-0.89471924

model.encoder.edge_encoder.0.2.weight f4 [16, 16]
0	0xbd0edb18	-0.034876913
1	0xbe2bfa64	-0.16794735
2	0x3c5570a0	0.01302734
3	0xbe6cf55a	-0.23140469
4	0x3d287ff8	0.041137666
5	0x3d454920	0.04816544
6	0xbd058050	-0.03259307
7	0x3d00c4b0	0.031437576
8	0x3e0f0928	0.13968337
9	0xbdecd5a4	-0.11564186
10	0x3e3cf798	0.18453825
11	0xbe275368	-0.1634041
12	0xbe32651a	-0.1742138
13	0x3e341a8c	0.17588252
14	0x3d70b918	0.05877027
15	0xbdda6334	-0.10663453
16	0x3e6945dc	0.22780555
17	0x3ddeee3d	0.10885284
18	0x3bc2ce06	0.00594497
19	0xbe15ed1c	-0.14641231
20	0x3dd89374	0.105749995
21	0xbe1ad426	-0.1511999
22	0xbac44e00	-0.0014976859
23	0x3c246960	0.010034889
24	0x3de3d1cc	0.11124
25	0x3e2d6c9a	0.1693596
26	0xbdec7df0	-0.11547458
27	0xbd8a3008	-0.067474425
28	0x3e5a3230	0.21308208
29	0x3d6661f0	0.056245744
30	0x3e680740	0.22659016
31	0xbd2008e0	-0.039070964
32	0xbdab9c50	-0.083794236
33	0xbdc75f4c	-0.09734973
34	0xbe1693ba	-0.1470479
35	0x3c4639c0	0.01209873
36	0x3d3b96b8	0.045798033
37	0xbda373b8	-0.07981056
38	0xbe7b6b22	-0.24552587
39	0x3e3f2220	0.18665361
40	0xbca24850	-0.019809872
41	0x3de47224	0.11154583
42	0xbdb9dce0	-0.09075332
43	0x3e10f976	0.14157662
44	0x3d277068	0.040878683
45	0x3e13abec	0.14421052
46	0xbd76b288	-0.060228854
47	0x3e4b83da	0.19874516
48	0xbd46d530	-0.048543155
49	0xbe065e55	-0.13121922
50	0xbd7e6d9b	-0.062116247
51	0x3e347f88	0.17626774
52	0xbce9fee1	-0.028563919
53	0x3dac4b34	0.08412781
54	0x3c7c2f00	0.015392065
55	0x3e261abb	0.16221134
56	0x3e1ad6c0	0.15120983
57	0xbe57e5e8	-0.21083796
58	0x3e5472b6	0.20746884
59	0x3e602d9c	0.21892399
60	0x3da393b9	0.0798716
61	0xbe7bff9c	-0.24609226
62	0x3e6d91c8	0.23200142
63	0x3d96019c	0.07324526
64	0xbe328e50	-0.174371
65	0xbe6cb347	-0.23115264
66	0x3e5d7931	0.21628262
67	0x3e7be346	0.24598417
68	0x3c5b7a94	0.013395924
69	0x3d81862c	0.063244194
70	0xbe44b1d0	-0.19208455
71	0x3e2168fd	0.15762706
72	0xbd4a05a0	-0.04932177
73	0x3e7c7852	0.24655274
74	0x3da98e04	0.082790405
75	0xbd930a80	-0.07179737
76	0xbe708621	-0.23488666
77	0xbdc7d6d8	-0.09757775
78	0xbc49e3a0	-0.012322336
79	0xbe1caa24	-0.15299278
80	0x3cce0100	0.025146961
81	0x3e4c00e6	0.19922218
82	0xbe370d10	-0.17876077
83	0x3db7d4d4	0.089761406
84	0xbe0f6e20	-0.14006853
85	0x3db1ea04	0.08687213
86	0xbe1542fc	-0.14576334
87	0xbe6840f8	-0.22681034
88	0xbe63fff4	-0.22265607
89	0x3e652b08	0.22379696
90	0x3e5160b0	0.2044704
91	0xbc374ce0	-0.011187762
92	0xbd5abf60	-0.053405166
93	0x3ce23140	0.027611375
94	0xbddbccb8	-0.107324064
95	0x3a859c00	0.0010193586
96	0xbcc17450	-0.023615032
97	0xbd5feaf0	-0.054667413
98	0x3c4a7c80	0.012358785
99	0xbe3232b8	-0.1740216
100	0xbe174440	-0.14772129
101	0x3e193cd4	0.1496461
102	0x3e4d3e50	0.20043302
103	0xbe33883e	-0.17532441
104	0xbe5fe15e	-0.21863315
105	0xbe055412	-0.13020352
106	0xbd3d6438	-0.046238154
107	0xbc963fb0	-0.018340915
108	0xbe020b6e	-0.12699673
109	0xbd4dfca0	-0.05028975
110	0xbe750dac	-0.23930997
111	0xbdfd2908	-0.12361342
112	0x3daa5990	0.08317864
113	0xbe560100	-0.20898819
114	0xbcd80f29	-0.026374416
115	0xbe5e296c	-0.21695489
116	0xbe03c669	-0.12868656
117	0x3d819a70	0.06328285
118	0xbe5d744e	-0.21626398
119	0x3da54f71	0.08071793
120	0x3e7c0cc4	0.24614245
121	0x3dec837c	0.11548516
122	0x3e298ec8	0.16558373
123	0xbdcae614	-0.09907165
124	0x3e158c16	0.1460422
125	0x3d583068	0.05278054
126	0x3cdfd9d0	0.02732554
127	0x3e60c588	0.21950352
128	0xbceee970	-0.029164046
129	0xbe679e2e	-0.22618935
130	0x3b8b0d00	0.004243493
131	0x3cec5c30	0.028852552
132	0xbcec6a20	-0.028859198
133	0xbb999d00	-0.0046879053
134	0xbd913e1c	-0.070919245
135	0xbe49bd0e	-0.19701025
136	0xbb3d5300	-0.0028888583
137	0xbe5c935c	-0.21540588
138	0xbd87588c	-0.06608686
139	0xbdb4e198	-0.08832091
140	0x3e7477a4	0.23873764
141	0x3e2ce356	0.16883597
142	0xbd3190a8	-0.043350846
143	0xbdc3621c	-0.09540197
144	0xbde3074c	-0.11085376
145	0x3e23e56e	0.16005489
146	0xbd01d526	-0.031697415
147	0x3db8c1a0	0.09021306
148	0x3da48004	0.080322295
149	0x3d45cf88	0.04829362
150	0xbe0ca402	-0.13734439
151	0xbd9803ed	-0.07422624
152	0x3e45166e	0.19246837
153	0xbe2f14c4	-0.17097765
154	0xbd3f2a48	-0.046671182
155	0x3b08af80	0.002085656
156	0x3c9af268	0.018914416
157	0xbd26fd10	-0.040768683
158	0xbe4c2b66	-0.1993843
159	0xbd1dde08	-0.038541824
160	0xbe779610	-0.24178338
161	0xbe5ceeee	-0.2157552
162	0xbd066fb0	-0.032821357
163	0xbdfc8a84	-0.12331107
164	0x3daaf678	0.083477914
165	0x3c03c100	0.00804162
166	0x3e49be02	0.19701388
167	0xbdd75cb4	-0.105157286
168	0xbc883210	-0.016625434
169	0x3e1770ce	0.14789125
170	0x3bd131c0	0.0063841045
171	0xbe353ffe	-0.17700192
172	0xbd2c0190	-0.041993678
173	0xbe658d0a	-0.22417083
174	0xbde09d7c	-0.10967538
175	0x3d1da4e8	0.038487345
176	0x3ded767c	0.11594865
177	0xbe66b342	-0.22529319
178	0x3d14e5a8	0.03635183
179	0xbb56b980	-0.0032764375
180	0xbe6b4d8a	-0.22978798
181	0x3c64aaa0	0.013956696
182	0x3e0de2d0	0.13856053
183	0x3e27a78e	0.16372511
184	0xbe132acc	-0.14371794
185	0xbe139940	-0.14413929
186	0x3db62bfc	0.08895108
187	0xbb6d6100	-0.0036221147
188	0x3d7fe778	0.062476605
189	0xbd0951f0	-0.033525407
190	0x3d9b9edc	0.075986594
191	0x3be68ac0	0.0070355833
192	0x3e6b7168	0.2299248
193	0x3d04a0a0	0.032379746
194	0xbe23e4aa	-0.16005197
195	0xbdd61c1c	-0.1045458
196	0x3e00700e	0.12542745
197	0x3d391358	0.045184463
198	0xbdda3c4c	-0.10656032
199	0xbd7771f8	-0.060411423
200	0xbe3cc89a	-0.18435898
201	0x3db14f04	0.08657649
202	0xbd6cdc20	-0.057827115
203	0x3c158000	0.009124756
204	0x3db0a69c	0.08625528
205	0xbd482d28	-0.04887119
206	0x3d910bd8	0.07082337
207	0xbe58404e	-0.2111828
208	0xb9fb1000	-0.00047886372
209	0x3e45316b	0.19257133
210	0xbd98aac5	-0.07454447
211	0xbdd05f60	-0.10174441
212	0xbe676bc2	-0.225997
213	0x3d8e0f10	0.06936467
214	0xbe4a65e8	-0.19765437
215	0xbc816168	-0.015793517
216	0x3e10f616	0.14156374
217	0xbdfe8018	-0.12426776
218	0xbd8b745c	-0.06809303
219	0xbe19e8ba	-0.15030184
220	0x3e1ea2e7	0.1549183
221	0x3d38b8e8	0.045098215
222	0x3e1cf33c	0.15327162
223	0x3e707fd4	0.23486263
224	0xbdd9cb98	-0.106345356
225	0xbe073fe6	-0.13207969
226	0x3d9d8d1c	0.0769293
227	0xbcf77ec0	-0.030211806
228	0xbda30418	-0.07959765
229	0xbcb602a0	-0.022218049
230	0xbcea6c10	-0.028615981
231	0xbdeb22c4	-0.114812404
232	0x3e6f4282	0.23365214
233	0xbe6338d0	-0.22189641
234	0x3e1b8d2c	0.15190572
235	0xbdad75d0	-0.084697366
236	0xbe4d2f64	-0.2003761
237	0xbe704d7c	-0.23467058
238	0x3da15780	0.078780174
239	0xbccb5350	-0.02482
240	0xbe30f326	-0.17280254
241	0x3e080976	0.13284859
242	0xbe2cae1a	-0.1686329
243	0x3d83edd4	0.064418465
244	0x3e0843d8	0.1330713
245	0x3e6c8a56	0.23099646
246	0x3df93ec4	0.12170175
247	0xbe2529c2	-0.1612921
248	0x3e3e007c	0.18554872
249	0xbe5058ca	-0.2034637
250	0x3dd41450	0.10355437
251	0x3e46b2da	0.19404164
252	0xbde070ac	-0.109589905
253	0x3e184182	0.14868739
254	0x3e0c3ce2	0.136951
255	0x3e78743e	0.24263093

model.encoder.edge_encoder.0.2.bias f4 [16]
0	0xbdfea90c	-0.12434587
1	0x3dcf864b	0.10133036
2	0xbe542772	-0.20718172
3	0x3e65796f	0.22409604
4	0xbd8cd103	-0.06875803
5	0x3e13eff0	0.14446998
6	0xbd0f0030	-0.03491229
7	0x3e5e2f95	0.21697839
8	0xbdcfbf64	-0.10143927
9	0x3d8c796d	0.06859098
10	0xbd3c3510	-0.04594904
11	0x3a3e5000	0.0007259846
12	0xbe3d81ae	-0.185065
13	0xbd56e10d	-0.05246072
14	0xbca33f90	-0.01992777
15	0xbe325058	-0.17413461

model.encoder.edge_encoder.0.4.weight f4 [16, 16]
0	0xbe68acfa	-0.22722235
1	0x3e3fc20d	0.18726368
2	0x3dd36858	0.10322636
3	0xbe4f86f1	-0.2026632
4	0x3e6c87fc	0.23098749
5	0xbe1294ee	-0.14314625
6	0xbe508a38	-0.20365226
7	0xbe22e925	-0.1590925
8	0xbe04d57a	-0.1297206
9	0x3cf063fe	0.029344555
10	0xbd6cb7b8	-0.057792395
11	0xbe3259f6	-0.1741713
12	0x3e2e5cc6	0.17027578
13	0xbd37d7a4	-0.044883385
14	0xbe4c430c	-0.19947451
15	0xbe531d12	-0.20616558
16	0xbd88c508	-0.06678206
17	0xbe1ad61c	-0.15120739
18	0xbe2ca4a0	-0.16859674
19	0xbd6b8f48	-0.05750969
20	0x3e29d834	0.16586381
21	0x3e531842	0.20614722
22	0x3e3c06c4	0.18361956
23	0xbe0f0044	-0.13964945
24	0x3db6cc10	0.089256406
25	0xbe2047de	-0.15652415
26	0xbe67c42a	-0.22633424
27	0x3e12ca56	0.14334998
28	0xbcf812e0	-0.030282438
29	0x3b84e200	0.0040552616
30	0xba575800	-0.0008214712
31	0x3e1272a0	0.14301538
32	0x3e77e884	0.24209791
33	0x3dfcbb37	0.12340396
34	0xbdde5464	-0.1085594
35	0xbe56a79c	-0.20962375
36	0x3dfa1d53	0.122126244
37	0x3d195218	0.037431806
38	0x3e099c34	0.13438493
39	0x3dafe73c	0.08589026
40	0xbe18a540	-0.14906788
41	0x3e5f480a	0.21804824
42	0xbd8fc1b0	-0.07019365
43	0x3dba89d4	0.0910832
44	0xbe600cc0	-0.21879864
45	0xbdde41c8	-0.108523905
46	0xbe33a0f6	-0.1754187
47	0xbe6fcb3a	-0.23417369
48	0x3e79d986	0.24399385
49	0x3c80a384	0.01570297
50	0xbd0d7a00	-0.034540176
51	0xbe2c094b	-0.1680042
52	0x3e2a3a6f	0.16623853
53	0xbe7cb338	-0.24677742
54	0x3e2fb9a8	0.17160666
55	0xbe1aae25	-0.15105493
56	0xbde16d74	-0.11007205
57	0x3e449eae	0.19201156
58	0xbe26ea48	-0.16300309
59	0xbda81e8c	-0.08208951
60	0x3dbb7ccc	0.091546625
61	0xbe6c165d	-0.23055406
62	0xbe08ea22	-0.13370565
63	0xbe024d68	-0.1272484
64	0xbe4bdc3c	-0.19908231
65	0xbb92abb6	-0.004476036
66	0x3e028f5c	0.1275
67	0xbe3ce7e0	-0.18447828
68	0x3c724cd8	0.014788829
69	0xbe5c6b4a	-0.21525303
70	0x3e759784	0.2398358
71	0x3d6b280b	0.057411235
72	0xbe577d46	-0.21043882
73	0xbdb1b205	-0.08676533
74	0x3bfca500	0.007710099
75	0x3e68adf2	0.22722605
76	0xbe6e1fc2	-0.23254302
77	0xbe1c7dc6	-0.15282354
78	0x3d9e9934	0.07744065
79	0xbe5ffb56	-0.21873221
80	0x3d84a6ec	0.0647715
81	0x3e3b8a2a	0.18314424
82	0x3e412b7a	0.18864241
83	0x3ddf4f44	0.109037906
84	0x3c0d55a0	0.008626372
85	0xbe4695c0	-0.19393063
86	0xbd2ad040	-0.04170251
87	0xbdfef9a0	-0.12449956
88	0x3e05695e	0.13028476
89	0x3e561bae	0.20908996
90	0xbe696906	-0.2279397
91	0x3d9f8d48	0.07790619
92	0x3e4c7d32	0.19969633
93	0x3ddb0a8c	0.10695371
94	0xbdb66a18	-0.089069545
95	0x3c4d4840	0.012529433
96	0x3d852494	0.06501117
97	0xbdf7f574	-0.12107363
98	0x3bd48900	0.0064860582
99	0x3cb363a0	0.02189809
100	0x3e4499da	0.19199315
101	0x3d85543c	0.06510207
102	0xba663a00	-0.00087824464
103	0xbe0dc4be	-0.13844582
104	0xbe0a4c5c	-0.13505691
105	0xbdb36dc4	-0.087611705
106	0x3da9f534	0.08298722
107	0xbe180de0	-0.14849043
108	0x3d719e30	0.05898875
109	0xbd580ba0	-0.05274546
110	0x3deae4e4	0.11469439
111	0x3c269a80	0.010168672
112	0x3e025da6	0.12731037
113	0x3da453d8	0.080238044
114	0xbc573680	-0.013135552
115	0x3e785086	0.24249467
116	0xbd580a84	-0.052744403
117	0x3d6780e8	0.05651942
118	0x3c422400	0.011849403
119	0xbd5cf37c	-0.053943142
120	0x3e40d880	0.18832588
121	0x3ca8ffd0	0.020629793
122	0xbe40e3f2	-0.18836954
123	0x3e749ee2	0.23888734
124	0xbe3586d2	-0.17727211
125	0xbe47c375	-0.19508155
126	0xbe4494da	-0.19197407
127	0x3e691646	0.22762403
128	0xbe4c6194	-0.19959098
129	0xbe7df5e7	-0.24800836
130	0x3e628dd6	0.22124419
131	0xba810701	-0.0009844006
132	0xbd99be84	-0.07507041
133	0x3ca81de0	0.020522058
134	0xbdd419ac	-0.10356459
135	0x3d8bb8e1	0.06822372
136	0xbdfd11fc	-0.12356946
137	0xbd7274e1	-0.059193496
138	0x3e2df4ce	0.16987917
139	0x3b214800	0.0024609566
140	0x3e339aba	0.17539492
141	0x3df2156c	0.11820492
142	0xbe2989fe	-0.16556546
143	0xbcf944d0	-0.03042832
144	0xbc96dc30	-0.01841554
145	0xbe563aca	-0.20920864
146	0x3d0ec680	0.034857273
147	0x3e2b3242	0.1671839
148	0x3e3e5f3a	0.18591014
149	0xbdb8a4b4	-0.0901579
150	0x3df29274	0.1184434
151	0xbe1fce74	-0.156061
152	0x3e477ae0	0.19480467
153	0xbd684e28	-0.05671516
154	0xbe651640	-0.22371769
155	0x3e40e5c0	0.18837643
156	0x3e74e102	0.23913959
157	0x3e19de88	0.15026295
158	0x3e133162	0.14374307
159	0x3db18880	0.086686134
160	0x3e5ef5e4	0.21773487
161	0xbe239448	-0.15974534
162	0x3dcd3870	0.1002053
163	0x3e6297d8	0.22128236
164	0xbe02cc0e	-0.12773153
165	0x3d76e4d8	0.060276836
166	0xbdc3b4e0	-0.095559835
167	0x3e69928a	0.22809806
168	0xba5cc400	-0.000842154
169	0xbcc6b880	-0.024257898
170	0xbe7a7c58	-0.24461496
171	0xbdd6c670	-0.10487068
172	0x3e5e71d4	0.2172311
173	0x3dc9b448	0.09848839
174	0xbe298ae4	-0.16556889
175	0x3d455960	0.048180938
176	0xbe3cdfc0	-0.18444729
177	0xbe5343d8	-0.20631349
178	0xbcc31800	-0.023815155
179	0xbdbcf030	-0.092255
180	0x3dabfbf0	0.08397663
181	0x3dca8b74	0.0988988
182	0x3e3d9682	0.18514445
183	0x3e01afa0	0.12664652
184	0x3e4e2470	0.20131087
185	0xbbcdc5c0	-0.006279677
186	0x3e44297c	0.1915645
187	0xbe081f8c	-0.13293284
188	0x3d87a290	0.06622803
189	0x3cab0e50	0.020880848
190	0xbd9a85e8	-0.07545072
191	0x3e5558e4	0.2083469
192	0xbd818b14	-0.06325355
193	0xbe3400a4	-0.1757837
194	0x3e3a5710	0.18197274
195	0xbe26ebf6	-0.1630095
196	0xbe79d56c	-0.2439782
197	0xbdb3bd88	-0.087763846
198	0x3d84e064	0.064881116
199	0x3d8af824	0.0678561
200	0x3c6d7d60	0.014495224
201	0xbe212c66	-0.15739593
202	0xbcd7e830	-0.026355833
203	0x3d8cefa0	0.06881642
204	0x3d9e58c0	0.077317715
205	0x3e7f0038	0.24902427
206	0x3d5cd970	0.053918302
207	0x3e30121e	0.17194411
208	0x3e298706	0.16555414
209	0xbdc8903b	-0.09793135
210	0xbe14a0f4	-0.14514524
211	0x3d333de5	0.0437602
212	0x3e54f62d	0.20797034
213	0xbe4b0b6e	-0.19828579
214	0x3e033080	0.1281147
215	0xbc215d14	-0.009848852
216	0x3e5f0cf2	0.21782282
217	0x3d850a21	0.064960726
218	0x3e42c2d0	0.19019628
219	0xbe34f5e2	-0.17671922
220	0xbe012566	-0.12611923
221	0xbc2bb788	-0.010480769
222	0x3d95af90	0.073088765
223	0xbdd413c8	-0.103553355
224	0xbc42c100	-0.011886835
225	0xbe026a5a	-0.12735882
226	0x3af39200	0.001858294
227	0xbd273ec8	-0.040831357
228	0x3e69dfa0	0.22839212
229	0xbdc71b08	-0.09721953
230	0xbe711f06	-0.23546991
231	0xbda612b8	-0.08109039
232	0x3e50f640	0.20406437
233	0xbe0ea6be	-0.13930795
234	0xbd88dbe8	-0.06682569
235	0xbcf84910	-0.030308276
236	0xbdbe9590	-0.093058705
237	0x3e787408	0.24263012
238	0x3e6fd468	0.2342087
239	0x3d502e50	0.050825417
240	0xbe492e1a	-0.19646493
241	0xbe518e9a	-0.20464554
242	0xbe6706d6	-0.22561201
243	0x3d459288	0.048235446
244	0xbe37dbc6	-0.1795493
245	0x3e38a314	0.1803096
246	0xbe2c56f2	-0.16830042
247	0xbda036e4	-0.078229696
248	0x3dce4034	0.100708395
249	0xbc2f4960	-0.010698646
250	0xbe58a4f6	-0.21156678
251	0xbe5297e0	-0.20565748
252	0x3d5e0450	0.05420333
253	0xbd7b7108	-0.061387092
254	0xbcb17a10	-0.02166465
255	0xbd4468c0	-0.04795146

model.encoder.edge_encoder.0.4.bias f4 [16]
0	0x3d7ac963	0.061227214
1	0xbe618862	-0.22024682
2	0xbdc16b68	-0.09444314
3	0x3d4db229	0.050218735
4	0x3e4be352	0.19910935
5	0xbe39e480	-0.18153572
6	0xbd1b09e0	-0.037851214
7	0x3e3bc153	0.18335466
8	0x3e2c09d2	0.16800621
9	0xbdef73dc	-0.1169202
10	0xbe3b219c	-0.1827454
11	0x3cd81ab0	0.026379913
12	0x3cb928a0	0.02260238
13	0x3e0fe129	0.14050736
14	0xbe5cca02	-0.21561435
15	0xbe30f41e	-0.17280623

model.encoder.edge_encoder.0.6.weight f4 [16, 16]
0	0x3daef617	0.08543032
1	0x3dd6daf8	0.10490984
2	0x3e2565fb	0.16152184
3	0xbe126579	-0.14296521
4	0xbe4ef21c	-0.20209545
5	0xbe2d66bc	-0.16933721
6	0xbdd17c54	-0.10228792
7	0x3cbf2319	0.023332166
8	0xbe0f3e4a	-0.13988605
9	0xbdd7fefc	-0.10546681
10	0xbd8a57e8	-0.06755048
11	0x3d81e9c8	0.06343418
12	0xbdbedd84	-0.093195945
13	0xbe3574cd	-0.17720337
14	0xbe3ad4d2	-0.18245247
15	0xbe630806	-0.2217103
16	0x3e3bc5ab	0.18337123
17	0xbcba0620	-0.022707999
18	0x3be0dda9	0.0068623614
19	0x3de274f6	0.11057465
20	0x3db11ade	0.08647703
21	0xbd597f00	-0.053099632
22	0x3d8896f8	0.0666942
23	0x3e3f239c	0.18665928
24	0x3cfc41ae	0.030793037
25	0xbe20791a	-0.15671197
26	0xbe56c546	-0.20973691
27	0x3e48d9ac	0.19614285
28	0x3d797200	0.060899734
29	0x3e7c7a95	0.24656136
30	0x3e491590	0.19637132
31	0xbcdda440	-0.02705586
32	0xbd595c4f	-0.053066548
33	0x3e29f2c0	0.16596508
34	0xbe5a882e	-0.21341011
35	0x3df33f35	0.1187729
36	0xbdcd41f1	-0.10022343
37	0x3dc615ac	0.09672102
38	0xbdfb7eec	-0.12280068
39	0xbbe8a72a	-0.0071000056
40	0x3df671a5	0.12033395
41	0x3cd78c60	0.026312053
42	0xbdce588c	-0.10075483
43	0x3e57830e	0.21046087
44	0x3d86e108	0.0658589
45	0xbd83ca5f	-0.064350836
46	0x3dc65760	0.09684634
47	0xbcf97be0	-0.030454576
48	0x3e13be4f	0.14428066
49	0xbe68b1fe	-0.22724149
50	0xbe7a4e90	-0.24444032
51	0x3bc4916d	0.0059987814
52	0x3e0dfc7a	0.13865843
53	0x3e296bc2	0.16545013
54	0x3dda7f58	0.1066882
55	0x3e6ae1ab	0.22937648
56	0xbd17a67e	-0.037024014
57	0x3b65de80	0.0035075247
58	0xbe30dcd4	-0.17271739
59	0x3c8aab50	0.016927391
60	0xbe58b6e0	-0.21163511
61	0xbd5dc47a	-0.054142453
62	0xbe38261c	-0.17983288
63	0x3e04f1b6	0.1298283
64	0x3dc99863	0.098435186
65	0x3e6d6432	0.23182753
66	0x3e059f88	0.13049138
67	0x3d782e30	0.060590923
68	0x3d2b8c92	0.041882105
69	0xbdcdeb4c	-0.10054645
70	0x3e26aff4	0.16278058
71	0x3df26e9e	0.11837505
72	0x3c049e74	0.008094419
73	0xbe416cae	-0.18889114
74	0xbd8b2534	-0.06794205
75	0x3e00afba	0.12567034
76	0x3d11ed70	0.03562683
77	0x3e5b6723	0.21426062
78	0x3e5370be	0.20648476
79	0x3e2216d2	0.15829018
80	0xbe33843e	-0.17530915
81	0xbd9f289c	-0.077714175
82	0x3e46d258	0.19416177
83	0xbe154bf8	-0.14579761
84	0x3d097428	0.03355804
85	0xbd969688	-0.0735293
86	0x3d8efe98	0.06982154
87	0x3ddac938	0.10682911
88	0xbd87048f	-0.06592666
89	0x3e376b98	0.17912138
90	0xbcf86d60	-0.030325592
91	0x3d9eb614	0.077495724
92	0xbe78cca6	-0.24296817
93	0xbe528164	-0.20557171
94	0xbe6bb0aa	-0.2301661
95	0xbdd62b9c	-0.104575366
96	0xbe560fb3	-0.20904426
97	0x3e3387d0	0.17532277
98	0xbe05f575	-0.13081916
99	0xbe364b5f	-0.1780219
100	0x3dac4b37	0.084127836
101	0xbe3a687a	-0.18203917
102	0x3e42d36c	0.19025964
103	0x3decac9c	0.1155636
104	0x3dc86307	0.09784513
105	0x3c9d51a0	0.01920396
106	0x3d368bd8	0.04456696
107	0xbe0d9106	-0.13824853
108	0xbe4149fe	-0.18875882
109	0xbd9b2077	-0.075745516
110	0x3c22d9e0	0.009939641
111	0xbd9a6390	-0.07538521
112	0x3d16dfc6	0.0368345
113	0x3deac6e8	0.114637196
114	0x3dc3f908	0.09568983
115	0x3e5f395f	0.21799229
116	0x3e287088	0.16449177
117	0x3e49eeee	0.1972005
118	0xbc356180	-0.011070609
119	0x3e47a6c4	0.1949721
120	0xbe010e48	-0.12603104
121	0xbd8bcdd4	-0.06826368
122	0x3c2a8680	0.010408044
123	0xbe642dd4	-0.22283107
124	0x3d91bf3c	0.07116553
125	0xbc3b3700	-0.011426687
126	0x3cfd01f0	0.030884713
127	0xbe76331e	-0.24042937
128	0x3e15cd20	0.1462903
129	0x3c13f760	0.009031147
130	0x3d363e6e	0.04449313
131	0x3ce365a4	0.027758427
132	0xbe83863c	-0.2568835
133	0xbe0c7f12	-0.13720348
134	0x3b321300	0.002717197
135	0xbe1e1215	-0.15436585
136	0x3de1c0ad	0.11023078
137	0x3d626b40	0.055278063
138	0xbc91b9c0	-0.017788768
139	0x3a999200	0.0011716485
140	0x3dc67f0c	0.09692201
141	0x3db1c9dc	0.0868108
142	0xbe7f6dda	-0.24944249
143	0x3d488858	0.048958153
144	0x3db88b5a	0.09010954
145	0x3c17b280	0.009258866
146	0x3e0002f0	0.1250112
147	0x3dff397c	0.12462136
148	0xbe7ad396	-0.24494776
149	0x3dc534d4	0.09629217
150	0xbd4cba10	-0.04998213
151	0xbc66fab0	-0.0140978545
152	0x3e06a808	0.13150036
153	0xbe5c9e6e	-0.21544811
154	0xbc3c4f80	-0.011493564
155	0xbe5fef32	-0.2186859
156	0x3d203878	0.039116353
157	0xbdda8e3a	-0.10671659
158	0x3e7854ce	0.242511
159	0x3cffee30	0.031241506
160	0xbd4e7833	-0.0504076
161	0x3df6207c	0.12017915
162	0xbd9e5e17	-0.0773279
163	0x3e0204e5	0.1269718
164	0xbc9b3855	-0.01894776
165	0xbdd1fb24	-0.102529794
166	0x3e40332c	0.1876952
167	0x3e8b75fa	0.27238446
168	0x3e83c7c1	0.25738338
169	0x3e4b46f0	0.1985128
170	0x3cd6ce60	0.026221454
171	0x3e16e7be	0.1473684
172	0x3db5ddb0	0.08880174
173	0xbda709e2	-0.08156182
174	0xbd074cb0	-0.03303212
175	0xbd4020c0	-0.046906233
176	0xbe077e5a	-0.13231793
177	0x3e155528	0.14583266
178	0xbd69be79	-0.057066415
179	0xbd420b70	-0.04737419
180	0x3e48eecf	0.19622348
181	0xbdb6afe4	-0.08920267
182	0xbdd71114	-0.10501304
183	0x3e46d093	0.19415502
184	0xbde80b44	-0.11330274
185	0x3e5d547e	0.21614262
186	0x3e49d7b6	0.19711193
187	0x3d5fd6b0	0.0546481
188	0xbe622e94	-0.2208808
189	0x3d9a7e4f	0.07543623
190	0xbe19c2b0	-0.15015674
191	0xbda64198	-0.0811798
192	0xbd24a4b6	-0.040196143
193	0xbe2d9a02	-0.1695328
194	0xbd447bd1	-0.047969643
195	0x3ddc4113	0.107545994
196	0xbc238d91	-0.0099824825
197	0x3de6c5d8	0.112682045
198	0xbe61808a	-0.2202169
199	0x3e730660	0.237329
200	0xbe18e883	-0.14932446
201	0x3e00dfb8	0.12585342
202	0xbdbb2438	-0.091377676
203	0x3d75ba18	0.059991926
204	0xbdf55964	-0.119799405
205	0x3cd063ca	0.025438208
206	0xbdf4631c	-0.11932966
207	0xbe388f52	-0.18023422
208	0xbe861e2f	-0.26194903
209	0xbe1e0b38	-0.15433967
210	0x3cbcd6f7	0.023051722
211	0x3df119c2	0.11772491
212	0x3e26f668	0.16304934
213	0x3ddf0e3c	0.10891387
214	0x3e540c0c	0.2070772
215	0xbe187840	-0.14889622
216	0xbd17997c	-0.03701161
217	0x3c9ad580	0.018900633
218	0xbe463434	-0.19355851
219	0xbe6a60f2	-0.22888544
220	0xbc7c6ae0	-0.01540634
221	0xbe86c28f	-0.2632031
222	0xbd3c4cc8	-0.04597166
223	0x3ada9f00	0.0016679466
224	0xbe1cd5b0	-0.1531589
225	0x3d29dbe8	0.041469485
226	0x3db1659f	0.08661961
227	0x3deadc2b	0.11467775
228	0xbe4a13bc	-0.1973409
229	0x3e745f12	0.23864391
230	0x3d2e7530	0.042592227
231	0x3de8a4af	0.11359536
232	0x3deb9369	0.11502726
233	0x3e29dbf4	0.16587812
234	0x3d3a1c10	0.04543692
235	0x3e35796e	0.17722103
236	0x3e0d9480	0.1382618
237	0x3d968630	0.07349813
238	0xbe0137b2	-0.12618902
239	0xbd6037d0	-0.054740727
240	0xbe594053	-0.21215944
241	0x3ded4be4	0.115867406
242	0x3e08ebac	0.13371152
243	0x3df2675f	0.11836123
244	0xbe565ce1	-0.20933868
245	0x3bd970c0	0.0066357553
246	0x3db3a0dc	0.08770916
247	0x3e17cea5	0.14824922
248	0xbe296c14	-0.16545135
249	0xbe4aa7ba	-0.19790545
250	0x3e400a60	0.18753958
251	0xbe515ee2	-0.20446351
252	0x3d7b2818	0.061317533
253	0x3d971da1	0.07378698
254	0xbe3cc48a	-0.18434349
255	0x3e56cd98	0.20976865

model.encoder.edge_encoder.0.6.bias f4 [16]
0	0x3e528998	0.205603
1	0xbe2d6013	-0.1693118
2	0x3dd63016	0.104583904
3	0xbd77e56c	-0.060521528
4	0x3dfffd09	0.124994345
5	0x3e4f8cd3	0.20268564
6	0xbe144d77	-0.14482675
7	0x3cccb5f3	0.024989104
8	0x3d320e1a	0.04347048
9	0xbe8b6b75	-0.2723042
10	0x3c6a3d54	0.014296848
11	0xbd18c303	-0.037295353
12	0xbe607ad8	-0.21921861
13	0xbd92ef32	-0.07174529
14	0xbda3b7cb	-0.0799404
15	0xbd9b0c16	-0.075706646

model.encoder.edge_encoder.1.weight f4 [16]
0	0x3f7f8a8c	0.9982078
1	0x3f79419f	0.97365755
2	0x3f7ccaf5	0.9874719
3	0x3f7f8027	0.9980492
4	0x3f7e9358	0.9944358
5	0x3f7c7888	0.98621416
6	0x3f7c2d04	0.9850619
7	0x3f7c98f5	0.98670894
8	0x3f6c88c1	0.9239617
9	0x3f810f91	1.0082875
10	0x3f81d5ba	1.0143349
11	0x3f799262	0.9748899
12	0x3f7b4d66	0.98164976
13	0x3f76b88d	0.9637535
14	0x3f7e9740	0.9944954
15	0x3f7e03d3	0.99224585

model.encoder.edge_encoder.1.bias f4 [16]
0	0x3a38efc2	0.00070547697
1	0x3c915d1e	0.017744597
2	0xbc30d39b	-0.010792638
3	0x3c0eab57	0.008707843
4	0xbb8638ca	-0.0040961253
5	0xbc486fb4	-0.012233663
6	0x3c2d5b8e	0.01058091
7	0xbc0c8c81	-0.008578421
8	0xbcb58435	-0.022157768
9	0xbc1c0968	-0.009523727
10	0x3c6ab94d	0.014326406
11	0xbb247152	-0.0025091958
12	0x3c8bd5e0	0.017069757
13	0x3d0370d1	0.032090012
14	0xb9bc212b	-0.00035882866
15	0x3b83d8eb	0.0040236614

model.encoder.node_encoder.0.0.weight f4 [16, 3]
0	0xbf03584b	-0.513066
1	0xbe5463eb	-0.2074124
2	0xbccae995	-0.024769584
3	0x3efa337b	0.488674
4	0x3e96b78e	0.29436916
5	0xbd306570	-0.04306549
6	0x3eee7cde	0.4657964
7	0xbf0a74a4	-0.5408423
8	0xbe60f6c8	-0.2196914
9	0xbf10f83a	-0.56628764
10	0xbed64c54	-0.4185511
11	0x3ecb0e82	0.39659506
12	0x3f29730e	0.66191185
13	0xbec65723	-0.38738355
14	0xbee69200	-0.45033264
15	0x3f1cb621	0.61215407
16	0x3e06d093	0.13165502
17	0xbe345cd8	-0.17613542
18	0x3de97927	0.11400061
19	0xbeda3dad	-0.4262518
20	0xbeaf525a	-0.34242517
21	0xbeff7c62	-0.49899584
22	0x3dce95ed	0.1008719
23	0xbe2148cf	-0.1575043
24	0x3e160590	0.1465056
25	0xbebf38d0	-0.37348032
26	0xbe8d3c4c	-0.27585065
27	0x3d6b00ad	0.05737369
28	0xbc6a59a4	-0.014303599
29	0x3ea8deb1	0.329824
30	0x3e2da837	0.169587
31	0xbeec8d24	-0.46201432
32	0xbf106b0f	-0.5641336
33	0x3f238f82	0.6389085
34	0x3dc36e2f	0.095425
35	0xbdec2ed4	-0.11532369
36	0x3e9411cd	0.2891983
37	0xbea0bd7d	-0.31394568
38	0x3ec531e6	0.38514632
39	0x3ef78dcf	0.4835038
40	0xbe571e63	-0.21007685
41	0xbd84d598	-0.06486052
42	0xbf05d2e0	-0.52274895
43	0x3e763b9d	0.24046178
44	0x3e3d52a9	0.18488564
45	0x3eecc72f	0.46245715
46	0x3e3472c3	0.17621903
47	0x3e6364d8	0.22206438

model.encoder.node_encoder.0.0.bias f4 [16]
0	0xbe8830cf	-0.26599738
1	0xbe6cb089	-0.23114218
2	0xbece4aff	-0.40291592
3	0xbd61d56d	-0.05513518
4	0xbe043789	-0.1291181
5	0xbeea50ad	-0.45764676
6	0xbf099869	-0.53748184
7	0xbdb81572	-0.08988465
8	0x3e99b89c	0.30023658
9	0x3e8bb98b	0.27289996
10	0xbee6720f	-0.45008895
11	0x3e6081d9	0.21924533
12	0xbf2ad8a1	-0.667368
13	0x3ee36cfd	0.4441909
14	0x3eb3cf62	0.35119158
15	0x3e8330d5	0.25623193

model.encoder.node_encoder.0.2.weight f4 [16, 16]
0	0x3d927177	0.07150548
1	0x3d65abcd	0.056072045
2	0xbdf9794d	-0.121813394
3	0x3e8a0e02	0.26963812
4	0xbe0dcb41	-0.13847066
5	0xbd308eb4	-0.043104842
6	0x3e5c826d	0.21534128
7	0x3e8ff18f	0.28113982
8	0xbdff7678	-0.12473768
9	0x3e30bf7b	0.17260544
10	0x3e086a87	0.13321887
11	0x3d5dc0f8	0.054139107
12	0x3eaa108c	0.3321575
13	0x3d83a4b2	0.064278975
14	0x3e1f8957	0.15579735
15	0xbd48f205	-0.049058933
16	0x3d7a464d	0.0611022
17	0xbe37d339	-0.17951669
18	0xbe206098	-0.15661848
19	0x3d713370	0.058886945
20	0xbe3f36c0	-0.18673229
21	0x3de65a4b	0.11247691
22	0xbe81f677	-0.2538335
23	0xbe40f1cb	-0.18842237
24	0x3e128ef1	0.1431234
25	0xbe0675b9	-0.13130845
26	0xbe8612a9	-0.26186112
27	0x3d54d01a	0.051956274
28	0x3c1ce7ac	0.009576719
29	0xbd29fdc1	-0.041501764
30	0xbd937d09	-0.07201583
31	0x3d4cc351	0.049990956
32	0x3e1b9769	0.15194477
33	0xbd5b1792	-0.053489275
34	0xbdcd5dc0	-0.10027647
35	0xbe1b3eb1	-0.15160634
36	0xbe4cff92	-0.20019367
37	0x3e568c6c	0.20952004
38	0x3e6f769e	0.23385093
39	0xbe424b22	-0.18973973
40	0xbde29350	-0.11063254
41	0xbc83b2a7	-0.016076399
42	0xbd511158	-0.05104193
43	0xbe546a2c	-0.20743626
44	0x3e21d1da	0.15802708
45	0xbe3fa804	-0.18716437
46	0x3dd6072e	0.10450588
47	0xbd19f267	-0.03758469
48	0x3dc8a901	0.0979786
49	0x3e5fede6	0.21868095
50	0x3e1c1df1	0.15245797
51	0xbe316ead	-0.17327376
52	0xbe27a7ec	-0.16372651
53	0x3e5deded	0.21672793
54	0xbd91990d	-0.0710927
55	0x3e4664eb	0.19374435
56	0x3e5383b1	0.20655705
57	0xbec35fc9	-0.38159016
58	0xbeba8e94	-0.36436903
59	0x3e7acf96	0.2449325
60	0xbea727df	-0.32647607
61	0xbe70ffa4	-0.23535019
62	0x3e06436f	0.13111661
63	0x3c5e405c	0.013565149
64	0x3e918dd2	0.28428513
65	0xbe14ac3b	-0.14518826
66	0x3ea2a91c	0.31769645
67	0xbd7933c5	-0.060840387
68	0x3e4ce035	0.20007403
69	0xbde8dde6	-0.11370449
70	0xbe18ee9d	-0.14934774
71	0x3dedfe94	0.116208225
72	0x3e08bb67	0.13352738
73	0x3c092356	0.008370241
74	0x3e8cc5bb	0.27494606
75	0x3d802ef7	0.06258958
76	0xbed430c1	-0.41443446
77	0xbe266c5e	-0.16252276
78	0x3e5f3839	0.21798791
79	0xbd4eb450	-0.05046493
80	0x3d8a2897	0.06746023
81	0x3d6d711d	0.0579692
82	0x3e68fd6c	0.22752923
83	0x3d04c94f	0.032418545
84	0x3c9d60da	0.019211221
85	0x3dad6d9c	0.08468172
86	0xbd92f74f	-0.071760766
87	0x3dde519a	0.10855408
88	0xbdaee536	-0.08539812
89	0xbd2b9f1f	-0.041899797
90	0xbe65e68a	-0.22451225
91	0x3dac3099	0.08407707
92	0xbe0f0504	-0.13966757
93	0x3e00459a	0.12526551
94	0xbcd17993	-0.025570666
95	0x3e5be1fc	0.21472925
96	0xbe9863f8	-0.2976377
97	0x3d9c7a3a	0.076405
98	0x3e10cf9f	0.14141701
99	0xbe3be9bf	-0.18350886
100	0xbe77da4a	-0.24204364
101	0x3e616846	0.22012433
102	0x3ddfb6df	0.10923552
103	0x3e124a79	0.14286222
104	0x3c9cfd05	0.019163618
105	0xbe89c045	-0.26904503
106	0x3eabbffd	0.33544913
107	0xbc0d853b	-0.008637722
108	0xbefef476	-0.49795884
109	0x3e0b9d03	0.13634114
110	0x3d9d48c3	0.07679894
111	0x3c069682	0.008214595
112	0xbe59a0fc	-0.21252817
113	0xbe0e6964	-0.13907391
114	0x3ddf8ff0	0.10916126
115	0x3e2beaf5	0.16788848
116	0x3e57e9ee	0.21085331
117	0x3e13c3df	0.14430188
118	0x3bf97ab4	0.0076135043
119	0xbe1a0373	-0.15040378
120	0x3cc5095a	0.02405231
121	0x3e104ff4	0.14093
122	0x3e63a37f	0.22230338
123	0x3e4620b9	0.1934842
124	0x3ee03d31	0.43796685
125	0x3d57f992	0.052728243
126	0x3dfcce20	0.12344003
127	0x3ea8f07c	0.32995975
128	0x3ca87a19	0.020566033
129	0x3e378090	0.17920136
130	0x3b4fbfac	0.0031699939
131	0x3ded5aed	0.11589608
132	0x3cba3672	0.02273104
133	0xbe59bb6b	-0.212629
134	0x3d939ae0	0.072072744
135	0xbdbb6d96	-0.09151761
136	0x3de9c1d1	0.11413921
137	0x3df0793f	0.11741876
138	0x3e82042a	0.25393802
139	0x3e81b699	0.25334623
140	0xbf240a7a	-0.64078486
141	0x3e4c4277	0.1994723
142	0xbe886d0b	-0.26645693
143	0xbe1bcde3	-0.15215258
144	0xbc65b267	-0.014019585
145	0x3dda352f	0.10654675
146	0x3e6203f3	0.22071819
147	0x3e0ef888	0.13961995
148	0x3bc32618	0.005955469
149	0x3b789879	0.0037932678
150	0x3e0a2e86	0.1349431
151	0x3e0a45ea	0.13503233
152	0x3c24a711	0.010049597
153	0xbe82581c	-0.25457847
154	0xbdb9972b	-0.09062036
155	0xbe339341	-0.17536642
156	0x3f074cf1	0.5285178
157	0x3d3ff32c	0.046862766
158	0xbe0e86f0	-0.13918662
159	0xbe17b334	-0.14814454
160	0x3db25855	0.08708254
161	0xbe3ef95a	-0.18649808
162	0xbe5bd2fe	-0.21467206
163	0xbb82d8d5	-0.0039931335
164	0x3e55cd54	0.20879108
165	0x3c0675f5	0.008206834
166	0x3c9b4aa7	0.018956495
167	0xbd062a6e	-0.032755308
168	0x3d858299	0.0651905
169	0xbe6f4ab9	-0.23368348
170	0xbde77002	-0.11300661
171	0x3e26813a	0.16260234
172	0xbe506299	-0.20350112
173	0xbe5ddbef	-0.2166593
174	0xbe1eb461	-0.15498497
175	0x3d969f17	0.07354563
176	0x3e41c8e5	0.18924291
177	0x3e7aac4c	0.24479789
178	0x3c50dcdd	0.01274797
179	0xbb94724d	-0.0045302273
180	0xbe77d1cf	-0.2420113
181	0xbe055987	-0.13022433
182	0xbdb98197	-0.090579204
183	0x3d366fd2	0.044540234
184	0xbd2f6483	-0.042820465
185	0x3e056f7e	0.13030812
186	0xbe77005b	-0.2412123
187	0x3e9fb907	0.31195852
188	0xbe1f8e9e	-0.15581748
189	0x3e32af8d	0.1744978
190	0x3e2d16ca	0.16903225
191	0x3e67bd0f	0.22630714
192	0x3e1c3a29	0.15256561
193	0xbcd40cd9	-0.025885032
194	0x3d9532fc	0.07285115
195	0x3d6b203a	0.05740378
196	0x3deeade3	0.1165426
197	0x3ea1e28b	0.3161815
198	0x3dc92847	0.098221354
199	0xbdf9906d	-0.1218575
200	0xbddd303b	-0.10800215
201	0x3dc94bfb	0.09828945
202	0x3d38f510	0.045155585
203	0xbd4c7a1c	-0.04992114
204	0x3ea64434	0.3247391
205	0x3d333093	0.043747496
206	0x3cae21c3	0.021256333
207	0x3e1554dc	0.14583153
208	0xbda2c3ee	-0.07947527
209	0xbf452527	-0.77009815
210	0x3eac55ea	0.33659297
211	0x3dfc3aaa	0.12315877
212	0x3d9b07f5	0.07569877
213	0x3d9eb051	0.077484734
214	0xbe199f08	-0.15002072
215	0x3d4b6dec	0.049665377
216	0x3e5e4adb	0.21708243
217	0xbdeb6fcb	-0.11495932
218	0xbe86b9c8	-0.26313615
219	0xbe5ff9b6	-0.21872601
220	0xbf2ede35	-0.6830781
221	0xbe56421a	-0.20923653
222	0x3e8e422b	0.27784857
223	0xbe8a539c	-0.27016914
224	0xbe4313c9	-0.19050516
225	0xbcd499a0	-0.02595216
226	0x3e9d3fd1	0.3071275
227	0xbdf9be82	-0.121945396
228	0xbda3e3ae	-0.08002411
229	0x3d3094ed	0.043110777
230	0xbc7dd115	-0.015491744
231	0xbe877117	-0.26453468
232	0x3e301f37	0.17199408
233	0xbe0e7389	-0.1391126
234	0xbc6f7de4	-0.014617417
235	0x3d31f833	0.04344959
236	0x3ee42892	0.44562203
237	0x3e82dc9b	0.25558934
238	0xbd3eef12	-0.046614714
239	0x3dfba057	0.12286442
240	0xba02bdac	-0.000498737
241	0xbe1744c3	-0.14772324
242	0xbe8293e6	-0.25503463
243	0xbe7a2f6f	-0.24432157
244	0x3df9b434	0.12192574
245	0xbe0e83b1	-0.13917424
246	0x3d9b9416	0.075966045
247	0x3d4a446d	0.049381662
248	0x3e4dba37	0.20090567
249	0x3dc5fab1	0.09666956
250	0x3e4f281a	0.20230141
251	0x3d48a999	0.048989866
252	0xbe231756	-0.1592687
253	0x3e69ebb0	0.22843814
254	0xbd480926	-0.04883685
255	0x3dfe5e24	0.124203

model.encoder.node_encoder.0.2.bias f4 [16]
0	0xbe0f1872	-0.13974169
1	0xbde5ba64	-0.11217192
2	0xbe1655cf	-0.14681171
3	0xbe872299	-0.26393583
4	0x3da965ad	0.08271346
5	0xbd0cc587	-0.034368064
6	0x3e210b9c	0.15727085
7	0x3e3c611c	0.1839642
8	0x3d3f5e98	0.04672107
9	0x3e61842c	0.22023076
10	0xbe5ba92d	-0.21451254
11	0x3deb4f46	0.114897296
12	0xbec4b1c5	-0.38416877
13	0xbdf6068a	-0.12012966
14	0xbdd00beb	-0.10158523
15	0x3d56630a	0.052340545

model.encoder.node_encoder.0.4.weight f4 [16, 16]
0	0xbe7b3cb3	-0.24534874
1	0xbe62995c	-0.22128814
2	0x3e5672d6	0.20942244
3	0x3e672864	0.22574002
4	0x3e10adad	0.14128752
5	0xbe6bc618	-0.23024786
6	0xbe88dc85	-0.26730743
7	0x3bfb9975	0.0076782056
8	0xbd7f100d	-0.062271167
9	0xbda8ed2d	-0.08248363
10	0xbe5c2f42	-0.21502402
11	0xbe65a0cd	-0.22424622
12	0xbdada801	-0.0847931
13	0xbe6b3834	-0.22970659
14	0xbe35a6f4	-0.17739469
15	0x3d2b466e	0.041815214
16	0x3dae28e5	0.08503894
17	0x3e87ab4b	0.26497874
18	0xbd320d06	-0.04346945
19	0x3e1c8185	0.15283783
20	0xbd164ef4	-0.03669639
21	0xbd59acc7	-0.05314329
22	0x3cf9df17	0.030501885
23	0x3e31ece2	0.1737552
24	0x3e372b41	0.17887594
25	0x3d98bb48	0.07457596
26	0x3db4bd70	0.08825195
27	0x3e5cb05a	0.21551648
28	0xbde7aadf	-0.11311888
29	0xbe85a696	-0.26103657
30	0x3e256e1a	0.16155282
31	0x3d421bda	0.047389843
32	0x3e48cfbb	0.19610493
33	0xbdefe25a	-0.11713095
34	0xbd0593dc	-0.032611713
35	0x3c85fa48	0.016354695
36	0x3e176842	0.14785865
37	0xbcd029a1	-0.025410475
38	0xbe68dc7c	-0.22740358
39	0x3c7fd7d4	0.015615422
40	0x3d0ee8b2	0.034889884
41	0xbe2f9c28	-0.17149413
42	0x3e241ceb	0.16026656
43	0xbbc9d86b	-0.0061598322
44	0xbdf902c5	-0.12158731
45	0x3d028c5c	0.03187214
46	0x3dc1abca	0.09456594
47	0xbe75c47c	-0.24000734
48	0xbe49b31b	-0.1969723
49	0x3db857f2	0.09001149
50	0xbe47fd0d	-0.19530125
51	0x3e6e05b9	0.2324437
52	0x3dc0b876	0.09410183
53	0x3e8aa335	0.27077642
54	0x3cf87647	0.030329837
55	0x3ea94424	0.330598
56	0xba9257a3	-0.0011165034
57	0xbde7c4ca	-0.113168314
58	0x3deea66c	0.11652836
59	0x3e85e537	0.2615144
60	0x3db2499d	0.08705447
61	0xbe5bfba6	-0.21482715
62	0xbdbaa041	-0.09112597
63	0x3cd56558	0.026049301
64	0x3cf075c0	0.029353023
65	0x3e1af49e	0.15132377
66	0x3d4b5468	0.049641043
67	0x3ccfbca0	0.025358498
68	0xbe051bf9	-0.12998952
69	0xbde41fe2	-0.11138894
70	0xbd9003bc	-0.07031962
71	0x3e0be985	0.136633
72	0x3e602814	0.21890289
73	0xbd9bd6a2	-0.07609297
74	0x3dbefb58	0.09325284
75	0xbe4f20f0	-0.20227408
76	0xbe2d63fb	-0.16932671
77	0xbe067d0e	-0.13133642
78	0xbda0e5a6	-0.07856302
79	0xbe6efd6e	-0.23338863
80	0x3e3146de	0.1731219
81	0xbe1994f6	-0.1499823
82	0x3dd9b049	0.10629327
83	0xbd9d7d57	-0.07689922
84	0x3dc20300	0.094732285
85	0x3e2ff2b6	0.1718243
86	0x3e80b96d	0.2514147
87	0xbdaa1d28	-0.08306342
88	0x3e64bdf9	0.22338094
89	0x3d8e62fd	0.06952474
90	0x3c3b1698	0.011418961
91	0xbdb8e307	-0.09027677
92	0x3df902f7	0.121587686
93	0xbe9e5580	-0.30924606
94	0x3dd8d024	0.10586575
95	0xbdbdeb87	-0.09273439
96	0xbedae831	-0.42755273
97	0xbcae7b2f	-0.021298973
98	0xbe179237	-0.1480187
99	0xbf20c7a4	-0.6280463
100	0x3dcf28bf	0.101151936
101	0x3e775959	0.24155177
102	0xbd04b22b	-0.032396477
103	0xbe34e80e	-0.17666647
104	0x3e47594f	0.19467662
105	0xbe064be7	-0.13114892
106	0x3e05c2d4	0.13062602
107	0x3e62bab3	0.22141533
108	0xbf09f9dc	-0.5389688
109	0xbdb7095c	-0.08937332
110	0x3dfdbab4	0.123891264
111	0x3e83b5c3	0.2572461
112	0xbe2ea873	-0.17056446
113	0xbe858774	-0.26079905
114	0xbe652f54	-0.22381335
115	0xbe66c0d5	-0.22534497
116	0xbce67101	-0.028130056
117	0x3d55b0e0	0.052170634
118	0xbdbe080d	-0.09278879
119	0xbc857804	-0.01629258
120	0x3e6a0e47	0.22857009
121	0x3a3a4b5c	0.00071065663
122	0xbe1bf92d	-0.15231772
123	0x3e5aca6f	0.21366285
124	0xbe4c3913	-0.19943647
125	0x3e461748	0.19344819
126	0xbe39f4d9	-0.18159808
127	0x3e59b8c9	0.21261896
128	0xbd6761fa	-0.056489922
129	0xbe3d9d19	-0.18516959
130	0x3e172ff6	0.1476439
131	0x3de589e0	0.11207938
132	0x3e159a49	0.14609636
133	0x3e15bd7d	0.14623065
134	0x3e80cfcc	0.25158536
135	0xbd2fcea2	-0.04292167
136	0x3deb7e45	0.114986934
137	0xbe80306c	-0.25036943
138	0x3d5c9f92	0.053863116
139	0x3db43419	0.08798999
140	0x3e3ab7c8	0.1823417
141	0x3e7c3771	0.24630524
142	0xbdc837ff	-0.097763054
143	0x3c13b0ec	0.009014349
144	0xbc80d168	-0.015724853
145	0x3e18795e	0.14890048
146	0x3d9ad1b4	0.07559529
147	0xbd039977	-0.032128777
148	0xbe10fc0b	-0.14158647
149	0x3de8aca6	0.11361055
150	0xbc8a523f	-0.016884921
151	0x3e468b59	0.19389094
152	0xbd811845	-0.06303457
153	0xbe6aa7e4	-0.22915608
154	0x3e5bc14d	0.21460457
155	0xbdb73431	-0.089455016
156	0x3e10292c	0.14078206
157	0xbcad0de2	-0.021124784
158	0x3d89f83a	0.067367986
159	0x3e65202b	0.22375552
160	0x3e37de4d	0.17955895
161	0xbe74d53f	-0.23909472
162	0xbe2b20b0	-0.16711688
163	0x3e656861	0.22403099
164	0x3ccc42c1	0.024934174
165	0x3d515966	0.051110648
166	0xbe188a02	-0.14896396
167	0xbe717fd4	-0.23583919
168	0x3e017fd9	0.12646426
169	0x3dd52d25	0.10409001
170	0xbe2ffba7	-0.17185842
171	0x3e13ecf9	0.14445867
172	0x3e0a30b6	0.13495144
173	0xbe07e9b4	-0.13272744
174	0x3e66b6ac	0.22530621
175	0x3dff7c6b	0.12474903
176	0x3e384408	0.17994702
177	0xbe3c8f2c	-0.1841399
178	0xbdc3118f	-0.095248334
179	0x3e159797	0.14608608
180	0x3d81a8bf	0.06331014
181	0x3e22bbbe	0.1589193
182	0x3d79b5bd	0.060964335
183	0xbe4ee5ca	-0.20204845
184	0xbde9a917	-0.114092045
185	0x3ca4932f	0.020089714
186	0xbd8c2bc1	-0.06844283
187	0x3e21872c	0.1577422
188	0xbe1f96d8	-0.15584886
189	0xbe114a25	-0.1418844
190	0x3daa0891	0.08302415
191	0xbd5d7b3a	-0.054072596
192	0x3c7dd8bc	0.015493568
193	0x3d00f14b	0.031480115
194	0xbe560681	-0.20900919
195	0x3d388846	0.045051835
196	0x3b12304d	0.0022306622
197	0xbdedb587	-0.11606889
198	0x3e77c0a5	0.24194582
199	0xbdd0543e	-0.10172318
200	0x3e385678	0.18001735
201	0xbd79e23a	-0.061006762
202	0x3e6a2d45	0.22868831
203	0x3e614829	0.22000183
204	0x3d468356	0.048465095
205	0xbd8256bc	-0.063641995
206	0xbe5a02da	-0.2129015
207	0xbe2c5e6b	-0.16832893
208	0xbb58f2bd	-0.0033103668
209	0xbda3e0a7	-0.080018334
210	0x3e4f647c	0.20253175
211	0xbea33039	-0.31872728
212	0x3e88881f	0.26666352
213	0xbe8d2969	-0.27570656
214	0xbdade8c6	-0.08491664
215	0xbe2daacd	-0.16959687
216	0x3d721789	0.059104476
217	0x3ded2276	0.115788385
218	0xbe6501dd	-0.22363992
219	0x3e78c1a5	0.2429262
220	0x3e53922b	0.20661227
221	0xbdd73167	-0.105074696
222	0xbe39d1b5	-0.18146403
223	0x3e1bd8f3	0.15219478
224	0xbee9bf97	-0.45653984
225	0xbdffdde9	-0.12493498
226	0xbdd36144	-0.10321286
227	0xbe0cea7d	-0.13761325
228	0xbe73599f	-0.23764656
229	0x3dac4694	0.08411899
230	0xbe0972e6	-0.13422737
231	0x3cd07803	0.025447851
232	0xbe168a2c	-0.14701146
233	0xbd0d6936	-0.034524165
234	0x3d8a9a10	0.06767666
235	0x3e0cf717	0.13766132
236	0x3dde82e4	0.10864809
237	0xbe1b700a	-0.15179458
238	0x3e1a7780	0.15084648
239	0x3e492ef4	0.19646817
240	0x3e73e101	0.23816301
241	0xbcdb7ad6	-0.026791971
242	0xbcae51be	-0.021279212
243	0xbdf91f19	-0.121641345
244	0x3e8ecf53	0.2789255
245	0xbd4e8514	-0.050419882
246	0x3e51b3e7	0.20478784
247	0xbca92f24	-0.020652361
248	0xbce79922	-0.028271262
249	0xbe11fd32	-0.14256743
250	0x3e1b9bf9	0.15196218
251	0x3dc9a345	0.09845594
252	0x3d6c1d9c	0.057645425
253	0x3dc50c6a	0.096215084
254	0xbe378eda	-0.17925587
255	0x3d9deba1	0.07710958

model.encoder.node_encoder.0.4.bias f4 [16]
0	0x3d32359a	0.04350815
1	0xbde89544	-0.11356595
2	0x3e45bedf	0.19311093
3	0xbd77affc	-0.060470566
4	0xbe418b73	-0.18900852
5	0x3de0e1d4	0.10980573
6	0x3cf9304e	0.030418541
7	0x3e09cdaa	0.13457361
8	0x3e39f29c	0.18158954
9	0x3e0275a3	0.12740187
10	0x3e0da412	0.13832119
11	0xbc4876cf	-0.012235357
12	0xbcbf2c69	-0.023336606
13	0xbdb44ece	-0.08804093
14	0xbd526936	-0.05136987
15	0x3d3e3934	0.046441272

model.encoder.node_encoder.0.6.weight f4 [16, 16]
0	0xbd7044d4	-0.05865939
1	0xbcdb6227	-0.026780201
2	0xbe413505	-0.18867882
3	0x3d8f3a93	0.06993594
4	0xbdc3f632	-0.095684424
5	0x3e124686	0.14284715
6	0xbe9e22f4	-0.30886042
7	0x3e718e99	0.23589553
8	0xbe4c69d6	-0.19962248
9	0x3eabf591	0.3358579
10	0x3d995501	0.07486916
11	0x3da974f3	0.082742594
12	0x3ccec5a8	0.025240734
13	0xbe84971b	-0.25896534
14	0xbe2614c5	-0.1621886
15	0xbe494f67	-0.19659196
16	0xbe0d6b67	-0.13810502
17	0xbd4e68bb	-0.050392848
18	0x3e035b2c	0.12827748
19	0xbdfee083	-0.12445166
20	0x3e28f31c	0.16498989
21	0xbd6067b9	-0.054786418
22	0x3db3dc31	0.087822326
23	0x3e4e2dd0	0.20134664
24	0xbcfec5a2	-0.031100098
25	0x3d3e28a1	0.046425465
26	0x3d6523a4	0.055942193
27	0xbdf8ea55	-0.1215407
28	0x3dfe7a24	0.1242564
29	0xbdf7ce26	-0.120998666
30	0x3ea79608	0.32731652
31	0x3e38ca3c	0.18045896
32	0x3dd1a615	0.10236756
33	0xbe3e02af	-0.18555711
34	0x3e626fe8	0.22113001
35	0xbd172435	-0.036899764
36	0x3e209af7	0.15684114
37	0xbe79c76b	-0.24392478
38	0xbcb8d01d	-0.022560174
39	0xbd810bcd	-0.06301079
40	0x3e478b6f	0.19486783
41	0x3c225c54	0.009909708
42	0xbdda6507	-0.10663801
43	0x3e8316af	0.25603244
44	0xbd76bea1	-0.06024039
45	0xbd1a483a	-0.037666537
46	0xbe599b68	-0.21250689
47	0xbd8d3d86	-0.068965
48	0xbe6a71a5	-0.22894914
49	0xbe5e113f	-0.21686266
50	0xbd724eb3	-0.059157085
51	0x3d172a08	0.03690532
52	0x3e392aac	0.18082684
53	0xbe3bae08	-0.18328106
54	0xbe26bb42	-0.1628237
55	0xbe57e4de	-0.210834
56	0x3e33e918	0.17569387
57	0xbe6861bb	-0.22693531
58	0x3d89a371	0.06720627
59	0x3de0cf7a	0.10977073
60	0x3e9fc35d	0.31203738
61	0x3d66a2f8	0.056307763
62	0xba9ab664	-0.0011803624
63	0x3c8dec59	0.017324613
64	0xbd8dd3e8	-0.069251835
65	0xbda06e50	-0.078335404
66	0x3cf3b803	0.02975083
67	0xbe160f63	-0.14654307
68	0x3e7ed508	0.24885952
69	0x3e7a9e30	0.24474406
70	0xbd56a80e	-0.052406363
71	0x3d0fc69f	0.03510153
72	0x3df0bd81	0.11754895
73	0x3d716b63	0.058940303
74	0xbe1a2fbf	-0.15057276
75	0xbd81cb93	-0.06337657
76	0xbe4bc180	-0.19898033
77	0xbddd8df9	-0.10818095
78	0x3e340632	0.17580488
79	0x3dfd527a	0.12369247
80	0x3ddeb0e6	0.108735844
81	0x3ddeefc1	0.10885573
82	0xbc7d5e2d	-0.015464348
83	0xbe86a0b0	-0.2629447
84	0x3dfa85f5	0.122325815
85	0xbd969654	-0.073528916
86	0xbe8aa00c	-0.2707523
87	0xbd082d97	-0.033246603
88	0x3d8987dd	0.06715367
89	0x3c66c401	0.014084817
90	0xbdd83dce	-0.10558663
91	0xbc9938ec	-0.0187039
92	0x3dc290fc	0.0950031
93	0x3dac96ed	0.08427224
94	0xbdd7fb5d	-0.105459906
95	0xbc84fb4e	-0.016233113
96	0x3e2660be	0.16247842
97	0xbe2d638c	-0.16932505
98	0xbe0c77f4	-0.13717633
99	0x3e7a522f	0.24445413
100	0x3e022435	0.12709124
101	0x3dc37e8e	0.09545623
102	0x3e30b205	0.17255409
103	0x3d2c9ab6	0.04213973
104	0x3e60bc37	0.21946798
105	0x3e861885	0.26190582
106	0xbe3beb6b	-0.18351524
107	0xbe54f8c7	-0.20798026
108	0x3da180c8	0.07885891
109	0xbebf3482	-0.37344748
110	0xbd816f5e	-0.0632007
111	0xbe659431	-0.22419812
112	0xbcf5da96	-0.030011456
113	0x3e4f7e5d	0.20263048
114	0xbd912d83	-0.07088759
115	0x3e5eccde	0.21757838
116	0x3e699913	0.228123
117	0x3d3dc30c	0.04632859
118	0x3e5eeb50	0.21769452
119	0xbe6bfc5e	-0.23045489
120	0xbc34c815	-0.011034031
121	0xbdac55a7	-0.084147744
122	0xbdabb572	-0.08384217
123	0xbe033915	-0.12814744
124	0x3e2d84eb	0.16945235
125	0xbea8343e	-0.32852358
126	0x3dd34853	0.10316529
127	0xbd4cb0bd	-0.04997324
128	0x3c944115	0.01809744
129	0xbdebd731	-0.11515654
130	0xbc706a68	-0.014673807
131	0xbe2b1baa	-0.16709772
132	0xbe411535	-0.18855746
133	0xbe48163b	-0.1953973
134	0xbe0d00dd	-0.1376986
135	0xbe4100fc	-0.18848032
136	0x3dc86a44	0.097858936
137	0xbe222f55	-0.15838368
138	0xbe1bd7f4	-0.15219098
139	0x3e62f7c0	0.22164822
140	0x3d932401	0.071846016
141	0x3d51369b	0.051077466
142	0xbd8748d1	-0.066056855
143	0xbdfa9f2f	-0.12237393
144	0x3d5ac655	0.0534118
145	0xbe628ddd	-0.22124429
146	0xbe3e46bc	-0.1858167
147	0xbc1d885c	-0.00961503
148	0x3b358a58	0.0027700868
149	0x3dc50acf	0.09621202
150	0xbd8c8a65	-0.06862334
151	0xbacf90ec	-0.0015836037
152	0x3d6abbef	0.057308134
153	0xbe12afa8	-0.1432482
154	0x3e0cf7a9	0.1376635
155	0xbd16dff1	-0.03683466
156	0xbde0f70d	-0.10984621
157	0xbe448d56	-0.1919454
158	0x3e646504	0.2230416
159	0x3dc0949e	0.094033465
160	0x3e54a211	0.20764948
161	0x3ba12132	0.0049172873
162	0x3ccb01fe	0.024781223
163	0xbe23b248	-0.15985978
164	0x3e7beac4	0.24601275
165	0x3e3ad375	0.18244727
166	0xbda9f575	-0.0829877
167	0xbe821a41	-0.25410655
168	0xbdedbbf0	-0.11608112
169	0xbdc7d440	-0.0975728
170	0x3b2f5332	0.002675247
171	0x3d90536d	0.07047162
172	0x3e4c4878	0.1994952
173	0x3e87316d	0.26404896
174	0xbe1a734c	-0.15083045
175	0x3d7c4b41	0.061595205
176	0xbdf325e3	-0.11872461
177	0xbe715bb2	-0.23570135
178	0xbd4f160d	-0.05055814
179	0xbd5d91f0	-0.054094255
180	0xbe050f1e	-0.12994048
181	0xbc3bf528	-0.011472024
182	0xbc708beb	-0.014681797
183	0x3d000886	0.03125813
184	0xbd0e5790	-0.034751475
185	0xbe2a9575	-0.16658576
186	0x3c826e45	0.015921721
187	0x3d265a56	0.040613495
188	0x3e01f1be	0.12689874
189	0xbe1f89e8	-0.15579951
190	0xbe1a9b20	-0.15098238
191	0x3dc3d575	0.09562198
192	0xbdba28fe	-0.0908985
193	0x3df5328a	0.1197253
194	0x3e127a89	0.14304556
195	0xbe025601	-0.1272812
196	0xbd53aefd	-0.051680554
197	0xbe88f1d1	-0.2674699
198	0x3e6cf51b	0.23140375
199	0xbb36a5f2	-0.0027869907
200	0xbe3e5c91	-0.18589999
201	0xbe0609f0	-0.13089728
202	0xbe80de3b	-0.25169548
203	0x3dcd3db7	0.10021537
204	0xbeac5f9d	-0.33666697
205	0x3e01e933	0.12686615
206	0x3deae880	0.11470127
207	0xbe09f6dc	-0.13473076
208	0x3e721eff	0.23644637
209	0xbdffeed9	-0.124967285
210	0xbe36bbd2	-0.17845085
211	0x3da4878f	0.08033668
212	0x3e4f06b6	0.20217404
213	0xbd8becf7	-0.06832307
214	0xbcf9a444	-0.030473836
215	0xbdd2d2f5	-0.10294143
216	0x3e023637	0.12715994
217	0xbe0669f0	-0.1312635
218	0xba8789a7	-0.0010340706
219	0x3d81dcb6	0.063409254
220	0xbd5786bc	-0.052618727
221	0x3ea30b70	0.31844664
222	0x3d79eb3b	0.06101535
223	0x3cd37e41	0.025817038
224	0xbddd80cc	-0.10815582
225	0xbd4c523b	-0.04988311
226	0x3ace1bf4	0.0015724883
227	0xbde37e33	-0.11108055
228	0xbe120c50	-0.1426251
229	0x3d5f3b1c	0.05449973
230	0x3b3df6b9	0.002898617
231	0x3e5f5407	0.21809398
232	0x3ce96d4e	0.028494503
233	0xbe039ba8	-0.12852347
234	0x3e6190e5	0.22027929
235	0xbe22c0d6	-0.15893874
236	0xbe1e6d35	-0.15471347
237	0xbdee776e	-0.11643873
238	0xbda6d71c	-0.081464976
239	0xbe608748	-0.21926606
240	0x3e3e9f68	0.18615496
241	0xbe2c5285	-0.16828354
242	0xbd161d31	-0.036648933
243	0xbe513854	-0.20431644
244	0x3e6b2fc4	0.2296744
245	0xbda94402	-0.082649246
246	0xbd9dfb52	-0.07713951
247	0xbe475d3e	-0.19469163
248	0xbc5187c7	-0.0127887195
249	0xbe583b3e	-0.21116349
250	0xbdce07bd	-0.1006007
251	0x3e0df0c3	0.13861375
252	0xbdd2c3b3	-0.10291233
253	0x3dfef00c	0.12448129
254	0x3eb3f79e	0.35149854
255	0xbc5bc013	-0.013412493

model.encoder.node_encoder.0.6.bias f4 [16]
0	0xbd55cc04	-0.052196518
1	0xbe826784	-0.254696
2	0xbe9997d2	-0.29998642
3	0xbe1bc3ff	-0.15211485
4	0xbe18983d	-0.14901824
5	0x3db2b614	0.08726135
6	0x3e1767cd	0.1478569
7	0xbd4fac21	-0.050701264
8	0x3a573e8e	0.00082109205
9	0x3d0c0d3d	0.034192313
10	0x3aced9b3	0.0015781432
11	0x3e87dce4	0.26535714
12	0x3e3069d9	0.17227878
13	0xbe94acd0	-0.29038095
14	0x3e113aed	0.14182635
15	0x3e7d01f4	0.24707776

model.encoder.node_encoder.1.weight f4 [16]
0	0x3fa17fe1	1.261715
1	0x3f84cb26	1.0374496
2	0x3f82568d	1.0182663
3	0x3f87c1b6	1.0605991
4	0x3f7c084a	0.9845015
5	0x3f7c1555	0.9847005
6	0x3f9762a7	1.1826981
7	0x3f913ef1	1.1347333
8	0x3f7e8db1	0.99434954
9	0x3f7c7f2c	0.9863155
10	0x3f8d022b	1.1016287
11	0x3f7e6292	0.99369156
12	0x3f930aea	1.1487706
13	0x3f856546	1.0421531
14	0x3f7909a1	0.9728032
15	0x3f8985ce	1.0743959

model.encoder.node_encoder.1.bias f4 [16]
0	0x3cb2b47f	0.021814583
1	0x3b1b31c7	0.0023680793
2	0x3d98613a	0.074404195
3	0x3db0cee4	0.08633211
4	0x3c7ef860	0.015562147
5	0xbd1e8dec	-0.038709566
6	0xbd3e548f	-0.04646736
7	0x3c192f23	0.009349617
8	0x3b9af167	0.0047284844
9	0xbaeb3447	-0.0017944657
10	0xbc26829a	-0.010162974
11	0xbbdb708b	-0.006696766
12	0xbd6fd9f5	-0.05855747
13	0x3cc489d3	0.023991501
14	0xbd5a9484	-0.05336429
15	0xbc533d72	-0.012893068
