model_collection/best_24.pth (torch, 138364 bytes, 92 tensors)

model.encoder.edge_encoder.0.0.weight f4 [24, 1]
-0.15269864 0.6242567 0.09521938 -0.45646596 -0.39626062 -0.16797209 -0.74775267 -0.6877651
0.98087907 -0.77995634 -0.017437935 -0.010844827 -0.06735623 -0.06823516 0.46233407 -0.82576585
-0.08948505 0.7007693 0.6249425 0.15710402 -0.26161122 0.032896105 -0.56348336 0.17742443
00000000: 085d 1cbe 49cf 1f3f 6102 c33d e8b5 e9be
00000010: ace2 cabe e000 2cbe b86c 3fbf 6011 30bf
00000020: e41a 7b3f 38ab 47bf 00da 8ebc 80ae 31bc
00000030: 10f2 89bd e0be 8bbd 0db7 ec3e 6465 53bf
00000040: f043 b7bd 9e65 333f 3bfc 1f3f e0df 203e
00000050: e8f1 85be 11be 063d 7240 10bf c0ae 353e

model.encoder.edge_encoder.0.0.bias f4 [24]
-0.16813242 -0.29006097 0.16720948 -0.85198164 -0.59756327 0.6873931 0.15108073 -0.32588518
0.42438233 -0.088757634 -0.012140632 -0.65772784 -0.9221201 -0.34670877 -0.1368274 -0.5841054
-0.82223403 0.4863499 -0.24237236 -0.06421211 -0.81303763 0.097184494 -0.99453676 -0.99114907
00000000: e82a 2cbe df82 94be f638 2b3e 781b 5abf
00000010: e8f9 18bf fff8 2f3f e8b4 1a3e 6cda a6be
00000020: a448 d93e 90c6 b5bd 80e9 46bc da60 28bf
00000030: 1010 6cbf d083 b1be 7b1c 0cbe ee87 15bf
00000040: ee7d 52bf db02 f93e 7630 78be a481 83bd
00000050: 3c23 50bf aa08 c73d f699 7ebf f2bb 7dbf

model.encoder.edge_encoder.0.2.weight f4 [24, 24]
-0.11301023 0.09554553 -0.01705055 0.1290555 -0.14908035 -0.06854397 0.122220546 -0.17042512
-0.17288603 0.121316314 -0.19498707 0.076019526 0.0628455 -0.13704787 -0.17160715 -0.07531287
-0.18640721 -0.16902009 -0.13284972 -0.15130782 0.13121766 -0.08089738 0.04903242 -0.088234834
0.06945488 -0.10382272 -0.07344927 0.0125784725 0.10804802 0.05044982 -0.15257664 0.086411685
-0.03579092 -0.041704595 -0.08832419 0.10040888 -0.16813241 0.07187101 -0.021119937 -0.08006813
-0.08582925 -0.04775098 -0.03794332 0.05572653 -0.043784156 -0.08965761 0.07564226 -0.0037785769
-0.026019618 0.010718122 0.12332064 0.06965941 -0.1949341 -0.15710877 -0.19404136 -0.19171248
-0.1671185 -0.1644551 0.16791022 0.06499532 -0.094495185 0.03293544 0.18285957 -0.043277636
-0.11386567 -0.10655759 -0.04955478 -0.07100916 -0.04333633 -0.14072582 0.047495216 0.1369552
-0.0724114 -0.12944914 -0.1631004 -0.04988639 0.081441134 -0.0053497953 -0.09815597 -0.03890167
0.055866677 0.13032544 0.0027623177 -0.045939103 -0.19129477 -0.17790593 -0.043862477 0.13547409
-0.07898544 0.026492473 -0.099380754 0.15456124 0.028284118 0.039785262 -0.025153682 0.019243881
-0.07382846 0.063315295 -0.06711356 0.14025927 -0.1357714 0.046614412 0.00108625 -0.02510859
0.14670745 0.010715857 0.06156981 0.03905426 -0.19920465 -0.14485323 0.18629739 0.11206809
-0.08305185 0.18796976 0.20840272 0.12647046 -0.12906933 0.12056341 0.17226902 -0.08833441
0.009445235 -0.17238525 0.020380536 -0.19902094 0.16213402 0.039845195 -0.18088807 -0.08089792
0.17152363 0.04866478 -0.04304938 -0.19817822 0.20127425 0.11505404 -0.051646996 -0.19038051
0.015097618 0.16167907 0.010460187 0.022772644 -0.17685516 -0.11939599 -0.045721754 -0.074175745
-0.16266719 -0.012061477 -0.15584683 0.15123996 0.18156824 -0.053677842 0.0050469786 -0.15334018
-0.029810116 -0.04229684 -0.09266356 -0.17315888 0.02592142 -0.1654409 0.05953902 -0.1172425
0.13713178 -0.02867204 0.0059101135 -0.08284446 -0.11114845 0.09328282 -0.14652312 -0.089472316
-0.14655167 -0.0790714 -0.13764587 0.063627005 0.024333715 0.14597937 -0.1765447 0.034212917
0.051882297 0.055939913 -0.088155776 -0.09511202 -0.025908485 -0.08561093 0.17678824 0.013462871
-0.13107003 -0.1584733 0.18984815 -0.19208783 0.13565043 -0.10745983 -0.16271828 0.12801874
0.06648734 0.11538684 0.032183215 -0.040506274 -0.10324799 0.008701026 0.026098594 0.07695186
-0.15590018 -0.025543362 -0.033307537 -0.1985791 -0.07658243 -0.12829188 -0.08240497 0.05396691
-0.10493413 -0.035872683 0.15739843 0.20270243 0.19728294 0.14565516 0.08759987 -0.03611444
-0.116515175 -0.1422059 -0.19723196 0.13698548 -0.0103952885 -0.04433623 0.021467447 0.031748593
-0.18540719 -0.0015981197 0.12416908 0.14928654 0.0034858733 -0.19569917 -0.16008143 -0.045913026
-0.18853293 0.034220994 -0.17540506 0.18445814 -0.101710655 0.15655738 0.09279916 -0.06489731
-0.06873134 0.18904525 0.025802612 -0.08023284 -0.07269451 0.036694184 0.10568431 -0.1559276
-0.009609863 -0.0931008 0.19731733 0.013037935 -0.191003 -0.044436485 0.19284749 0.08574045
00000000: e871 e7bd 60ad c33d 98ad 8bbc 2027 043e
00000010: 85a8 18be c860 8cbd c44e fa3d ec83 2ebe
00000020: 0909 31be b074 f83d b1aa 47be 20b0 9b3d
00000030: 24b5 803d 4756 0cbe c9b9 2fbe a23d 9abd
00000040: 88e1 3ebe 9a13 2dbe c209 08be 70f0 1abe
00000050: ec5d 063e 87ad a5bd 38d6 483d 77b4 b4bd
00000060: 5c3e 8e3d 02a1 d4bd 926c 96bd f015 4e3c
00000070: 4848 dd3d 78a4 4e3d 0d3d 1cbe 9cf8 b03d
00000080: 8099 12bd 70d2 2abd 50e3 b4bd 2ca3 cd3d
00000090: e72a 2cbe 1c31 933d b803 adbc c2fa a3bd
000000a0: 3fc7 afbd 8896 43bd 746a 1bbd 8041 643d
000000b0: 0457 33bd 699e b7bd 54ea 9a3d 00a2 77bb
000000c0: 1827 d5bc 109b 2f3c 888f fc3d 98a9 8e3d
000000d0: ce9c 47be 1fe1 20be c7b2 46be 4750 44be
000000e0: 1d21 2bbe eb66 28be a8f0 2b3e 441c 853d
000000f0: b186 c1bd 50e7 063d 8a3f 3b3e e443 31bd
00000100: 6832 e9bd de3a dabd f4f9 4abd 406d 91bd
00000110: 7081 31bd 6e1a 10be 588a 423d fc3d 0c3e
00000120: 6e4c 94bd 518e 04be cb03 27be ac55 4cbd
00000130: 9cca a63d 564d afbb ff05 c9bd 5c57 1fbd
00000140: 75d4 643d 0874 053e 0008 353b a42a 3cbd
00000150: c7e2 43be f92c 36be 24a9 33bd b8b9 0a3e
00000160: 1ec3 a1bd be06 d93c 2388 cbbd 4d45 1e3e
00000170: 18b4 e73c dff5 223d 180f cebc 58a5 9d3c
00000180: 6033 97bd 73ab 813d d672 89bd 20a0 0f3e
00000190: a807 0bbe c1ee 3e3d 8060 8e3a 88b0 cdbc
000001a0: 7a3a 163e 9091 2f3c a030 7c3d 5cf7 1f3d
000001b0: 4efc 4bbe 6854 14be bec4 3e3e f483 e53d
000001c0: 1717 aabd 257b 403e 8667 553e 7981 013e
000001d0: c02a 04be f3e9 f63d 4a67 303e ace8 b4bd
000001e0: 30c0 1a3c c285 30be 15f5 a63c 25cc 4bbe
000001f0: 7606 263e b734 233d b93a 39be cfad a5bd
00000200: e4a3 2f3e b854 473d 8c54 30bd 3bef 4abe
00000210: d61a 4e3e 74a1 eb3d cd8b 53bd 1cf3 42be
00000220: 005c 773c 338f 253e 3461 2b3c b28d ba3c
00000230: 8519 35be e385 f4bd bc46 3bbd 74e9 97bd
00000240: 3a92 26be 809d 45bc 5096 1fbe a6de 1a3e
00000250: 06ed 393e 4cdd 5bbd 2061 a53b 3505 1dbe
00000260: 5834 f4bc 743f 2dbd 64c6 bdbd 9050 31be
00000270: 2859 d43c 5769 29be 30df 733d d61c f0bd
00000280: 466c 0c3e a0e1 eabc a0a9 c13b 5baa a9bd
00000290: cca1 e3bd 100b bf3d 280a 16be 433d b7bd
000002a0: a411 16be 30f0 a1bd 0af3 0cbe e04e 823d
000002b0: 8057 c73c 9e7b 153e 22c8 34be d822 0c3d
000002c0: 8882 543d 4021 653d 048b b4bd 17ca c2bd
000002d0: 083e d4bc c954 afbd fa07 353e 6093 5c3c
000002e0: 3937 06be d346 22be 8e67 423e acb2 44be
000002f0: f2e7 0a3e e613 dcbd 9f9f 26be 5817 033e
00000300: 842a 883d f04f ec3d 8cd2 033d e8e9 25bd
00000310: af73 d3bd c08e 0e3c b8cc d53c f098 9d3d
00000320: 4ca4 1fbe 5040 d1bc 7c6d 08bd 5258 4bbe
00000330: 40d7 9cbd f25e 03be f0c3 a8bd 680c 5d3d
00000340: b5e7 d6bd 3cef 12bd 0e2d 213e 3a91 4f3e
00000350: 8a04 4a3e a026 153e 9067 b33d bcec 13bd
00000360: 829f eebd 6c9e 11be 2df7 49be ec45 0c3e
00000370: 0051 2abc e899 35bd 80dc af3c d00a 023d
00000380: 62db 3dbe 0078 d1ba 5c4c fe3d 92de 183e
00000390: 4073 643b 5d65 48be 63ec 23be 4c0f 3cbd
000003a0: c70e 41be 502b 0c3d 629d 33be 98e2 3c3e
000003b0: ad4d d0bd 9450 203e 7c0d be3d e2e8 84bd
000003c0: 04c3 8cbd 1495 413e 0060 d33c 1d51 a4bd
000003d0: dce0 94bd a44c 163d 0471 d83d 7cab 1fbe
000003e0: b072 1dbc a2ab bebd 8e0d 4a3e 109d 553c
000003f0: 4a96 43be 0803 36bd d079 453e b098 af3d

model.encoder.edge_encoder.0.2.bias f4 [24]
-0.11647196 -0.083906196 0.024340868 -0.0016820248 0.11768585 -0.20275462 -0.030712843 -0.07875314
-0.051943004 -0.13313612 -0.024151474 -0.044108883 0.20082034 0.13115658 -0.041903924 0.12124419
0.18088405 0.08460319 0.15040462 -0.16843902 -0.062060505 0.06842322 0.08615661 0.21025218
00000000: da88 eebd 03d7 abbd 8066 c73c 6377 dcba
00000010: 4705 f13d e89e 4fbe 8099 fbbc 5449 a1bd
00000020: 30c2 54bd d654 08be 50d9 c5bc 84ab 34bd
00000030: d9a3 4d3e e94d 063e 73a3 2bbd e04e f83d
00000040: ab39 393e 7044 ad3d ab03 1a3e 477b 2cbe
00000050: 2833 7ebd 7921 8c3d e072 b03d 594c 573e

model.encoder.edge_encoder.0.4.weight f4 [24, 24]
0.18046397 -0.00717023 -0.10886884 -0.1492809 0.18753476 -0.09512183 0.113285184 -0.089815006
0.16035128 0.009982988 -0.064488575 0.1468297 0.13660721 0.17198624 0.049005456 0.13504615
0.05470312 0.031846657 0.07606005 -0.14665179 -0.013532296 -0.015048112 0.20694536 0.2084416
-0.18079013 -0.035488456 0.19503754 0.06319761 -0.055654332 0.1792593 -0.15228572 0.11850232
0.032597423 -0.14510408 0.035838813 -0.0037741214 0.07078025 0.16426182 0.18448183 0.031977892
0.14048684 0.1709215 -0.1698274 -0.004721567 -0.008647606 0.048989207 -0.08401821 -0.05376999
-0.16101006 0.14733016 0.049869716 -0.17384836 0.016866375 -0.15008989 -0.17779244 0.037045196
-0.15224442 -0.10220399 0.19000494 -0.057918712 0.14187533 -0.02531552 0.12252867 -0.14875925
-0.13735376 0.011020839 -0.08249145 0.024269894 -0.008506402 -0.048084486 0.09697705 -0.022344582
-0.04924576 0.05023992 -0.104398794 0.040393967 0.16026886 -0.20074998 -0.14567858 0.018044412
-0.17267269 -0.00039552152 0.094182074 0.17597482 -0.0068044704 0.11710143 0.13086349 -0.13141869
-0.078244075 -0.17863333 0.1423382 -0.15136525 -0.12654519 0.049089856 0.0852127 -0.051366765
-0.08034107 0.18679908 0.16942069 0.06509188 -0.115903944 -0.20200619 0.030438498 0.09248558
0.12623653 -0.031167626 0.029566556 0.09542143 -0.05967614 0.08830279 0.07185194 -0.09796032
-0.055181354 -0.118507504 -0.10577101 0.08813855 -0.14890084 -0.11179246 0.14000702 0.03467436
-0.05801694 0.13944167 0.1681638 -0.017147275 0.08259593 0.11003431 -0.1378703 -0.11211244
-0.009248361 -0.10404693 0.081585705 -0.17851144 -0.05037336 -0.05917633 -0.19932199 0.065432385
-0.05355103 0.064270884 -0.19922927 0.17590046 0.0141837 -0.11571503 0.024355587 -0.1408882
0.14110139 0.14407533 -0.19673853 -0.17215072 0.10557917 0.099760234 0.11232346 0.11438978
0.06555468 -0.19417568 -0.0047912896 -0.011776105 0.019363502 0.02299222 0.055952422 0.09449139
0.07928865 -0.17229751 0.14308454 0.17598991 -0.09162313 0.17318214 -0.067536436 -0.1111829
-0.08464645 0.109321 -0.17828612 -0.1406101 -0.19136548 0.12870975 -0.023990318 0.12237367
-0.057621613 -0.17666206 -0.122278854 0.09989467 0.09693877 -0.15465559 0.12254447 -0.18989703
0.18919775 0.1611087 0.16954927 -0.07761538 -0.12842157 0.03864856 -0.024305167 0.14003283
0.11183879 0.036979347 0.075766 -0.04002349 -0.12006456 -0.0463192 0.036221325 0.19976196
0.17093387 -0.053425595 -0.00049093366 -0.1646676 0.16055724 -0.039726794 -0.15346482 0.09729496
0.084695935 -0.0748335 0.17665333 -0.006263107 -0.08642053 -0.16442922 -0.19610316 -0.1264332
0.17486596 -0.14081854 -0.16491336 0.012329942 0.007007047 -0.09816131 -0.08675843 0.18990815
0.1838598 -0.11301755 0.14280105 -0.07624596 -0.018718032 0.14685175 -0.012228536 -0.00742005
-0.1056968 -0.013160035 0.15490416 0.1288139 0.0066201985 0.18318218 0.10131947 0.13719223
-0.08504111 0.1353612 -0.0831368 0.012943703 0.18237987 0.15132302 -0.030470714 0.04713708
-0.19993152 -0.0062704235 -0.11944816 -0.16738267 0.08912349 -0.034572314 -0.12411318 -0.050113223
00000000: 8ccb 383e 40f4 eabb a0f6 debd 18dd 18be
00000010: 1d09 403e 3ccf c2bd 1002 e83d eef0 b7bd
00000020: 2033 243e b08f 233c 9612 84bd 865a 163e
00000030: c3e2 0b3e 291d 303e f2b9 483d 8a49 0a3e
00000040: 6110 603d a471 023d 5fc5 9b3d e32b 16be
00000050: 90b6 5dbc 5b8c 76bc 7ce9 533e b771 553e
00000060: 0c21 39be 585c 11bd ecb7 473e c06d 813d
00000070: ccf5 63bd c08f 373e caf0 1bbe 58b1 f23d
00000080: e084 053d 2a96 14be b8cb 123d 4057 77bb
00000090: 3cf5 903d 4034 283e cee8 3c3e 40fb 023d
000000a0: c8db 0f3e 0c06 2f3e 3ce7 2dbe 60b7 9abb
000000b0: b0ae 0dbc e8a8 483d bd11 acbd ec3d 5cbd
000000c0: d2df 24be b8dd 163e 3044 4c3d 4e05 32be
000000d0: 5a2b 8a3c 2ab1 19be 390f 36be b4bc 173d
000000e0: f6e5 1bbe 5350 d1bd a890 423e 2c3c 6dbd
000000f0: c447 113e 7e62 cfbc 50f0 fa3d 5854 18be
00000100: 77a6 0cbe c090 343c 47f1 a8bd a8d1 c63c
00000110: 705e 0bbc 3df4 44bd e79b c63d fc0b b7bc
00000120: ecb5 49bd 60c8 4d3d 09cf d5bd 2574 253d
00000130: 851d 243e 6791 4dbe c42c 15be e0d1 933c
00000140: 1cd1 30be 005e cfb9 88e2 c03d be32 343e
00000150: 09f8 debb e0d2 ef3d 1401 063e 9f92 06be
00000160: 6e3e a0bd a8eb 36be 1bc1 113e 7eff 1abe
00000170: 1095 01be 7212 493d ff83 ae3d f565 52bd
00000180: dc89 a4bd 4248 3f3e 9e7c 2d3e e44e 853d
00000190: 0c5f edbd b6da 4ebe 285a f93c 1469 bd3d
000001a0: 2644 013e 4053 ffbc 9035 f23c 506c c33d
000001b0: f86e 74bd 18d8 b43d 1c27 933d 6c9f c8bd
000001c0: d805 62bd 10b4 f2bd 799e d8bd fc81 b43d
000001d0: 7679 18be 72f3 e4bd 005e 0f3e b406 0e3d
000001e0: 2ca3 6dbd ccc9 0e3e 2233 2c3e 7178 8cbc
000001f0: 0e28 a93d ab59 e13d df2d 0dbe 359b e5bd
00000200: 7086 17bc 8f16 d5bd 6816 a73d b4cb 36be
00000210: 4c54 4ebd e162 72bd 101b 4cbe 6a01 863d
00000220: 5358 5bbd 74a0 833d c202 4cbe 401f 343e
00000230: c062 683c 00fc ecbd 5e85 c73c ff44 10be
00000240: e27c 103e 7c88 133e d375 49be 4748 30be
00000250: e439 d83d 184f cc3d d809 e63d 3045 ea3d
00000260: 8841 863d fdd5 46be 4000 9dbb 90f0 40bc
00000270: 35a0 9e3c 2e5a bc3c 5e2e 653d b484 c13d
00000280: 1662 a23d c26e 30be c184 123e b336 343e
00000290: e8a4 bbbd a956 313e 8b50 8abd dcb3 e3bd
000002a0: 1e5b adbd b0e3 df3d a390 36be 18fc 0fbe
000002b0: 50f5 43be 7dcc 033e 5887 c4bc 0c9f fa3d
000002c0: a404 6cbd e6e6 34be 566d fabd 9495 cc3d
000002d0: d587 c63d 095e 1ebe 98f8 fa3d 5e74 42be
000002e0: 0ebd 413e aef9 243e 539e 2d3e d0f4 9ebd
000002f0: f280 03be f44d 1e3d a11b c7bc c464 0f3e
00000300: bc0b e53d a877 173d 342b 9b3d acef 23bd
00000310: 68e4 f5bd 34b9 3dbd d05c 143d 668e 4c3e
00000320: 4a09 2f3e ccd4 5abd 00b2 00ba a09e 28be
00000330: 1e69 243e 90b8 22bd e225 1dbe 9442 c73d
00000340: 1075 ad3d 4e42 99bd 9ce4 343e c03a cdbb
00000350: 3ffd b0bd 2260 28be 44cf 48be b477 01be
00000360: 1010 333e bc32 10be 0cdf 28be 8603 4a3c
00000370: 5f9b e53b cc08 c9bd 67ae b1bd 4877 423e
00000380: be45 3c3e bf75 e7bd 703a 123e d826 9cbd
00000390: 8f56 99bc 4e60 163e 335a 48bc e423 f3bb
000003a0: 9077 d8bd 309d 57bc 329f 1e3e cae7 033e
000003b0: 40ee d83b 1c94 3b3e 9580 cf3d 1f7c 0c3e
000003c0: 092a aebd 209c 0a3e a043 aabd d311 543c
000003d0: cac1 3a3e 6cf4 1a3e b89d f9bc d012 413d
000003e0: d9ba 4cbe 2078 cdbb 3da1 f4bd 5d66 2bbe
000003f0: 6086 b63d b39b 0dbd 0d2f febd 8643 4dbd

model.encoder.edge_encoder.0.4.bias f4 [24]
0.20444265 -0.18725528 0.19555636 0.01944959 -0.051410004 0.17510694 0.08283554 -0.00979066
-0.11755716 -0.11659862 -0.0338159 -0.013756303 -0.18793398 -0.20072131 -0.14739782 0.09363087
-0.100504026 0.08439943 -0.08528209 0.1571807 0.02485396 0.17789838 0.1525516 -0.17680477
00000000: 6a59 513e d9bf 3fbe ed3f 483e bf54 9f3c
00000010: 4c93 52bd 3c4f 333e aea5 a93d 0169 20bc
00000020: cfc1 f0bd 42cb eebd 8b82 0abd 1e62 61bc
00000030: c471 40be e389 4dbe 74ef 16be 8bc1 bf3d
00000040: 0ed5 cdbd 9cd9 ac3d 60a8 aebd faf3 203e
00000050: 889a cb3c fe2a 363e 7d36 1c3e 4f0c 35be

model.encoder.edge_encoder.0.6.weight f4 [24, 24]
-0.070417866 0.0013014823 0.18784581 -0.1353676 -0.20101947 -0.09238117 0.13552487 0.1893051
-0.06317669 -0.19089052 -0.17341122 -0.0092873145 0.19934162 0.1136179 0.09937136 -0.005947799
0.11719078 -0.06789261 0.030890346 -0.071177825 -0.12400707 0.1105943 -0.15465514 0.13808617
-0.013941832 -0.06581031 0.033576205 -0.17885715 -0.053606063 -0.0020818077 -0.053817272 0.075963385
0.19174746 -0.15871102 0.12058891 0.08460695 -0.059728906 0.17383006 -0.043302167 0.16590863
0.14549184 0.1768567 0.05993387 -0.1864211 -0.09153623 -0.09336161 0.13430035 0.19394925
0.1572282 0.14847687 -0.011766058 -0.19138625 -0.024004892 -0.17040212 -0.17913924 0.034822993
-0.05818127 -0.039650172 0.09940382 0.13769795 -0.12161127 -0.020011961 0.14867666 0.07276948
0.123328626 -0.105220005 -0.07122509 -0.030158058 -0.11305186 -0.089865424 0.0016668628 -0.18128802
-0.19034237 -0.1957528 -0.1815491 0.023040101 -0.13301358 0.1258139 0.0336834 -0.011949844
-0.19467957 -0.11625242 -0.17026553 -0.19028793 -0.10416979 -0.028137356 -0.14310512 0.03759604
0.042951226 -0.07267755 -0.017499998 -0.15057172 0.11193377 -0.07477787 -0.19222419 -0.08638452
0.17452924 -0.11435383 0.1736284 0.1464932 0.1278016 0.046621583 -0.08186627 0.014736891
0.12318602 -0.10950802 -0.09928968 -0.031093132 0.057878166 -0.18879493 0.08785735 0.124774404
-0.15038645 0.09967211 0.013724163 -0.012555418 -0.14528637 0.1357437 -0.11592178 0.041329667
-0.0770833 0.012064651 -0.020110711 -0.0366824 -0.09119294 -0.10059716 0.19595839 0.12735169
-0.084495194 -0.18727772 0.19889542 -0.18489808 -0.056730717 0.066467464 0.0008641113 0.16739948
0.120319456 0.19352314 0.14846426 0.15599588 0.12810251 0.018059686 -0.0018570945 -0.09668218
-0.14205422 -0.156552 0.17821272 -0.046198234 -0.14093935 -0.040303256 0.012185591 -0.08038823
-0.17219134 0.052179646 0.0030253143 0.15422428 0.0073692054 0.19044715 0.12396389 -0.1563706
0.024679244 -0.08330346 -0.071036234 0.1783503 -0.05451499 -0.008708328 -0.1272379 -0.07292354
-0.12216325 -0.1927279 0.08925445 0.0652992 0.09906191 -0.16849284 -0.027184853 -0.034996945
0.1869542 0.067537 0.041259896 0.116514 0.1821068 -0.018873543 0.15777746 0.18578427
-0.11023553 0.04461254 0.043582574 -0.13152431 -0.1869702 0.108890325 0.12726504 -0.19067474
0.011304255 -0.16660653 -0.0927425 -0.1830684 0.093075395 0.15637355 0.09784605 -0.029307896
0.18492538 -0.12626694 0.14353187 -0.04988854 -0.1986403 -0.14417143 -0.119506784 0.1146333
-0.008300155 0.012835428 -0.10445686 0.14705366 0.19216186 0.06687987 0.14754643 -0.028840765
0.11669073 0.15554473 0.019324431 0.16550346 -0.15748867 0.19740991 0.19094725 -0.15112208
0.19762126 0.100290924 0.06341416 -0.08525659 -0.03677416 0.015349209 -0.16755623 0.17183964
-0.12417986 -0.18384415 -0.03879559 0.19957472 0.10966718 0.05122772 0.040194925 0.12481105
0.09816988 0.20357618 -0.1678895 0.19184268 -0.033906102 0.10600481 -0.11782953 0.17123643
-0.02007632 0.035849165 0.13921489 -0.14439751 0.034031883 -0.16843122 0.18217246 0.05236891
00000000: 3e37 90bd 8096 aa3a a75a 403e ce9d 0abe
00000010: 0cd8 4dbe 5732 bdbd 08c7 0a3e 32d9 413e
00000020: c862 81bd ce78 43be b692 31be d229 18bc
00000030: 3620 4c3e 80b0 e83d 3683 cb3d c1e5 c2bb
00000040: b801 f03d 480b 8bbd c00d fd3c aec5 91bd
00000050: 6bf7 fdbd 447f e23d eb5d 1ebe 7666 0d3e
00000060: 486c 64bc 8ec7 86bd 3487 093d 5426 37be
00000070: 0892 5bbd f06e 08bb 806f 5cbd b192 9b3d
00000080: 7259 443e 2485 22be 52f7 f63d 6946 ad3d
00000090: 4ca6 74bd 8200 323e 9d5d 31bd f4e3 293e
000000a0: d0fb 143e ec19 353e 387d 753d 2ce5 3ebe
000000b0: 5977 bbbd 5f34 bfbd 0886 093e a29a 463e
000000c0: 6e00 213e 520a 183e 6dc6 40bc c2fa 43be
000000d0: e8a5 c4bc e57d 2ebe 4770 37be 8ea2 0e3d
000000e0: 7c4f 6ebd 3868 22bd 3b94 cb3d b100 0d3e
000000f0: 540f f9bd 20f0 a3bc b23e 183e 2a08 953d
00000100: b893 fc3d 967d d7bd 76de 91bd 080e f7bc
00000110: bc87 e7bd 5d0b b8bd a27a da3a 91a3 39be
00000120: 1ce9 42be 6c73 48be 02e8 39be 98be bc3c
00000130: b634 08be 5cd5 003e 9bf7 093d 47c9 43bc
00000140: 155a 47be c015 eebd 165a 2ebe d7da 42be
00000150: f956 d5bd 5080 e6bc 268a 12be 4efe 193d
00000160: a0ed 2f3d f8d7 94bd 285c 8fbc 792f 1abe
00000170: 883d e53d 2425 99bd 6bd6 44be 5eea b0bd
00000180: cbb7 323e 5732 eabd a5cb 313e 5002 163e
00000190: 6cde 023e 46f6 3e3d 81a9 a7bd 0073 713c
000001a0: f448 fc3d be45 e0bd 6358 cbbd 06b7 febc
000001b0: a811 6d3d 7553 41be 8eee b33d b989 ff3d
000001c0: e8fe 19be e420 cc3d 50db 603c 3db5 4dbc
000001d0: f3c5 14be 6600 0b3e 6668 edbd 4c49 293d
000001e0: d9dd 9dbd d0aa 453c 38bf a4bc 4940 16bd
000001f0: 5dc3 babd e205 cebd 51a9 483e 7b68 023e
00000200: d10b adbd bbc5 3fbe 3eab 4b3e ec55 3dbe
00000210: 785e 68bd 1820 883d 8785 623a c56a 2b3e
00000220: 0c6a f63d ee2a 463e 0407 183e 62bd 1f3e
00000230: 4e2d 033e e8f1 933c c069 f3ba 4f01 c6bd
00000240: a976 11be 2b4f 20be 657d 363e 5c3a 3dbd
00000250: 6852 10be 0715 25bd 13a6 473c 96a2 a4bd
00000260: ed52 30be 53ba 553d 5a44 463b f8ec 1d3e
00000270: 6079 f13b 9404 433e c8e0 fd3d 9d1f 20be
00000280: 202c ca3c 019b aabd 727b 91bd 76a1 363e
00000290: 1c4b 5fbd 60ad 0ebc a74a 02be f058 95bd
000002a0: ba30 fabd 765a 45be 09cb b63d 96bb 853d
000002b0: f8e0 ca3d 6389 2cbe c5b2 debc f558 0fbd
000002c0: ec70 3f3e d750 8a3d 2300 293d e49e ee3d
000002d0: 347a 3a3e b09c 9abc 6a90 213e 3b3e 3e3e
000002e0: 2ac3 e1bd a4bb 363d a483 323d 4fae 06be
000002f0: 1e75 3fbe e401 df3d c451 023e 3d40 43be
00000300: 7b35 393c e79a 2abe c8ef bdbd 4876 3bbe
00000310: 509e be3d 6320 203e 8363 c83d 1d17 f0bc
00000320: 145d 3d3e 1f4c 01be 05fa 123e ed57 4cbd
00000330: 5d68 4bbe ada1 13be f9bf f4bd ddc4 ea3d
00000340: 60fd 07bc b04b 523c 7aed d5bd 3c95 163e
00000350: 14c6 443e 50f8 883d 6916 173e 7843 ecbc
00000360: 8dfb ee3d 1e47 1f3e 454e 9e3c bd79 293e
00000370: b644 21be d325 4a3e ad87 433e bfbf 1abe
00000380: 3a5d 4a3e 5465 cd3d 48df 813d 029b aebd
00000390: 80a0 16bd 407b 7b3c dc93 2bbe bbf6 2f3e
000003a0: 0352 febd a441 3cbe 20e8 1ebd 515d 4c3e
000003b0: 3099 e03d 28d4 513d 6fa3 243d f09c ff3d
000003c0: 4a0d c93d 4676 503e 3aeb 2bbe 6872 443e
000003d0: 20e1 0abd 0d19 d93d 9c50 f1bd 9a58 2f3e
000003e0: 1877 a4bc 93d6 123d 598e 0e3e f1dc 13be
000003f0: 0465 0b3d 3c79 2cbe 6b8b 3a3e c880 563d

model.encoder.edge_encoder.0.6.bias f4 [24]
0.060716726 -0.051955543 -0.16020739 -0.10486883 -0.16024935 0.12236693 -0.0069413814 0.0807717
-0.08738299 0.09425382 -0.07296691 0.093093604 7.054313e-05 0.09010122 0.17706744 0.15048444
-0.07104003 -0.09141226 0.06639265 0.13719359 -0.06311442 0.13584621 0.17943789 -0.10782608
00000000: 1ab2 783d 56cf 54bd 680d 24be 78c5 d6bd
00000010: 6818 24be 839b fa3d 8774 e3bb a26b a53d
00000020: daf5 b2bd 2608 c13d ad6f 95bd dca7 be3d
00000030: 8ef0 9338 fd86 b83d 2b51 353e 9818 1a3e
00000040: 6f7d 91bd 5a36 bbbd dff8 873d 7a7c 0c3e
00000050: 2242 81bd 451b 0b3e 91be 373e ebd3 dcbd

model.encoder.edge_encoder.1.weight f4 [24]
0.9889943 0.9871683 0.99235666 1.0083543 0.98002434 0.9951359 0.9973674 0.97809964
0.88131833 0.99660313 0.97657835 0.992533 0.9776298 0.9927037 1.0020669 0.9877097
0.9938718 0.99170893 0.9811608 0.9659294 0.9920764 0.9964466 0.98932135 0.89883935
00000000: bb2e 7d3f 10b7 7c3f 160b 7e3f c111 813f
00000010: e0e2 7a3f 3ac1 7e3f 7853 7f3f bd64 7a3f
00000020: 149e 613f 6221 7f3f 0a01 7a3f a516 7e3f
00000030: f245 7a3f d421 7e3f ba43 803f 8bda 7c3f
00000040: 626e 7e3f a3e0 7d3f 5b2d 7b3f 2647 773f
00000050: b8f8 7d3f 2017 7f3f 2a44 7d3f 561a 663f

model.encoder.edge_encoder.1.bias f4 [24]
0.004224429 0.006663819 0.0039145597 -0.0102529535 0.0129200155 -0.0013443672 -0.00046649307 -0.011366961
0.003795916 -0.0012717429 -0.00031404322 0.006384415 -0.016288618 -0.0036047974 0.0026459072 -0.006055735
0.00047542932 0.006699964 0.0040176087 -0.014036547 0.0051655546 -0.0013386959 -0.0064576906 -0.003978285
00000000: 146d 8a3b 2a5c da3b b545 803b 01fc 27bc
00000010: 79ae 533c 7a35 b0ba a493 f4b9 7d3c 3abc
00000020: e7c4 783b 9cb0 a6ba 2ba6 a4b9 5b34 d13b
00000030: b56f 85bc 773e 6cbb f566 2d3b 306f c6bb
00000040: 0b43 f939 5f8b db3b 25a6 833b 8cf9 65bc
00000050: d043 a93b 2e77 afba 099b d3bb 465c 82bb

model.encoder.node_encoder.0.0.weight f4 [24, 3]
-0.63034946 -0.43069085 -0.11945341 -0.019801857 -0.5637601 -0.37147164 -0.30799127 -0.36442947
0.2928444 -0.51667947 -0.4085057 0.07746004 0.48861858 -0.13695754 -0.05911708 -0.019882698
0.060264092 -0.40834165 -0.15475605 -0.48817936 1.1473439 0.044819687 -0.49292573 0.060155198
0.4101362 0.2867815 0.48373246 0.41414908 -0.2835793 -0.036610782 -0.022434726 -0.13077426
0.09183106 -0.3012815 0.14653142 0.5448255 0.037336033 -0.5498276 0.12924069 0.08508814
0.4662319 0.6645118 0.58075356 -0.103551336 -0.033238888 -0.47254217 -0.2906451 -0.87002665
-0.39070532 -0.07523261 0.91633683 -0.38863292 0.013638165 -0.78477526 0.1858635 -0.066056445
0.3933683 0.19534117 -0.4198032 -0.39943618 0.4809898 -0.50824636 -0.5577548 -0.35166857
0.07574499 0.16129555 -0.02839948 0.39131084 -0.17395076 0.5322502 -0.16462082 0.25653672
00000000: 955e 21bf 8383 dcbe fda3 f4bd 8137 a2bc
00000010: 9552 10bf 8831 bebe 08b1 9dbe 8096 babe
00000020: b4ef 953e 1b45 04bf a927 d1be 5fa3 9e3d
00000030: 372c fa3e 993e 0cbe c024 72bd 0ae1 a2bc
00000040: 7bd7 763d 2812 d1be 5f78 1ebe a5f2 f9be
00000050: 2adc 923f d994 373d c360 fcbe 4c65 763d
00000060: 5ffd d13e 06d5 923e c8ab f73e 590b d43e
00000070: 4e31 91be 30f5 15bd 08c9 b7bc b0e9 05be
00000080: ec11 bc3d 9241 9abe 550c 163e af79 0b3f
00000090: abed 183d 80c1 0cbf ac57 043e b142 ae3d
000000a0: f3b5 ee3e 721d 2a3f 44ac 143f b912 d4bd
000000b0: 8025 08bd 0cf1 f1be 6fcf 94be 11ba 5ebf
000000c0: 870a c8be 8e13 9abd 0d95 6a3f e5fa c6be
000000d0: 9c72 5f3c 08e7 48bf 0053 3e3e 9a48 87bd
000000e0: 9267 c93e 8407 483e 72f0 d6be e682 ccbe
000000f0: 4c44 f63e 6f1c 02bf 05c9 0ebf e70d b4be
00000100: 3020 9b3d a92a 253e 07a6 e8bc e559 c83e
00000110: 2620 32be 8d41 083f 5c92 28be c858 833e

model.encoder.node_encoder.0.0.bias f4 [24]
-0.4715305 0.038405545 0.0007817753 0.29577696 -0.12907673 0.25263503 -0.23345147 0.072387666
-0.4857831 -0.30046532 0.303828 -0.4515616 -0.40470195 0.2982938 -0.2083648 0.12603886
-0.26178503 0.40797025 -0.24270006 -0.49838236 0.55718607 0.49895963 -0.33731678 -0.20117885
00000000: 726c f1be 224f 1d3d 0df0 4c3a 1470 973e
00000010: b12c 04be 6159 813e e70d 6fbe fc3f 943d
00000020: 90b8 f8be 97d6 99be 588f 9b3e 1533 e7be
00000030: 1835 cfbe f7b9 983e 955d 55be 5510 013e
00000040: b008 86be 7ae1 d03e 5d86 78be f92b ffbe
00000050: bfa3 0e3f a377 ff3e c9b4 acbe d401 4ebe

model.encoder.node_encoder.0.2.weight f4 [24, 24]
-0.11103402 0.032376956 0.032111414 -0.011616063 0.19139047 -0.18331265 0.16630645 -0.06455848
0.1926705 0.08252449 -0.03091146 0.14856477 0.0219502 -0.12091855 -0.09341502 -0.17072576
0.13704179 0.12115722 0.1975807 -0.16509473 -0.17695881 -0.1772433 -0.029847048 -0.08151292
-0.19320819 0.17539412 0.011993061 -0.047692243 -0.06623442 0.1701483 0.015120153 0.030946618
-0.14234513 -0.09278968 -0.18377437 -0.015108541 0.14482588 -0.12448357 -0.04195013 -0.098363586
0.04659435 -0.10836452 -0.054106995 0.027772006 -0.08011856 0.014308313 -0.17651749 0.021369662
-0.06295629 0.17136522 0.06301981 0.0019353468 -0.19098982 -0.1847514 0.18071833 -0.21633475
-0.11370242 0.10063497 -0.10872902 -0.09219314 -0.12917516 -0.09732853 -0.08985344 -0.092340715
-0.03235247 -0.06295633 0.17836908 0.18712129 -0.08788229 -0.04545907 -0.18290515 0.17554365
0.06800265 0.007593669 -0.1850395 -0.12013103 -0.031876445 -0.14179327 0.030256087 -0.052951213
-0.24034862 0.15725814 0.1866896 -0.045737267 0.05370048 0.16085514 -0.014184234 0.054303918
0.22622876 -0.1772578 -0.080783606 0.083975784 0.088684805 -0.0995762 0.06698653 0.010179942
0.17753549 -0.084475614 -0.15997382 -0.21205057 -0.06404755 -0.035799135 0.25305393 -0.007733771
-0.076010875 0.024476731 -0.05596128 -0.19367391 0.19260861 -0.12424924 -0.12484583 0.011523215
-0.08079005 -0.03196101 0.040052813 -0.0032852401 -0.20220582 0.13885674 0.174288 0.066772185
0.13484912 0.108042404 -0.015161485 -0.08815828 -0.07521446 -0.034924056 0.09601611 0.15521133
0.21485274 -0.19432718 -0.11970185 -0.010263786 0.0860917 -0.015764365 -0.19292997 0.21196157
-0.16639549 -0.061628185 -0.10335561 -0.058274794 0.087407656 -0.121684045 0.12131451 0.07776037
0.1831989 0.02277422 0.11605611 0.06517255 -0.007627658 -0.12116069 0.15248007 0.0072228857
-0.025048979 -0.06970126 0.15880945 -0.25043145 0.06190121 0.05773513 0.14100006 -0.09073043
-0.07620272 -0.17139085 0.2503995 -0.009756265 0.17619917 -0.08906332 -0.053601183 0.11379112
-0.22099712 0.14877006 0.088215806 0.034816578 -0.027745452 0.066128835 0.074821144 0.03278945
-0.19337974 0.06465189 0.1892154 -0.10048029 0.08341978 0.006272896 0.0278732 -0.084877044
0.023681404 0.08137124 -0.2901489 0.096912585 0.19631092 0.05911013 -0.12493862 -0.20485607
0.032979783 0.17064872 -0.10523077 0.08773362 -0.0578947 0.0111613115 -0.03259995 -0.11705849
-0.15416494 -0.062461182 0.055362478 -0.13277696 -0.021590514 -0.06645266 0.17391554 -0.10599276
-0.1882291 0.16961558 0.09195462 -0.085812174 -0.055839714 0.18879133 0.13779221 -0.16688548
-0.15398282 -0.20265874 -0.15398628 0.05846539 0.08689821 0.052473426 0.019588947 -0.021990076
0.012250528 0.091141164 -0.042092368 -0.11153248 -0.030019552 0.044436008 0.06285375 -0.0052571744
-0.014974102 -0.14269525 0.03459069 0.18025294 -0.20073241 -0.16923162 -0.15061207 -0.02508749
0.21173234 0.019344784 -0.071864545 0.046283025 0.18402778 -0.18238847 0.11827819 0.04501271
0.17118406 0.048266936 -0.0825624 -0.11489281 0.07744454 0.1446458 0.1545898 0.10477268
00000000: ce65 e3bd b39d 043d 4287 033d 4d51 3ebc
00000010: ddfb 433e 50b6 3bbe 3d4c 2a3e 3d37 84bd
00000020: 6a4b 453e 9a02 a93d 083a fdbc 5d21 183e
00000030: e8d0 b33c 25a4 f7bd 6050 bfbd bcd2 2ebe
00000040: af54 0c3e 4721 f83d 9852 4a3e 980e 29be
00000050: b134 35be 457f 35be cc81 f4bc 3ff0 a6bd
00000060: 5ed8 45be 849a 333e 8b7e 443c f158 43bd
00000070: e9a5 87bd 5b3b 2e3e 85ba 773c c383 fd3c
00000080: ecc2 11be 8408 bebd 592f 3cbe d089 77bc
00000090: 3c4d 143e 3ef1 febd e6d3 2bbd d972 c9bd
000000a0: b8d9 3e3d 38ee ddbd 4c9f 5dbd 1e82 e33c
000000b0: 3315 a4bd 6a6d 6a3c 00c1 34be 6e0f af3c
000000c0: 3aef 80bd 5d7a 2f3e 8810 813d 76ab fd3a
000000d0: d692 43be 792f 3dbe 3a0e 393e db86 5dbe
000000e0: d0dc e8bd b519 ce3d 52ad debd c2cf bcbd
000000f0: 7e46 04be 2e54 c7bd 1505 b8bd 211d bdbd
00000100: 0684 04bd 40ef 80bd 62a6 363e b99c 3f3e
00000110: a1fb b3bd 4a33 3abd 7d4b 3bbe b7c1 333e
00000120: f944 8b3d 50d4 f83b ff7a 3dbe 4207 f6bd
00000130: e090 02bd 4132 11be 9ddb f73c 5fe3 58bd
00000140: f31d 76be 4708 213e 8f2b 3f3e 0057 3bbd
00000150: 09f5 5b3d 36b7 243e fd64 68bc c96d 5e3d
00000160: 83a8 673e 1283 35be e071 a5bd 7ffb ab3d
00000170: 61a0 b53d 9bee cbbd 3c30 893d c5c9 263c
00000180: ddcb 353e 8d01 adbd 2dd0 23be c923 59be
00000190: 5d2b 83bd 1da2 12bd 4990 813e 936b fdbb
000001a0: 97ab 9bbd 6d83 c83c a837 65bd 7452 46be
000001b0: 313b 453e 6376 febd 2caf ffbd decb 3c3c
000001c0: 4175 a5bd 8ce9 02bd 6b0e 243d 2f4d 57bb
000001d0: 0b0f 4fbe 7630 0e3e 8e78 323e dbbf 883d
000001e0: e315 0a3e 5645 dd3d e167 78bc 548c b4bd
000001f0: 0a0a 9abd 870c 0fbd 18a4 c43d b8ef 1e3e
00000200: 5b02 5c3e b4fd 46be 3e26 f5bd 7029 28bc
00000210: d850 b03d 4524 81bc 6f8f 45be 740c 593e
00000220: 9463 2abe d66d 7cbd 1bac d3bd 8db1 6ebd
00000230: c902 b33d 7c35 f9bd be73 f83d d440 9f3d
00000240: 7e98 3b3e 0091 ba3c d3ae ed3d 3079 853d
00000250: 6ff1 f9bb 1923 f8bd bc23 1c3e f5ad ec3b
00000260: 8433 cdbc 89bf 8ebd f29e 223e 8d38 80be
00000270: 208c 7d3d ac7b 6c3d 5262 103e e0d0 b9bd
00000280: 2c10 9cbd 1581 2fbe 5d34 803e bed8 1fbc
00000290: 8e6d 343e d466 b6bd ea8c 5bbd 520b e93d
000002a0: 124d 62be 2e57 183e 7daa b43d d49b 0e3d
000002b0: 6e4a e3bc 8e6e 873d d43b 993d 3b4e 063d
000002c0: 5705 46be 3668 843d afc1 413e 9cc8 cdbd
000002d0: fdd7 aa3d de8c cd3b 5656 e43c 04d4 adbd
000002e0: 81ff c13c f7a5 a63d 668e 94be 1b7a c63d
000002f0: bb05 493e 771d 723d d2df ffbd cac5 51be
00000300: cf15 073d 8abe 2e3e 3b83 d7bd afad b33d
00000310: fe22 6dbd efdd 363c 8687 05bd 5dbc efbd
00000320: 6add 1dbe 4cd7 7fbd c4c3 623d aff6 07be
00000330: 97de b0bc 5518 88bd ea16 323e bb12 d9bd
00000340: 21bf 40be b5af 2d3e b452 bc3d 4bbe afbd
00000350: 2fb8 64bd 8452 413e 6719 0d3e 07e4 2abe
00000360: acad 1dbe c685 4fbe 94ae 1dbe 6879 6f3d
00000370: b0f7 b13d 60ee 563d 0079 a03c 8824 b4bc
00000380: 70b6 483c 38a8 ba3d 0c69 2cbd 246b e4bd
00000390: 90eb f5bc 8802 363d 78b9 803d 6044 acbb
000003a0: f055 75bc b41e 12be f8ae 0d3d 3a94 383e
000003b0: cc8c 4dbe 0e4b 2dbe 0d3a 1abe 4884 cdbc
000003c0: 5dd0 583e f478 9e3c b82d 93bd 4593 3d3d
000003d0: c771 3c3e 0bc4 3abe d63b f23d 3f5f 383d
000003e0: e04a 2f3e 8db3 453d 7a16 a9bd ec4c ebbd
000003f0: 3e9b 9e3d 071e 143e ca4c 1e3e 0f93 d63d

model.encoder.node_encoder.0.2.bias f4 [24]
-0.0694009 -0.045696933 -0.057937454 -0.027700655 0.15408601 0.12831916 0.016356368 -0.021211345
-0.1160355 -0.17333633 0.13981706 -0.09639233 0.037594076 0.094492294 -0.123233326 -0.014099508
-0.15806559 0.1843058 0.10127892 0.1994178 0.022556154 0.053316083 -0.2337448 0.013661112
00000000: 0f22 8ebd b52c 3bbd d34f 6dbd 7cec e2bc
00000010: b9c8 1d3e 1966 033e cafd 853c 6ac3 adbc
00000020: 05a4 edbd 147f 31be 342c 0f3e 5869 c5bd
00000030: 3ffc 193d 2d85 c13d c161 fcbd 9f01 67bc
00000040: f2db 21be a9ba 3c3e 536b cf3d 2e34 4c3e
00000050: afc7 b83c f761 5a3d cc5a 6fbe dbd2 5f3c

model.encoder.node_encoder.0.4.weight f4 [24, 24]
0.13408288 -0.15458581 0.18496813 0.07071225 -0.19930512 -0.0006394095 0.18767102 0.20623958
-0.15134309 0.16047359 0.058127 0.09831834 -0.1766618 0.10754259 0.040154614 -0.04828299
-0.17556569 -0.03546792 0.13968366 -0.15337463 -0.6671875 0.045302436 0.08422887 -0.060954712
0.16116284 0.18964776 -0.15085079 0.155126 0.20448893 0.21722071 0.08165754 0.08306739
-0.07381342 -0.20120256 -0.12499319 0.019648401 -0.043553673 0.080328844 -0.15085897 0.2651912
-0.072677135 0.072668806 0.16848359 -0.10901863 -0.2691052 -0.13871291 0.13364656 -0.15797456
0.16477814 -0.19144557 0.10530913 -0.11068116 -0.08813028 0.041372094 -0.028056344 0.025641812
0.018457795 0.19261041 -0.028832825 -0.23893288 -0.13004744 -0.02376487 0.045153417 0.02011507
0.03381284 0.04177946 0.13717128 0.12691428 0.19535407 0.14028573 -0.08738871 -0.14430927
0.07682741 0.009282855 -0.049277436 -0.18421647 0.2575075 -0.21808185 -0.1367319 -0.018733826
0.055923365 0.1183584 -0.101706706 0.11081484 -0.09793174 -0.16029005 -0.1591029 0.020322366
0.2095977 -0.16832022 -0.063960545 0.084452786 0.11282741 0.044490784 -0.08432921 0.14141233
-0.037997514 0.06918887 -0.09628662 0.1271625 -0.0621521 0.01179699 0.120763965 -0.17752679
0.08270302 0.19147086 -0.21284348 -0.034388833 0.17108141 0.129973 -0.065663636 0.11357559
0.13122627 -0.17203122 -0.059246182 0.15564793 0.048795786 -0.22762121 -0.10360921 -0.020001391
-0.016974097 0.1823916 -0.15096442 0.1794717 -0.23607704 0.04440486 -0.105184376 0.09479455
-0.12221909 0.0037713498 0.1375228 0.07315838 0.17722286 -0.084454 -0.066630945 -0.06082181
-0.19582175 -0.121025376 -0.040717613 0.08699048 -0.22222176 -0.1413338 -0.1038648 0.1506919
-0.15644966 0.048389465 -0.16201681 -0.16967526 0.110239945 0.006940223 -0.13397232 0.007939414
0.1527535 0.03817697 0.0018890437 0.011669709 -0.14382122 -0.1131904 -0.12087184 0.062972926
-0.027734512 0.061049752 -0.06298859 -0.1344101 0.1432476 0.10736256 -0.1961371 0.18549426
0.17448893 0.02276297 0.16256139 -0.37233484 -0.103443086 0.12681663 -0.023720535 -0.17608297
0.20054452 -0.028587818 0.16099535 0.07678359 -0.0032664426 -0.14500731 -0.14432329 0.08635281
0.119172834 -0.10518061 -0.0729949 -0.1597167 -0.05560974 0.17593896 -0.11249116 -0.07739398
-0.15315735 0.10105303 0.09205661 -0.08403333 0.058570947 0.15353608 0.18796535 -0.040224373
-0.060965065 0.1948463 0.10418126 -0.1760656 -0.075584546 -0.004493369 0.08314669 -0.15666246
-0.08952462 -0.052072067 0.1452443 0.029127603 0.19372517 -0.0060970653 -0.06274205 -0.08233873
-0.17922091 -0.008588503 -0.0011329502 0.14334284 0.059871085 -0.11866885 0.0826761 0.03613197
-0.22128692 0.19658905 -0.09850515 -0.1393188 -0.17475982 -0.1577104 -0.359171 -0.66820043
0.2742917 -0.05934186 -0.110205956 0.07627856 0.17212838 -0.06943684 -0.031523842 -0.0014536884
-0.1726306 -0.055793688 0.14205939 -0.21294369 -0.09675758 0.15168203 0.21861535 -0.27407104
0.20252962 0.04032822 0.057787452 0.0388548 0.042758264 -0.13796009 0.09627352 -0.02928955
00000000: 064d 093e be4b 1ebe 4968 3d3e 96d1 903d
00000010: a416 4cbe 0c9e 27ba d52c 403e 7830 533e
00000020: aff9 1abe 3053 243e 9416 6e3d 205b c93d
00000030: d5e6 34be 4a3f dc3d 2a79 243d 62c4 45bd
00000040: 7ec7 33be cf46 11bd 3c09 0f3e 3d0e 1dbe
00000050: cdcc 2abf 0c8f 393d 3080 ac3d a6ab 79bd
00000060: df07 253e 0633 423e a178 1abe 5ad9 1e3e
00000070: 8c65 513e 1b6f 5e3e 113c a73d 3c1f aa3d
00000080: 7e2b 97bd 0b08 4ebe 6efc ffbd aff5 a03c
00000090: 5665 32bd 7383 a43d c67a 1abe 24c7 873e
000000a0: c0d7 94bd 62d3 943d f686 2c3e 2945 dfbd
000000b0: 28c8 89be c20a 0ebe a5da 083e 15c4 21be
000000c0: 9abb 283e 4f0a 44be 50ac d73d ceac e2bd
000000d0: a67d b4bd c975 293d 6bd6 e5bc c70e d23c
000000e0: cd34 973c aa3b 453e d132 ecbc d2aa 74be
000000f0: 282b 05be 8bae c2bc caf2 383d 5cc8 a43c
00000100: 557f 0a3d f020 2b3d a176 0c3e d1f5 013e
00000110: e60a 483e 10a7 0f3e daf8 b2bd cfc5 13be
00000120: b057 9d3d 1e17 183c 23d7 49bd 3ea3 3cbe
00000130: 06d8 833e d950 5fbe 7203 0cbe ae77 99bc
00000140: e60f 653d e465 f23d 9b4b d0bd e4f2 e23d
00000150: 7090 c8bd 1323 24be dfeb 22be 177b a63c
00000160: c8a0 563e 235c 2cbe bffd 82bd 95f5 ac3d
00000170: 0f12 e73d f83b 363d cbb4 acbd 65ce 103e
00000180: 48a3 1bbd e5b2 8d3d eb31 c5bd e336 023e
00000190: 3393 7ebd 2a48 413c 1953 f73d 95c9 35be
000001a0: 3360 a93d f010 443e a4f3 59be 4edb 0cbd
000001b0: f72f 2f3e a417 053e a87a 86bd 529a e83d
000001c0: 2e60 063e f428 30be 20ac 72bd 2c62 1f3e
000001d0: 17de 473d 8915 69be 1131 d4bd f5d9 a3bc
000001e0: 430d 8bbc ddc4 3a3e 6b96 1abe 6ec7 373e
000001f0: 2ebe 71be dfe1 353d e86a d7bd a523 c23d
00000200: 014e fabd c028 773b c7d2 0c3e 10d4 953d
00000210: e979 353e 38f6 acbd ce75 88bd 4a20 79bd
00000220: 7f85 48be 27dc f7bd 83c7 26bd 1128 b23d
00000230: 1a8e 63be cfb9 10be 11b7 d4bd fa4e 1a3e
00000240: 5734 20be 0834 463d bce7 25be 5abf 2dbe
00000250: 7bc5 e13d cf6a e33b 0a30 09be 5114 023c
00000260: 6a6b 1c3e 745f 1c3d ca99 f73a 4f32 3f3c
00000270: df45 13be 5ed0 e7bd a88b f7bd f3f7 803d
00000280: 7d33 e3bc 4e0f 7a3d 2900 81bd cda2 09be
00000290: 80af 123e e7e0 db3d 2ad8 48be 35f2 3d3e
000002a0: 3aad 323e 6879 ba3c 7e76 263e aca2 bebe
000002b0: f8d9 d3bd 38dc 013e 9151 c2bc 184f 34be
000002c0: 8b5b 4d3e 0031 eabc f7db 243e b740 9d3d
000002d0: d011 56bb cc7c 14be 7cc9 13be bed9 b03d
000002e0: e310 f43d ef68 d7bd 5a7e 95bd c68c 23be
000002f0: 0ac7 63bd 5829 343e c461 e6bd bc80 9ebd
00000300: 48d5 1cbe e4f4 ce3d 2d88 bc3d ab19 acbd
00000310: 17e8 6f3d 9038 1d3e fd79 403e 50c2 24bd
00000320: 81b6 79bd ca85 473e fc5c d53d 8a4a 34be
00000330: 12cc 9abd 1c3d 93bb d048 aa3d 206c 20be
00000340: af58 b7bd 8549 55bd ecba 143e 039d ee3c
00000350: e45f 463e e4c9 c7bb e77e 80bd 35a1 a8bd
00000360: b085 37be cbb6 0cbc 807f 94ba 77c8 123e
00000370: 623b 753d a708 f3bd 1652 a93d 1eff 133d
00000380: 0a99 62be a44e 493e 11bd c9bd 96a9 0ebe
00000390: 3df4 32be d67e 21be 43e5 b7be 2f0f 2bbf
000003a0: f66f 8c3e 7310 73bd a9b3 e1bd ef37 9c3d
000003b0: 6c42 303e e734 8ebd 251f 01bd b089 beba
000003c0: 13c6 30be ec87 64bd 0478 113e e90d 5abe
000003d0: d728 c6bd 8952 1b3e b4dc 5f3e 0a53 8cbe
000003e0: ed63 4f3e 342f 253d 89b2 6c3d 3626 1f3d
000003f0: 4a23 2f3d 6945 0dbe 0d2b c53d a3f0 efbc

model.encoder.node_encoder.0.4.bias f4 [24]
-0.15892766 0.077666655 0.044459864 0.16992451 0.054859594 0.073390976 0.144124 0.107282184
-0.16162355 0.12180679 -0.2138506 -0.14521803 -0.06581385 -0.18371567 -0.07786642 -0.0028027454
-0.084998794 0.18977478 -0.15536611 0.077989504 -0.08359951 0.06716368 -0.017133802 0.08962637
00000000: efbd 22be b20f 9f3d 8c1b 363d b100 2e3e
00000010: 74b4 603d 024e 963d 3e95 133e c3b6 db3d
00000020: a580 25be d775 f93d a7fb 5abe 09b4 14be
00000030: 69c9 86bd f61f 3cbe 6e78 9fbd 44ae 37bb
00000040: d913 aebd 5254 423e 4b18 1fbe f6b8 9f3d
00000050: 3836 abbd 1d8d 893d 305c 8cbc 088e b73d

model.encoder.node_encoder.0.6.weight f4 [24, 24]
0.18382387 0.20979433 0.26909038 0.24722661 -0.21385723 0.16389944 0.12514988 0.17774181
-0.09360671 0.15431342 0.33545488 -0.14516976 0.060694166 -0.14939208 0.062320583 -0.15647776
0.17311615 -0.12098265 -0.13092677 0.026958624 0.053614136 0.10676385 -0.15933286 0.16938196
-0.011533061 -0.0102152685 -0.16748802 0.04580275 0.1452948 0.050405156 -0.24355328 0.2329814
0.15923081 0.01232141 -0.102944255 -0.004981313 -0.12409006 -0.26571608 0.25611895 0.11532073
0.1045971 -0.15242523 0.04863301 0.13345978 0.11324177 -0.21527523 -0.12116609 0.017640019
0.11066507 -0.030742805 0.059791077 -0.25369677 -0.18620382 0.1961426 -0.13417715 0.0133576235
-0.16404073 -0.20870024 0.06762121 -0.27899104 0.0141047165 -0.20353995 0.020263502 -0.001421985
-0.10707045 -0.21801633 -0.34396052 0.08152757 -0.070635594 0.22276108 0.10853568 -0.060623508
-0.071301274 -0.15819278 0.0714153 -0.12947483 -0.15164486 0.08814517 0.07776012 0.076606795
-0.08107629 -0.0883565 0.27017266 0.25643903 -0.10742927 0.16802229 0.19508097 -0.19611882
-0.048053227 -0.0015968594 0.008882694 0.13264102 -0.11720173 0.16028315 0.09348348 -0.19314696
0.10740678 -0.045110613 -0.034078896 0.003105764 0.1660141 -0.13449451 -0.12704639 0.04309725
0.029222513 -0.13990518 0.0065653035 -0.20079044 -0.24584553 -0.1457482 0.05636832 -0.037434395
0.114003345 -0.08368088 0.21709295 0.059153404 0.14345138 -0.14291495 -0.14504184 0.22967075
-0.21101508 -0.16262098 -0.1331732 0.058987763 -0.097091645 0.11454137 -0.21040869 0.034564696
-0.050651815 0.22238149 -0.14276734 -0.12254659 -0.24189708 0.03850786 -0.024224052 0.3316573
0.1131359 -0.1448424 0.029114777 -0.23276298 0.18240406 -0.006486359 -0.12906 0.1403372
-0.08739584 -0.08371355 -0.19639878 -0.12160293 0.16545057 0.17249247 0.22100061 -0.1379945
-0.029593296 0.2679566 0.106883876 -0.01872135 -0.022132367 0.08248052 0.15116526 0.17835899
0.08504462 0.066874504 0.24329314 -0.22089155 -0.07402683 -0.029552754 -0.065151736 -0.03037334
-0.08145996 0.20440002 -0.12218701 0.11702999 -0.071269006 0.0030672443 0.1314476 0.08674332
-0.088488735 0.06734687 0.12635425 0.08929066 -0.1213173 -0.22847535 -0.099571116 -0.15059088
-0.112501 -0.035667837 -0.005874859 0.10440383 -0.12836027 -0.014377629 0.16726491 -0.17364179
-0.08676314 0.014670804 0.12902243 0.15014398 -0.07867294 -0.03727842 -0.03500916 0.09239401
0.018951068 0.008784247 -0.079427734 0.14377357 0.25287583 0.05247997 -0.016214954 0.030706849
0.18748835 0.08133965 0.04558173 -0.009606356 0.029564148 -0.0019532936 0.05364573 -0.18842223
-0.11680144 0.11296557 -0.14532077 0.1002637 -0.20741495 -0.12918465 -0.020658575 0.07891359
-0.16995241 0.19064431 -0.04275095 -0.15619755 -0.082005605 -0.32346764 0.021392247 0.20904425
0.23321697 -0.12439872 -0.23126844 0.14950393 0.21873295 0.115552895 0.11557633 0.055142485
-0.027769864 -0.077740155 0.17050837 -0.022766344 -0.14275612 -0.11630753 -0.1601344 -0.08705305
-0.09572829 -0.09156601 -0.2853282 0.20752414 -0.08895571 0.072969705 -0.13390733 0.05934244
00000000: 533c 3c3e 53d4 563e 37c6 893e f928 7d3e
00000010: 64fd 5abe 41d5 273e 4a27 003e f301 363e
00000020: e0b4 bfbd 5604 1e3e bec0 ab3e 62a7 14be
00000030: 729a 783d 3dfa 18be de43 7f3d b53b 20be
00000040: 5c45 313e c0c5 f7bd ab11 06be 55d8 dc3c
00000050: 7f9a 5b3d 01a7 da3d 2728 23be 7772 2d3e
00000060: 2af5 3cbc f15d 27bc fb81 2bbe aa9b 3b3d
00000070: 29c8 143e a375 4e3d 0866 79be ad92 6e3e
00000080: 670d 233e bddf 493c 70d4 d2bd 483a a3bb
00000090: ee22 febd f00b 88be 0622 833e 462d ec3d
000000a0: 0137 d63d 5c15 1cbe 6833 473d aea9 083e
000000b0: 4deb e73d 1c71 5cbe ed25 f8bd cd81 903c
000000c0: 5ea4 e23d 56d8 fbbc 7de7 743d 8be4 81be
000000d0: 37ac 3ebe 9bd9 483e bc65 09be efd9 5a3c
000000e0: 4bfa 27be 84b5 55be fd7c 8a3d ead7 8ebe
000000f0: 7817 673c c76c 50be a5ff a53c e661 baba
00000100: c147 dbbd ac3f 5fbe 981b b0be edf7 a63d
00000110: 65a9 90bd 7b1b 643e f447 de3d 5b50 78bd
00000120: 6706 92bd 4afd 21be 2f42 923d 0d95 04be
00000130: ca48 1bbe 7485 b43d b340 9f3d 06e4 9c3d
00000140: 530b a6bd 41f4 b4bd 1254 8a3e fa4b 833e
00000150: e103 dcbd 090e 2c3e 4ec3 473e 5fd3 48be
00000160: 76d3 44bd b64d d1ba b888 113c 0cd3 073e
00000170: 7607 f0bd 4421 243e 4474 bf3d 51c8 45be
00000180: 16f8 db3d e8c5 38bd 5096 0bbd 138a 4b3b
00000190: 9aff 293e eeb8 09be 7318 02be be86 303d
000001a0: 0d64 ef3c 4e43 0fbe c221 d73b 029c 4dbe
000001b0: eebe 7bbe 043f 15be 78e2 663d cf54 19bd
000001c0: 967a e93d e260 abbd 9d4d 5e3e d74a 723d
000001d0: ebe4 123e 4c58 12be d985 14be cf2e 6b3e
000001e0: 5614 58be 1d86 26be 8e5e 08be 279d 713d
000001f0: fcd7 c6bd aa94 ea3d 6075 57be b693 0d3d
00000200: 4778 4fbd f9b7 633e 9a31 12be b5f9 fabd
00000210: deb3 77be 6bba 1d3d 8571 c6bc fcce a93e
00000220: cbb3 e73d 9151 14be 1d82 ee3c 6b59 6ebe
00000230: 21c8 3a3e 868b d4bb 4e28 04be 8eb4 0f3e
00000240: 97fc b2bd 0272 abbd c31c 49be f50a f9bd
00000250: e06b 293e dea1 303e fc4d 623e 6e4e 0dbe
00000260: a46d f2bc 9c31 893e efe5 da3d 845d 99bc
00000270: f04e b5bc 8ceb a83d 11cb 1a3e bda3 363e
00000280: e02b ae3d 80f5 883d d621 793e 6531 62be
00000290: 619b 97bd 9e18 f2bc 466e 85bd 83d1 f8bc
000002a0: 7bd4 a6bd 3d4e 513e 2f3d fabd 6bad ef3d
000002b0: 7cf5 91bd d203 493b 339a 063e 7ba6 b13d
000002c0: 9539 b5bd 28ed 893d 0263 013e 06de b63d
000002d0: 3475 f8bd 71f5 69be f1eb cbbd 7f34 1abe
000002e0: ed66 e6bd 7018 12bd e481 c0bb add1 d53d
000002f0: e070 03be 2690 6bbc 7e47 2b3e 27cf 31be
00000300: e0b0 b1bd d05d 703c 751e 043e 58bf 193e
00000310: 471f a1bd 42b1 18bd c465 0fbd 1239 bd3d
00000320: 453f 9b3c cdeb 0f3c 02ab a2bd 6139 133e
00000330: f178 813e 3df5 563d 39d5 84bc ee8c fb3c
00000340: f2fc 3f3e 6795 a63d e8b3 3a3d fa63 1dbc
00000350: 8330 f23c d402 00bb a0bb 5b3d c2f1 40be
00000360: 9835 efbd 7e5a e73d f8ce 14be 0e57 cd3d
00000370: 9664 54be fb48 04be 2c3c a9bc 739d a13d
00000380: 0108 2ebe 4338 433e 9f1b 2fbd 40f2 1fbe
00000390: 8ef2 a7bd 8d9d a5be cb3e af3c b20f 563e
000003a0: 6ed0 6e3e c2c4 febd a2d1 6cbe 8f17 193e
000003b0: 88fb 5f3e ffa6 ec3d 48b3 ec3d 16dd 613d
000003c0: a07d e3bc 3b36 9fbd bf99 2e3e 7c80 babc
000003d0: a92e 12be a432 eebd 46fa 23be df48 b2bd
000003e0: 320d c4bd f686 bbbd 8a16 92be 3581 543e
000003f0: 692e b6bd 2471 953d 011f 09be 0f11 733d

model.encoder.node_encoder.0.6.bias f4 [24]
-0.16326687 -0.067571014 -0.015746383 -0.1857867 -0.16551718 0.08639153 -0.05831508 0.04475227
-0.18049268 -0.052226547 0.16297552 0.10597423 -0.02289851 -0.105956465 -0.08826111 -0.139599
-0.08401876 -0.14129971 0.110441945 -0.14975993 0.1097038 -0.13380569 -0.004115676 -0.074922115
00000000: 6e2f 27be ac62 8abd 8ffe 80bc de3e 3ebe
00000010: 567d 29be 0bee b03d cbdb 6ebd 284e 373d
00000020: 13d3 38be 81eb 55bd 0ee3 263e 0409 d93d
00000030: a895 bbbc b4ff d8bd 3ec2 b4bd 0af3 0ebe
00000040: 0712 acbd dfb0 10be 632f e23d ab5a 19be
00000050: 63ac e03d 5c04 09be cbdc 86bb c470 99bd

model.encoder.node_encoder.1.weight f4 [24]
1.0822773 1.104583 1.1671835 1.0136007 1.0110089 1.0008184 1.0421504 0.99769104
1.0119641 1.1376532 1.007324 1.0019296 1.0561779 1.0580729 1.0842235 1.016141
1.0134845 0.9852574 1.0097485 1.0326705 1.0164064 0.99852055 1.0382494 1.012323
00000000: 1088 8a3f fa62 8d3f 4566 953f abbd 813f
00000010: bd68 813f d11a 803f 2f65 853f ae68 7f3f
00000020: 0a88 813f 9f9e 913f feef 803f 3b3f 803f
00000030: d630 873f ef6e 873f d6c7 8a3f e910 823f
00000040: dcb9 813f d439 7c3f 703f 813f 8c2e 843f
00000050: 9b19 823f 0b9f 7f3f 5be5 843f cd93 813f

model.encoder.node_encoder.1.bias f4 [24]
-0.0052773976 -0.0020094553 -0.0031842676 -0.005502206 0.009279254 -0.009962799 0.008192598 -0.009124857
-0.008121738 0.0047423327 -0.016115494 -0.012465848 0.0031812447 5.11275e-05 0.008554096 -0.0025365052
-0.011018145 0.028366951 -0.00038119755 0.00512294 -0.0097449375 0.002418696 -0.004924399 -0.0020255416
00000000: 05ee acbb 11b1 03bb 25af 50bb d94b b4bb
00000010: 0308 183c 023b 23bc 3f3a 063c 6d80 15bc
00000020: 0a11 05bc 9265 9b3b a404 84bc 8e3d 4cbc
00000030: 6e7c 503b bc71 5638 7b26 0c3c 7f3b 26bb
00000040: 7385 34bc cf61 e83c 78db c7b9 56de a73b
00000050: 3ba9 1fbc fc82 1e3b da5c a1bb f3be 04bb
