model_collection/best.pth (torch, 95612 bytes, 92 tensors)

model.encoder.edge_encoder.0.0.weight f4 [18, 1]
000000 02 6a 1e bd 06 a7 40 3f dc ca 91 bd e5 a0 e3 3e
       -0.038675316 0.7525486 -0.071187705 0.4445869
000010 42 b2 1c 3e 3d 45 58 3f 5d 7e 31 3f 47 71 59 be
       0.15302375 0.8448065 0.6933344 -0.21234618
000020 78 16 dc 3e 47 7a 73 3f 2c 57 6a bf 53 4c a3 be
       0.42985892 0.95108455 -0.91539264 -0.31894168
000030 40 d8 85 3c c8 82 5e bf 95 22 1b 3f f9 c0 61 3f
       0.016338468 -0.86918306 0.60599643 0.8818508
000040 52 97 57 bf 48 5b 11 3e
       -0.8421527 0.14194977

model.encoder.edge_encoder.0.0.bias f4 [18]
000000 ee c1 22 3f f2 02 1c be 59 15 36 3f cf 12 01 3f
       0.63577163 -0.15235499 0.71126324 0.50419325
000010 88 ee 97 bd ca 57 35 bf da 36 c4 be 08 4e 58 3e
       -0.07418543 -0.7083708 -0.38323098 0.21123517
000020 0a c3 37 be 1f 7c 15 3f 20 08 6a 3d 93 12 5e 3f
       -0.17945495 0.5839252 0.057136655 0.8674709
000030 9c ff 7d bf 88 0f 63 3f 3e f7 31 3f 93 28 0a bf
       -0.99218154 0.88695574 0.69517887 -0.5396816
000040 10 ef 9f be 84 00 5e bf
       -0.31237078 -0.86719537

model.encoder.edge_encoder.0.2.weight f4 [18, 18]
000000 6b 74 59 3e 97 2d 56 be a7 18 13 3d 96 b9 60 bd
       0.21235816 -0.20915829 0.035912182 -0.05486449
000010 99 91 61 3e 86 96 e7 ba 90 8b d6 bd 1c b6 bd bb
       0.22028197 -0.0017668761 -0.10475838 -0.0057895314
000020 b7 b9 bb bd 75 77 42 3e 09 69 0a 3e 0e d4 02 3e
       -0.09166282 0.18990882 0.1351663 0.12776205
000030 e1 37 62 3e f1 47 34 3c e2 da 70 3d 62 1b 7a 3e
       0.22091629 0.01100348 0.058802493 0.24424508
000040 d7 63 2b 3e 0b fa 4f 3e ee d1 0c be 60 1c 55 bc
       0.16737305 0.20310228 -0.13751957 -0.013007253
000050 70 8a 38 be f6 b6 b7 3d 92 b1 99 bd e1 2f 58 be
       -0.1802156 0.08970444 -0.07504572 -0.21112014
000060 d8 8a e4 3c e8 43 b4 bc 53 30 04 3e 20 66 2a bc
       0.027898237 -0.022005036 0.12909059 -0.010400325
000070 56 94 2d be 14 4d 4a 3d 5f 5e 47 be 14 4b 2b bd
       -0.16951117 0.049389914 -0.19469593 -0.041819647
000080 76 ba 43 be 39 4e 07 3e be ae f3 3d bb ed 39 3e
       -0.19114098 0.13213433 0.11898564 0.18157093
000090 81 0c 32 be 2f 40 b2 3d 94 9d 60 3d ba 47 62 3d
       -0.17387582 0.08703648 0.05483778 0.055244185
0000a0 d4 86 9f 3d bd dc 77 bd c5 20 0b 3d d0 c6 26 3e
       0.07789388 -0.060513247 0.0339668 0.16286778
0000b0 24 69 4b bc d8 07 51 3e 70 06 07 3c c7 10 da 3a
       -0.012415204 0.20413148 0.008241281 0.001663708
0000c0 62 a1 42 be 30 a2 2b 3d d5 08 cc bd da 0f 4e be
       -0.19006875 0.04190272 -0.09962622 -0.20123234
0000d0 04 40 3c 3d cf aa 0f 3e 7e 6f 3a be c0 03 bf 3b
       0.045959488 0.14030002 -0.18206593 0.0058293045
0000e0 ac 09 2c be 36 a6 b3 3d c8 8d 70 be 3a 12 10 be
       -0.16800565 0.087719366 -0.23491585 -0.14069453
0000f0 1f 21 66 3e e5 cb 1b be 10 80 22 3c 21 7b 2c 3e
       0.22473572 -0.15214498 0.009918228 0.16843845
000100 1d 08 6f be 90 30 9d bc 9e 38 99 3d 3a 9a b2 3d
       -0.23342939 -0.019188195 0.07481502 0.08720823
000110 18 0a 17 be 51 0f 05 3e 79 ba 3d 3e a6 d8 ed 3d
       -0.14749944 0.12994124 0.18528165 0.11613588
000120 ae d3 1d 3e b2 90 62 3e ab fd cf bd a0 29 d5 bc
       0.1541278 0.2212551 -0.10155805 -0.026020825
000130 24 55 7d bd af 2f c0 3d b2 cd 09 3e 08 d8 58 3c
       -0.061848775 0.09384095 0.13457373 0.0132351
000140 46 c4 bf bd d7 d3 95 3c 10 06 14 bd b1 48 48 bd
       -0.09363608 0.01828949 -0.036138594 -0.04889745
000150 22 c9 ed 3d 4b 6d 3b bd d4 9c ef bc 4a 9a 2d be
       0.11610629 -0.045758527 -0.029249586 -0.16953388
000160 00 82 79 bc 01 6a 38 3e 52 ff c8 bd 1a b9 38 be
       -0.015228748 0.18009187 -0.098143235 -0.1803936
000170 97 d2 59 be 2e 42 ac 3d 40 13 16 be 9a 86 a4 3d
       -0.2127174 0.0841106 -0.14655781 0.08033486
000180 1e 85 e6 3d f8 f8 e8 3c 08 d6 92 3c 76 b7 22 be
       0.11255859 0.02843903 0.017924324 -0.15890297
000190 68 8b e0 bc 13 f8 35 3e 75 22 3e 3e fa b1 cb 3d
       -0.027410224 0.17770414 0.18567832 0.09946056
0001a0 86 16 9c 3d 1e df e0 3d ab e4 2e be 8c 92 53 be
       0.076214835 0.10980056 -0.17079417 -0.20661372
0001b0 0f e7 97 3c 5d 26 90 3d b2 bf 09 bb 41 ff 97 bd
       0.018542795 0.07038567 -0.00210188 -0.07421733
0001c0 fc 9f d3 bd ed ba 16 3e 61 97 fb 3c e7 77 50 3e
       -0.10333249 0.14719744 0.030711832 0.20358239
0001d0 8e 2e 6b be aa 46 1a 3c 9c 7a 18 3d 3e e9 18 be
       -0.22966978 0.009416262 0.037226304 -0.14932725
0001e0 95 c2 4e 3e 9a c4 55 3e 85 0f 62 bd cf cf 3c 3e
       0.20191415 0.20875779 -0.05519058 0.18438648
0001f0 86 e5 b8 3d ce 55 4b be 28 3b 8f bd b0 0d 57 be
       0.09028153 -0.1985695 -0.06993705 -0.21001315
000200 6d e6 62 3e 2a cf e2 bd 95 69 04 be e1 fb e1 bd
       0.22158213 -0.1107467 -0.12930901 -0.1103437
000210 67 48 c3 3d 1a 1f c6 bd 67 d1 52 be 05 bc 15 3e
       0.09535294 -0.09673901 -0.20587693 0.14622505
000220 0c 36 30 bd 3c 1d 86 3c 6f 95 3f be dc 73 12 3e
       -0.043020293 0.016371362 -0.18709348 0.1430201
000230 c3 ba 05 bd 54 d9 26 3e 81 45 66 be 98 28 db bd
       -0.032648813 0.16293842 -0.22487451 -0.10701102
000240 04 82 e5 bd 50 2b cd bd 97 aa 2f 3e 83 ba 15 bd
       -0.11206439 -0.10018027 0.17154919 -0.036554825
000250 21 4b 28 3e 38 6e ab 3d 80 ef 3c be 7a 21 3c 3d
       0.1643491 0.08370632 -0.18450737 0.045930363
000260 6b 05 9e bd ce 91 8c 3d e0 c8 49 be 86 a4 37 3d
       -0.07715877 0.068637475 -0.19705534 0.044834636
000270 4b 9d 31 be c4 6d 03 3e 9b f7 17 3e b1 d1 50 3e
       -0.17345159 0.12834841 0.14840548 0.20392491
000280 e4 3d 20 bd ec ce 27 3d 41 81 67 3e f3 f1 b4 3c
       -0.039121523 0.04096882 0.226079 0.022088027
000290 c6 56 c7 3d e9 17 d1 3d cc 46 f1 bc 2b 52 01 be
       0.097333476 0.102096386 -0.029452704 -0.12629001
0002a0 81 c7 2e 3e 20 ea 5c be 78 b8 40 be e5 67 a5 bd
       0.17068292 -0.21573687 -0.18820369 -0.08076457
0002b0 d4 a1 4e 3d 21 a3 fb 3d 74 3e 4e 3d 6a 38 14 3e
       0.0504473 0.12286974 0.05035253 0.14474645
0002c0 f2 4c 65 3c 55 c2 36 be a0 bc 56 bd a6 20 ac 3d
       0.013995396 -0.1784757 -0.05242598 0.08404665
0002d0 46 4a 92 bb b5 67 98 bd 78 c0 4a bc ab 81 6f 3e
       -0.0044644205 -0.074416555 -0.01237499 0.23389308
0002e0 60 12 34 be 2d d1 82 bd 78 51 8e 3d 06 5e 50 be
       -0.17585135 -0.06387553 0.06949133 -0.20348367
0002f0 66 19 f8 3d e7 e1 8e 3d ed ce 64 3e c0 d2 35 3e
       0.12114219 0.06976681 0.22344561 0.17756176
000300 c8 17 9a 3c 6b ef 6c 3c ac cd 4b 3e 97 b6 69 be
       0.018810168 0.014461379 0.19902676 -0.22823559
000310 97 96 3b 3e f2 c7 c9 3d 9d 15 7d 3c 97 6f 60 be
       0.18319164 0.0985259 0.015447048 -0.21917568
000320 46 ae 09 bd d7 46 c9 3d d2 7e af bd c9 8f 46 3e
       -0.033613466 0.09827965 -0.08569111 0.19390787
000330 7c 7f 0d be e9 42 25 be a7 61 7c bc 50 c4 0a 3d
       -0.13818163 -0.16138805 -0.0154041415 0.033878624
000340 f7 98 67 be 0d e2 22 3d f5 68 6a be 87 2b 41 3e
       -0.22616945 0.03976636 -0.228916 0.1886426
000350 07 30 0b 3e b6 45 f5 3d 9b 00 3d 3e 40 18 b7 bb
       0.1359254 0.11976187 0.18457262 -0.0055876076
000360 4f fb b8 3d 65 6d 02 3e 2b 15 bd 3d d3 47 8d bd
       0.09032308 0.12737043 0.09232553 -0.06898465
000370 0e ac 47 be 97 07 5f 3c 07 43 6f bd c7 d9 02 3e
       -0.19499227 0.013612649 -0.05841353 0.12778388
000380 14 59 3a 3e e5 30 28 be dc a8 16 be 27 82 63 3e
       0.18198043 -0.16424902 -0.14712852 0.22217618
000390 b2 b8 ec 3d ec 2f f6 bc a0 e5 06 3e f2 da 80 bb
       0.11558665 -0.030052148 0.13173532 -0.0039323503
0003a0 1a 38 2a be 34 76 65 3d bf 31 63 3c 8b 86 22 bc
       -0.16622964 0.05602093 0.013866841 -0.009919773
0003b0 be 48 7a bd 45 e6 61 3e 4b 9f 6b be d6 f8 62 3e
       -0.06110453 0.22060497 -0.23009984 0.22165236
0003c0 96 59 24 3e c3 8e 72 be 3c c0 41 3e 61 a5 dc 3c
       0.160498 -0.23687272 0.18920988 0.026934328
0003d0 6f 96 1e be c9 56 66 3d ce 8f 91 bd 47 9b 52 be
       -0.15487073 0.05623511 -0.07107507 -0.20567046
0003e0 00 71 0f be a9 33 8b bd 78 ce c2 3c c2 d5 df 3d
       -0.1400795 -0.06796963 0.023780093 0.10929443
0003f0 13 4e 46 be bc 46 01 3c 26 2d cc 3d 3f a8 22 3d
       -0.1936572 0.0078904 0.09969549 0.039711233

model.encoder.edge_encoder.0.2.bias f4 [18]
000000 61 5d cf 3d 69 bc 05 3e 42 67 84 bd a5 2d 0e be
       0.101252325 0.13060154 -0.06465007 -0.138846
000010 fa 2c 6e 3e f4 84 30 be 02 7f 33 3e b6 e0 9c bd
       0.23259345 -0.17238218 0.17528918 -0.07660048
000020 6b 08 76 bd 57 63 c6 3c 36 1b 73 3e e9 67 9c 3d
       -0.06006662 0.02421729 0.23740849 0.07637007
000030 32 63 28 3e 8e d2 9e 3d e6 c1 ad bd d8 99 9d 3c
       0.1644409 0.07755004 -0.08484249 0.019238397
000040 9c 08 c4 3d 18 6b a7 bd
       0.095719546 -0.081747234

model.encoder.edge_encoder.0.4.weight f4 [18, 18]
000000 d0 21 26 3e b0 b4 22 bd fe 50 51 be 52 47 dd 3d
       0.16223836 -0.0397231 -0.20441052 0.10804619
000010 77 bf 17 bd 8e cd 38 be 9c b4 08 be c5 0e 0e be
       -0.03704783 -0.18047163 -0.13350147 -0.13872822
000020 5e fc 36 3e 2f 5d 32 3e 99 a1 ee 3d 9e 89 33 3e
       0.17869708 0.17418359 0.11651916 0.17532966
000030 86 3a 92 bd 02 5f fe 3d dc c5 c7 bc c0 ce 97 bd
       -0.07140069 0.12420465 -0.024386339 -0.07412481
000040 8b 7f e2 3d 9f eb 51 3e 5b c1 29 be fe f0 70 be
       0.11059483 0.20500039 -0.16577666 -0.23529431
000050 55 23 0c 3e 54 b9 6f be 5c 96 ed bd 5c e6 07 be
       0.13685353 -0.23410541 -0.116009444 -0.13271469
000060 9d b9 90 3d 7b 01 23 be 86 a8 3b be c4 a5 cb 3d
       0.07066653 -0.15918534 -0.18326005 0.09943727
000070 c5 e9 da bd d9 5b 6b 3e 67 df 66 3e fc 35 67 bd
       -0.10689119 0.22984256 0.22546159 -0.056447968
000080 78 06 06 bd 31 28 0d be 95 d3 ec bc de b7 91 3d
       -0.032721013 -0.13784863 -0.028909484 0.07115148
000090 e6 5c 2c be f9 78 60 3e dd 7e 12 3e 70 dd 1a be
       -0.16832313 0.21921147 0.14306207 -0.15123534
0000a0 63 7a 08 3e 58 0f b6 3c 7b 16 32 be b0 46 35 3c
       0.13327937 0.022224113 -0.17391388 0.0110642165
0000b0 ab 77 48 3e 6c b0 8a bd 4f 6a 6d be 98 a3 ad 3c
       0.195769 -0.06771931 -0.23185085 0.021196172
0000c0 56 c1 51 be e6 2a 92 bd e4 3d 06 3d 7b ee ea bd
       -0.20483908 -0.071370885 0.032773867 -0.11471268
0000d0 df b9 0a be c0 77 35 be bc 19 57 3e a5 39 4a 3e
       -0.13547467 -0.17721462 0.2100591 0.19748552
0000e0 d6 f0 31 be a8 0e 54 be b6 db dc bd b2 fe da 3d
       -0.17377028 -0.20708716 -0.10784094 0.106931105
0000f0 6e f0 88 bd 1c 4b 0f 3e a2 b6 29 bd 97 83 c5 3b
       -0.06686483 0.13993496 -0.041433938 0.0060276496
000100 2e 50 b1 3c 25 2b 59 be 08 2b 56 be 93 01 c2 3d
       0.021644678 -0.21207865 -0.20914853 0.094729565
000110 59 f9 e0 3d 51 cf 20 3e f1 31 58 bd 2d 63 5d be
       0.10985059 0.15704085 -0.052782003 -0.21619864
000120 2c a4 78 3d 48 37 66 be 00 e7 b5 bb b2 ba db bd
       0.06070344 -0.22482026 -0.005551219 -0.10728969
000130 40 51 66 bc fa b3 81 3d ec bc 7c 3d dc 2f 0c 3d
       -0.014057457 0.06333156 0.061703607 0.03422533
000140 33 91 23 be 68 4b e9 3c dd 01 46 be 80 82 d7 ba
       -0.15973358 0.02847834 -0.19336648 -0.001644209
000150 04 56 bb bd 38 c8 99 bc c3 44 37 3e 9c 27 01 bd
       -0.091472656 -0.01877223 0.17897324 -0.031531915
000160 fc d2 e7 bd bc 22 32 3d 23 46 48 3e fd fb 51 3e
       -0.11319539 0.043490157 0.19558005 0.20506282
000170 5d 5b 39 3d 9e a8 c5 bd 8a fb 1f be c8 56 b8 bc
       0.045253146 -0.09651302 -0.15623298 -0.022502318
000180 2b e9 a4 3b 47 f6 2c be d4 9c 67 3d a6 46 7d 3b
       0.0050326786 -0.16890822 0.056546047 0.0038646846
000190 7f e6 12 bd 0d 0f 9f bd b2 54 20 3e 6e 25 21 bd
       -0.03586435 -0.077665426 0.15657309 -0.039342336
0001a0 e5 2d 62 3e 3b c7 3a be f6 ed 3e 3c a4 3d 65 3d
       0.2208782 -0.18240063 0.011653414 0.05596699
0001b0 9a 0b de 3d 4c b1 41 be 0e 2b ac bc 95 61 1d 3e
       0.108420566 -0.1891529 -0.021016624 0.15369256
0001c0 97 6d ff 3d ef e4 6d be 25 d9 4e be 2d 27 fd 3c
       0.124720745 -0.23231862 -0.20200022 0.03090247
0001d0 44 e2 31 be d4 86 de bd ae af 6b 3d f0 d3 40 bc
       -0.1737147 -0.1086556 0.057540588 -0.01176928
0001e0 1a 09 3b 3e d0 f8 c2 3d 32 96 cd bc 18 35 99 3c
       0.1826519 0.095201135 -0.025096033 0.018702075
0001f0 84 e7 52 be ac ad 70 3d 09 91 58 3e 80 28 71 be
       -0.20596129 0.058759376 0.21149077 -0.23550606
000200 08 5b cf 3c d9 36 71 3e 7b 02 50 3e 12 3e 85 3d
       0.025311962 0.23556079 0.20313446 0.065059796
000210 06 d8 c8 3d ee 6b 88 bd 60 77 ec bb e3 56 0f be
       0.09806828 -0.06661211 -0.007216379 -0.13997988
000220 eb f0 43 be 30 0f 06 3c 94 ca 00 3d a2 40 cd bd
       -0.19134872 0.008182332 0.031443194 -0.10022093
000230 be 4d 88 bd 0d f0 09 3e 8c 68 61 be 8c 32 99 bd
       -0.06655453 0.13470478 -0.22012538 -0.07480344
000240 fc 1f 7d 3d d3 4b 39 3e 32 d3 c7 bd 73 25 45 3e
       0.06179808 0.18095331 -0.09757079 0.19252567
000250 34 42 e5 bd 0a 12 ab 3d e0 d8 91 bb 84 ad 32 3d
       -0.11194268 0.0835305 -0.0044509023 0.04362251
000260 0d 22 5c 3e 12 b3 a3 bd 70 06 98 bd e8 00 8f bc
       0.21497364 -0.07993139 -0.07423103 -0.017456487
000270 44 28 60 be 44 d9 1d be 5f 4c 45 be 84 65 19 be
       -0.2189036 -0.15414912 -0.19267415 -0.14980131
000280 d2 bf b0 bd 1f c7 3e be 97 49 36 3e ec ff 1f 3d
       -0.08630337 -0.18630646 0.1780151 0.039062425
000290 bd 06 86 3c 33 c2 6a be 9c 73 06 3e d1 80 09 3e
       0.016360635 -0.22925644 0.13130039 0.13428046
0002a0 47 93 c8 bd 05 29 10 bd 68 31 2c 3e f7 42 d4 bd
       -0.09793716 -0.03519537 0.16815722 -0.10364335
0002b0 e8 78 e2 3d 91 44 4f 3e 77 16 29 3e b3 ee 1d 3d
       0.11058217 0.20241 0.16512476 0.03855772
0002c0 58 8f 3e 3e cd a6 25 3e 9d b4 22 be b5 d4 e6 bd
       0.18609369 0.1617691 -0.15889211 -0.112710394
0002d0 ba 56 f8 3d 08 31 9c 3c b8 cf 30 be 2c fb 0b 3d
       0.12125917 0.019066349 -0.17266738 0.034175083
0002e0 d6 1e aa 3d ed b6 2e 3e 3c 29 25 3d d4 1c 37 be
       0.08306663 0.17061968 0.040322527 -0.17882091
0002f0 88 a8 45 bd ca f2 a6 3d 88 ee f2 3c 74 3d 2a 3d
       -0.048256427 0.08151777 0.029654756 0.041562513
000300 c6 a5 62 be 87 44 5b 3e 7a 57 e7 3d 4b 8f 09 3e
       -0.2213355 0.2141286 0.11295982 0.13433568
000310 09 87 fe bd e0 71 93 bd 2e 58 51 be fa 5f f1 3d
       -0.124281 -0.07199454 -0.20443794 0.11785884
000320 df bd 5d 3e cc 5c db bd 7c bf a9 bd 8c 07 fc bd
       0.21654461 -0.10711059 -0.08288476 -0.12306127
000330 cd 50 d6 3d 3c ad 9c 39 b3 69 43 3d 5a c7 56 bd
       0.1046463 0.00029883708 0.047708225 -0.05243621
000340 7d 55 3a 3e 40 5a 43 3e 97 49 d3 bd ad e8 bf 3d
       0.18196674 0.19077396 -0.103167705 0.09370551
000350 03 38 cd bd 18 e0 22 be e4 f1 04 3e b2 4e d5 3d
       -0.10020449 -0.15905797 0.12982899 0.104154006
000360 f1 75 40 be 04 a8 bf bd db f8 4c 3e 05 63 33 3e
       -0.18794991 -0.09358218 0.20016806 0.17518242
000370 84 08 1b 3d 49 34 0b 3e e7 df e5 bd c6 0a 9d 3d
       0.037849918 0.13594164 -0.112243466 0.076680705
000380 fa f7 83 3d 07 54 71 3e 46 98 19 be 9c 74 53 be
       0.06443782 0.2356721 -0.14999494 -0.20649952
000390 f8 15 23 bd 2d fa 32 3e 5e ba 27 be 7e ef c0 3d
       -0.039815873 0.17478247 -0.16379687 0.094206795
0003a0 2c b1 b4 bd 6c 00 49 bd 79 14 0c bd 31 f5 0d 3e
       -0.08822855 -0.049072668 -0.03419921 0.13863064
0003b0 00 33 d8 3d 30 02 a6 bc 96 8a 41 3e 49 63 28 be
       0.105566025 -0.020264715 0.18900523 -0.16444124
0003c0 9b 24 16 be 27 a7 0f 3d 01 99 93 3d 6c 15 24 3e
       -0.14662401 0.03507152 0.072069176 0.16023797
0003d0 02 7c 74 be 23 fa 06 3e eb fe f6 bc 0b 4b a2 bd
       -0.2387543 0.13181357 -0.030150851 -0.079244696
0003e0 42 22 61 be 3c cd 06 bd d5 76 b5 bd c0 3b 11 bb
       -0.21985725 -0.03291057 -0.08860556 -0.0022160858
0003f0 a9 99 29 be 82 80 a1 3d d7 6c 00 3e c8 56 88 bc
       -0.16562523 0.07885839 0.12541519 -0.016642943

model.encoder.edge_encoder.0.4.bias f4 [18]
000000 79 a6 99 bd f8 13 22 3e 70 07 c1 bd e0 8d 2d 3e
       -0.07502455 0.1582793 -0.09425247 0.16948652
000010 f4 55 75 3d ec 7c 07 3e f1 81 ea 3d 3c 6d 2d be
       0.059896424 0.13231248 0.114505656 -0.16936201
000020 64 1f 36 3d 20 80 35 3e 8f 8b f7 bd 80 ec 1f bd
       0.04446353 0.17724657 -0.120871656 -0.039043903
000030 58 f9 84 bc 18 75 20 3e 0d a4 11 be fd f3 d5 bc
       -0.016232178 0.15669668 -0.14222737 -0.02611732
000040 76 52 9c bd 00 6c 71 3e
       -0.07632916 0.23576355

model.encoder.edge_encoder.0.6.weight f4 [18, 18]
000000 d2 cc 19 3d 34 3c 38 3e 28 f2 52 be 67 87 18 3e
       0.037548847 0.17991716 -0.20600188 0.14895402
000010 56 7b 4f be ba 80 3a be 45 01 03 be 58 80 c5 3c
       -0.20261893 -0.18213168 -0.12793453 0.02410905
000020 21 75 1d 3e 79 9e 51 be 92 dd b8 bd 6d 21 cf bd
       0.15376712 -0.20470609 -0.09026636 -0.10113797
000030 62 10 67 be 5d 03 ce 3d 8b 39 3b 3e b4 05 30 3d
       -0.22564843 0.10059235 0.1828367 0.04297419
000040 7c 4d 5d be db 6b 33 3e 38 36 83 3d d8 43 96 bd
       -0.21611589 0.17521612 0.06406826 -0.07337159
000050 b8 7a fb 3c 43 d2 71 bd 62 a8 cc 3d 72 9f 7c 3d
       0.030698165 -0.05903841 0.09993054 0.061675496
000060 56 dc 6b bd b2 40 cc 3d fc 21 3e be 3b a6 6f 3e
       -0.057583176 0.09973277 -0.18567652 0.23403256
000070 a0 4f 43 bc 41 9c 5d 3e d9 89 4c 3e 0d 85 5d 3d
       -0.01192084 0.21641637 0.1997446 0.054081965
000080 8c 32 3f 3e 54 23 55 be 76 a0 97 3d be 57 18 be
       0.18671626 -0.20814258 0.07403652 -0.14877221
000090 60 18 5d 3d f9 13 0f 3e 45 83 5e 3e b2 9b 0f 3c
       0.053978324 0.13972463 0.21729763 0.008765148
0000a0 82 48 a9 3d d3 38 c2 3c 88 2a bc 3d 9b e0 38 3e
       0.08265783 0.023708737 0.091878 0.1805443
0000b0 46 92 bc 3d 6c 83 96 bd c5 18 1d 3e d6 ac 61 be
       0.09207587 -0.073492855 0.1534148 -0.22038588
0000c0 d2 2f 22 be ea 0e 2b 3e dc b5 80 bd e0 76 5b 3e
       -0.15838555 0.16704908 -0.06284687 0.21432066
0000d0 cb 67 d8 bd 62 3f c0 bd 1b 64 36 3e 4b d7 aa bd
       -0.10566672 -0.09387089 0.17811625 -0.08341845
0000e0 1b f6 26 3e c3 20 32 3e aa aa 6d be ed 9d 2b be
       0.1630482 0.1739531 -0.23209634 -0.16759463
0000f0 0d 9d 56 3e 4a 4d ad 3d 9f 68 0a 3e 30 01 84 3d
       0.20958348 0.08462007 0.13516472 0.06445539
000100 10 79 c5 bc 40 d9 0b be bd 22 35 be 14 5b 4d bd
       -0.024105579 -0.13657093 -0.17689033 -0.050135687
000110 9f 90 a1 3d e3 d1 8b bd ec 6e 5c be 09 fe da 3b
       0.078889124 -0.06827142 -0.21526688 0.0066831154
000120 a3 4f 4b be 82 5d 69 bd aa 1e 36 be ed 4e 53 3c
       -0.19854598 -0.05697394 -0.17785135 0.012897235
000130 6c 16 1d 3d 5a 7c a8 ba 62 86 3b 3e d0 3f 17 be
       0.03835146 -0.0012854442 0.18312982 -0.14770436
000140 a8 a2 39 be ee af 5a 3e de a5 d5 3d a2 f8 ce bc
       -0.18128455 0.21356174 0.10432027 -0.025265042
000150 da 5b b5 bd 24 2c 33 3e b0 f1 65 3e 83 38 4e 3c
       -0.0885541 0.17497307 0.22455478 0.012586716
000160 35 56 ae 3d 27 db 08 be d5 36 90 3d e4 ea 91 3c
       0.085125364 -0.1336485 0.070417084 0.0178122
000170 76 9b 93 3d 46 f5 94 3d f6 65 cb bd ed 97 c9 bd
       0.07207386 0.07273345 -0.09931557 -0.09843431
000180 b2 c5 0c bd 68 c8 47 be 7d b7 68 3e d5 37 24 3e
       -0.034368224 -0.19510043 0.22726245 0.16036923
000190 93 ff 1c be 20 b7 1b 3d fc ca 18 be 95 53 5c 3e
       -0.15331869 0.03801644 -0.14921182 0.21516259
0001a0 16 fe 00 be b1 57 60 3d 17 a5 d4 bd a4 e2 1b 3e
       -0.12596926 0.05477113 -0.10383051 0.15223175
0001b0 1e 70 42 3e aa fc 29 be 50 b7 78 3c 30 8c 65 3d
       0.18988082 -0.1660029 0.015180424 0.056041896
0001c0 f2 ae 3e be 37 00 23 be ff 31 68 be aa cc a0 3d
       -0.18621424 -0.1591805 -0.22675322 0.078515366
0001d0 fa 9f c5 3d d8 a0 b9 3c 41 a2 4f 3e 1d 0a 4c 3d
       0.09649654 0.022659704 0.20276739 0.049814332
0001e0 8d 24 45 3e 29 08 f8 3c 1c c6 88 3d a3 24 03 3d
       0.19252224 0.030277329 0.06678411 0.03201736
0001f0 e9 d5 50 3c 06 43 6a be 9d 1a 3e 3e 96 b7 08 3e
       0.012746313 -0.2287713 0.1856484 0.13351282
000200 98 c9 1e be 0f ea 04 be ca 04 05 be c3 6d 30 be
       -0.1550659 -0.12979911 -0.12990108 -0.17229371
000210 ce 43 19 be 36 04 8b 3d 64 9c 35 be a6 a5 9a bc
       -0.14967272 0.067879125 -0.1773544 -0.018877815
000220 f5 b7 14 3e c0 61 b2 3d f7 3e 04 3e 6f 6d 5a 3d
       0.14523299 0.087100506 0.12914644 0.05332702
000230 93 e5 a6 3d 32 4f 4a be 75 ae 3f 3e 7d 1b 50 3d
       0.081492566 -0.19756773 0.18718894 0.050807465
000240 24 bc ea ba b9 ea 62 3d 40 0e 17 bc cd 77 09 be
       -0.0017908853 0.05539963 -0.009219706 -0.13424607
000250 02 40 d3 3d 3f 2f 0b 3e e0 bd 62 3d 3e 9e 8d 3d
       0.10314943 0.13592242 0.05535686 0.06914948
000260 8e 0e c8 3d c6 86 e4 3c 10 8f 54 3c 43 39 02 bd
       0.09768401 0.027896296 0.012973562 -0.03179289
000270 26 7b 98 3d b6 c1 58 3d 33 da 15 3e ae 47 58 be
       0.07445364 0.052919112 0.14634018 -0.21121094
000280 d5 85 6a 3e 28 b4 66 3e fb ca d8 bd 23 b4 57 3d
       0.22902615 0.22529662 -0.105855905 0.052662026
000290 f2 b8 a2 bd 10 ab e6 3d f2 ac 01 be 20 f2 1a bd
       -0.07945432 0.11263096 -0.1266363 -0.037828565
0002a0 c3 d1 29 bc bd ee 23 3e 2f 3f 5b be 0d 67 4d 3e
       -0.0103649525 0.1600904 -0.21410821 0.20058842
0002b0 30 ae 52 bd 18 a8 34 3e 96 77 91 3d 8e 92 80 bd
       -0.05143565 0.17642248 0.07102887 -0.06277953
0002c0 a6 25 aa bd 9d 9e 4c 3e fe d4 98 bc 65 28 e5 3d
       -0.08307962 0.19982381 -0.01865625 0.11189345
0002d0 da af 03 be f3 17 ca 3c 1e fb bc 3d cf 87 f5 3d
       -0.12860051 0.024669623 0.09227584 0.11988794
0002e0 b8 a3 30 bd 70 12 48 bd d1 f8 48 be 14 0d 23 bd
       -0.043124884 -0.04884571 -0.19626166 -0.039807394
0002f0 c0 0a 0a bd 1b 89 2f 3e e7 19 14 3e 18 f2 34 3e
       -0.03370166 0.17142145 0.14463006 0.17670476
000300 f2 87 d3 3d 57 eb 95 3d 3a fa 20 3e b3 77 d2 3b
       0.10328664 0.07320278 0.15720454 0.0064229607
000310 e0 dd 4c 3e d1 b1 8b bd 0e d6 25 3e 7d a9 46 3d
       0.20006514 -0.06821025 0.16194937 0.04850148
000320 00 c2 9d b9 2f 77 7e 39 e8 e6 b1 3c c7 f9 18 be
       -0.00030089915 0.00024267727 0.02171655 -0.14939032
000330 e6 55 8b 3c 80 cb 9d 3a e9 39 6e 3e 44 1a 92 bc
       0.017008733 0.0012038797 0.23264278 -0.01783479
000340 0e 91 a0 3d 2f 85 1f 3e 40 17 97 3b db aa 1a 3e
       0.07840167 0.1557815 0.004610926 0.15104239
000350 e4 89 46 3e e0 95 23 be 52 8e 17 3e 28 02 d5 3d
       0.19388539 -0.15975142 0.14800385 0.10400802
000360 c2 ac 65 be 3f 04 91 bd 18 1c f1 3c fd 1c 4d be
       -0.22429183 -0.07080888 0.029432341 -0.2003059
000370 d4 6f 7a 3d 95 b2 ce bb f8 61 2c be ca 4e b2 bd
       0.061141804 -0.0063079097 -0.16834247 -0.08706434
000380 88 2b 21 be 71 48 1b 3e e0 ca cf bd 20 40 06 3e
       -0.15739262 0.15164353 -0.10146117 0.13110399
000390 2b c1 65 3e c2 ee 56 3e 7a ea 72 bd 33 39 6c 3b
       0.22436969 0.20989516 -0.059305646 0.0036044836
0003a0 6f 75 09 3e 6b de 66 be d2 9f 19 3e c8 53 57 3e
       0.13423704 -0.22545783 0.15002373 0.21028054
0003b0 7c 34 30 3d 4b 14 ef bd 21 1d 55 3e 7c e8 06 3e
       0.043018803 -0.116737925 0.20811893 0.13174623
0003c0 bd 2d c1 bd 9c 76 35 3d 6e d2 c6 3d e4 11 8c bc
       -0.09432552 0.044302568 0.09708105 -0.017098375
0003d0 b2 46 cb bd 46 54 50 be 67 3b 47 3e 9f a0 0a 3d
       -0.099255934 -0.20344648 0.19456254 0.033844586
0003e0 3b 4a 3e 3d 3e 0e 02 3e c9 fb 6d 3e 15 34 6c be
       0.04645751 0.12700745 0.2324058 -0.23066743
0003f0 c4 dd cb 3d 0b 21 5c be 60 08 eb bb 51 af 16 3e
       0.09954408 -0.2149698 -0.0071726292 0.14715315

model.encoder.edge_encoder.0.6.bias f4 [18]
000000 5b 7a 05 be 00 f7 b7 bd 79 de ca 3d cb ad 6c 3e
       -0.13034956 -0.089826584 0.099057145 0.23113172
000010 7b 7b 9d 3d a6 ab 16 be c8 88 04 be e4 a0 ec 3b
       0.07689568 -0.14713916 -0.12942803 0.007221328
000020 74 2e 17 be a0 52 56 3e ee 88 0d 3e 42 ba 61 3e
       -0.14763814 0.20929956 0.13821766 0.22043708
000030 bd 90 17 be c2 a2 df 3d c8 e7 df 3c 78 ce 15 3d
       -0.14801307 0.109197155 0.027332202 0.036573857
000040 c9 88 45 3e c7 4e a5 3d
       0.1929046 0.08071666

model.encoder.edge_encoder.1.weight f4 [18]
000000 34 59 7e 3f 36 41 80 3f 9c 4a 7d 3f 98 c7 80 3f
       0.99354863 1.0019901 0.9894197 1.0060911
000010 88 b3 7e 3f 1f 8a 80 3f df 49 80 3f e8 63 7b 3f
       0.9949269 1.0042151 1.0022544 0.9819932
000020 cb f0 7f 3f 02 52 80 3f 65 43 7f 3f 6b b2 81 3f
       0.99976796 1.0025027 0.9971221 1.0132574
000030 14 e9 80 3f 82 f5 7d 3f f3 54 80 3f 83 db 7f 3f
       1.007113 0.9920274 1.0025924 0.99944323
000040 f1 9e 7f 3f c1 96 81 3f
       0.998519 1.0124131

model.encoder.edge_encoder.1.bias f4 [18]
000000 8f 6c d3 3b a8 c9 52 bb 3b 6e be ba 17 7e c7 3b
       0.00645215 -0.0032163654 -0.0014528701 0.006088029
000010 aa c5 9c bb 23 42 91 bb 83 23 28 bb 66 a4 95 3c
       -0.0047843056 -0.004432933 -0.0025655932 0.018266868
000020 1b 8a b7 ba 86 b5 2b 3b f4 58 0a bb 6a 98 5c 3c
       -0.0014002951 0.0026200726 -0.002111015 0.013464073
000030 bf e7 ed bb 5a 0b d0 ba 14 29 9c bb ea 03 2f 39
       -0.0072602923 -0.0015872524 -0.004765639 0.00016690759
000040 0d 53 bd ba 37 5f 50 bc
       -0.0014444307 -0.0127180135

model.encoder.node_encoder.0.0.weight f4 [18, 6]
000000 0d 31 b9 be 08 48 4f 3c b8 38 66 be f8 64 7e 3e
       -0.36170235 0.012651451 -0.22482574 0.24843204
000010 92 74 5a be f8 33 98 3e e5 a3 a3 3e d9 b1 12 bd
       -0.2133353 0.2972715 0.3196098 -0.03581414
000020 a0 97 3c 3d d9 a9 3e be 62 16 97 3c 69 cf 65 3e
       0.04604304 -0.18619479 0.01844329 0.22442402
000030 ca 01 a0 bc 88 6b b7 3e 1d 17 38 3e 13 d8 f9 bd
       -0.019532103 0.35824227 0.17977567 -0.12199416
000040 34 7a a8 3e 66 59 0a 3e 6d bc 59 bc e3 25 d3 3d
       0.32905734 0.13510665 -0.013289553 0.10309961
000050 5e 2c af bd 5a 07 36 be f6 0c 9d be cc d4 f6 bd
       -0.08553384 -0.17776242 -0.3067395 -0.120523065
000060 6f 6b be bd e9 26 be be ff b1 a4 3e 29 9e 0d bd
       -0.09297835 -0.3713906 0.3216705 -0.03457466
000070 6b 1a 88 3b 98 9e d3 bd ee 2b c9 3e 06 66 3e be
       0.00415354 -0.10332984 0.39291328 -0.18593606
000080 d3 e7 b2 bd 00 c5 1d 3c f6 c4 90 be 9e f3 92 bd
       -0.08735623 0.009629488 -0.2827527 -0.071753725
000090 e8 08 cc 3d f2 26 38 3d 8e 4e 81 be 54 d9 a8 3d
       0.09962636 0.044959016 -0.25255245 0.08244577
0000a0 78 a6 79 be 10 62 92 3e 22 46 f5 bd 4d a0 de 3c
       -0.24379909 0.2859044 -0.119762674 0.027176047
0000b0 88 0e c1 bd 65 43 8e 3e 24 53 b2 3c 97 26 aa be
       -0.094266 0.27785793 0.02176816 -0.33232567
0000c0 c6 7e 6b 3e 35 cd b3 be 4e 70 2c 3e 3a 8f c7 3e
       0.22997579 -0.35117498 0.16839716 0.3897646
0000d0 c0 0d e8 3b 38 07 3e 3d 5b 91 95 be 88 47 fd 3d
       0.0070817173 0.046393603 -0.2921246 0.12367159
0000e0 61 7c c4 3d ee 6d ab 3e 09 49 b7 be cc a6 c0 3e
       0.09594036 0.33482307 -0.3579791 0.37627256
0000f0 cc 0f e5 3d be bd b1 3e ab 31 72 3e 30 61 32 be
       0.11184654 0.34715074 0.2365176 -0.17419887
000100 19 b0 03 3e 7c 2e ae 3e 45 4d d3 3e 25 68 9b be
       0.12860145 0.3401984 0.4126989 -0.30352893
000110 d1 d7 85 3e 8a bd ae 3e 22 e0 63 be 53 3d 6e be
       0.26141217 0.34128982 -0.22253469 -0.23265581
000120 96 4b a5 be 34 bb e6 bd 69 67 84 3e 78 51 0e 3e
       -0.3228423 -0.11266175 0.25860146 0.13898265
000130 d4 3b 86 3d f0 b3 5c be 73 13 5b be 67 85 75 3e
       0.0655438 -0.21553016 -0.21394138 0.2397667
000140 25 f3 a0 3e 6f 4d f7 3e a2 b2 0c 3e 06 ba 5c bd
       0.31435505 0.48301265 0.13740018 -0.053888343
000150 27 64 ae 3e 8c ef 16 3c 0f 80 20 be 06 83 89 be
       0.34060785 0.009212386 -0.1567385 -0.26857775
000160 b2 07 a0 3e 24 62 2c 3e 24 d9 9c be e2 80 c0 3c
       0.3125587 0.16834313 -0.30634415 0.023498956
000170 da 57 39 3e f7 1c c7 bd 3d 0b 85 3d eb 6c 8e be
       0.18099919 -0.097223215 0.06496284 -0.27817473
000180 1f 6b 15 bd cb b2 bc bd a4 4b 83 be d1 dd b5 bd
       -0.03647911 -0.092137896 -0.25643647 -0.08880199
000190 83 0b a3 bd b6 83 de bd 0d b9 57 be c1 46 b3 3d
       -0.0796118 -0.108649656 -0.21066685 0.087537296
0001a0 39 78 3a be 20 c7 01 3e 1a 35 85 be 9f 34 08 3e
       -0.18209924 0.12673616 -0.26017076 0.13301323

model.encoder.node_encoder.0.0.bias f4 [18]
000000 f3 fd 34 be b9 67 69 3e ae 1f 7c 3b 4c b6 bc be
       -0.17674999 0.22793473 0.003847103 -0.3685783
000010 79 5d 80 3e 3e 2e a6 3e a7 e1 64 3d 37 11 9c 3e
       0.25071314 0.32457155 0.05587926 0.30481884
000020 80 d2 c1 be 48 cb b4 3e 35 ba 4c 3e 10 13 3f 3e
       -0.3785591 0.3531134 0.19992907 0.18659616
000030 15 03 b8 3e 36 09 c9 3e 4f fc 9a bd 74 75 d2 bd
       0.3593985 0.3926484 -0.07567655 -0.10276309
000040 1b 56 b1 3e 59 c0 1e 3e
       0.34636006 0.15503062

model.encoder.node_encoder.0.2.weight f4 [18, 18]
000000 e7 f8 9b 3d ce 85 56 bc f8 6b 8a bc 0b 2d 1d be
       0.07615834 -0.013093425 -0.016897187 -0.15349214
000010 4f 30 84 bd 8e 29 b4 3d db 27 38 3e 3f 59 82 3e
       -0.06454527 0.087969884 0.17983954 0.25458714
000020 ed b5 b5 3d de e0 2d 3e 36 33 02 bd 55 ee 51 be
       0.0887259 0.16980311 -0.03178712 -0.20501073
000030 c4 06 c5 bd 0d 04 96 3c 28 bc 42 3d ff 91 6a 3c
       -0.09620431 0.018312478 0.04754272 0.014317035
000040 53 fe 6b bd a3 d1 0a 3e cb 59 3e be b6 5e e0 bd
       -0.05761559 0.13556533 -0.18588941 -0.10955565
000050 ed 5f 17 3e c7 97 0a 3d 5a eb 38 bd 8b fa df bc
       0.14782687 0.033836152 -0.045146324 -0.027341148
000060 9b c4 13 3b 95 e1 63 be 80 b4 59 be 0e 37 6b 3d
       0.0022547606 -0.22254021 -0.21260262 0.05742555
000070 bf 38 7b be af 2a 63 be 74 5a 16 3d 72 ee 39 bd
       -0.24533366 -0.22184251 0.036707357 -0.045393415
000080 7e 63 8e 3d 7d 9d 4c 3e 45 71 90 3d 7f cb 0a bd
       0.069525704 0.19981952 0.070528544 -0.033885475
000090 ab 0c 18 bc 2a ec 8a 3c a7 39 ff bd e5 51 74 be
       -0.009280364 0.016958315 -0.12462168 -0.23859365
0000a0 90 c1 10 bc c2 7d e7 3c 05 ab 09 3d 7c af 1d 3c
       -0.008835211 0.028258208 0.033610363 0.009624358
0000b0 b8 5a 91 3e 27 38 04 3e 4f ad 36 3e 3f 69 42 be
       0.28389525 0.12912045 0.1783955 -0.1898546
0000c0 f1 87 23 be f6 1a 27 3e 75 1f 82 3e 31 ae 27 bd
       -0.15969826 0.16318879 0.25414625 -0.040937606
0000d0 0b 17 c8 3d 3b 3b bb 3c ef db 1e be 1c 2d 77 3d
       0.0977002 0.022855392 -0.15513586 0.060345754
0000e0 59 f4 b8 bd 81 79 22 3e f0 e1 60 bc 3a 12 d8 bc
       -0.090309806 0.15866663 -0.013725743 -0.026375879
0000f0 b1 f1 9b 3d d0 58 4d 3d fc f7 96 bc 39 7b 1f 3e
       0.07614458 0.050133526 -0.018428795 0.1557435
000100 1d 91 93 3c 87 e6 8c 3d 71 ae 18 bc 13 92 48 3e
       0.018013531 0.06879907 -0.009318934 0.19586973
000110 88 fa a6 bc c0 1a a3 bd 00 0b 50 3e e6 c8 93 bd
       -0.020383134 -0.079640865 0.20316696 -0.07216053
000120 a3 ca f8 bc b6 c0 fb 3d 78 27 0c 3e 7e 4e a4 3e
       -0.030370062 0.12292616 0.13686931 0.32091135
000130 a4 4b fb bb 38 c2 2b 3e aa 4e d1 bd b8 e8 2f be
       -0.007668929 0.16773307 -0.10220082 -0.17178619
000140 57 1f 0d be 2b 60 3f 3e e5 b3 0f be 07 97 24 be
       -0.13781486 0.18689029 -0.14033468 -0.16073237
000150 58 35 39 be 46 53 4a 3e 15 bb 41 bd 9d f8 6b 3e
       -0.18086755 0.19758329 -0.047297556 0.23044057
000160 ed 4e ef 3c 3e 0c 12 3e 20 9c 24 3e 12 2d bd 3c
       0.02921244 0.14262483 0.16075182 0.02309278
000170 42 ca 0e be b4 41 0c be f6 42 c2 3c 04 50 d5 bd
       -0.13944343 -0.13696939 0.02371357 -0.104156524
000180 8e bc 18 bd 87 6b 26 3d 58 d1 76 bc 21 1b 8e 3d
       -0.037289195 0.04062989 -0.01506456 0.06938768
000190 66 fd 7e 3d fd a3 4a be 84 b9 17 3e d8 72 92 bd
       0.06225338 -0.19789119 0.14816862 -0.07150811
0001a0 75 e2 fe 3d 48 21 75 3c 8b ff 96 3e 7f ee 3f bb
       0.12445537 0.014961548 0.2949184 -0.0029286442
0001b0 96 0c 81 bd c6 80 b0 3d 47 7b 67 be 7f 49 29 3e
       -0.06301229 0.086183116 -0.2260562 0.16531943
0001c0 a0 dd de bc 01 fc 4a be 14 8a 08 be 7e db 85 3d
       -0.027205288 -0.19822694 -0.13333923 0.065360054
0001d0 f0 ab 65 3c e9 b9 4d be 22 92 31 be 00 3d d4 3a
       0.014018044 -0.2009045 -0.17340901 0.0016192496
0001e0 d5 e0 40 be 48 4f a0 3c db a4 19 3e c1 09 ed bd
       -0.18835767 0.019569054 0.15004294 -0.11574126
0001f0 58 99 fd bd d6 ba 94 3d 94 b6 0b 3e e7 4b 5c be
       -0.123827636 0.072621986 0.13643867 -0.2151333
000200 ce b6 a5 bd 40 7b 8d bc 85 41 ab bc 03 c1 44 3e
       -0.08091508 -0.017270684 -0.020905266 0.19214253
000210 5d cb d6 bd c0 1d 50 3e c0 06 3d 3e 69 93 d8 bd
       -0.10488007 0.20323849 0.18459606 -0.10574991
000220 05 2e 0c 3e 3b 02 e0 3b 2d 9e 71 3e 37 d4 17 3e
       0.1368943 0.0068362034 0.23595496 0.14827047
000230 79 e2 ba bd 28 d1 45 bd a5 67 17 3c 97 f8 70 3e
       -0.091252275 -0.04829517 0.009241019 0.2353233
000240 08 58 39 3e 6d 14 7e be c4 d0 0f be 0d 9e b9 3c
       0.18099988 -0.2481248 -0.14044482 0.022658372
000250 f6 a5 8b bc a7 ed 28 3d 02 cb 0c be f7 c9 09 3e
       -0.01704691 0.041242268 -0.13749316 0.1345595
000260 4f cf 60 be 3e 86 82 3e 55 92 7a be f2 40 7e 3d
       -0.21954082 0.25493044 -0.24469884 0.062073655
000270 d8 66 09 be 84 7a f8 3d 70 98 60 bd 7d 2e 66 bd
       -0.13418138 0.12132743 -0.054832876 -0.05619668
000280 19 8d ca 3c 87 45 14 be 8f 97 d1 bb 21 05 18 be
       0.024725484 -0.14479648 -0.006396241 -0.14845707
000290 c2 7e 2a 3e 2f f9 77 3e 66 39 38 be 32 6f ec bb
       0.16649917 0.2421615 -0.17990646 -0.007215404
0002a0 67 dc 2a 3e 72 76 13 3e 3a c4 73 be e9 5d b5 bc
       0.1668564 0.14400652 -0.23805323 -0.022139506
0002b0 be 43 3c be 04 fb 48 3e 49 21 3a be f4 3d db 3d
       -0.18385217 0.19627005 -0.1817676 0.10705176
0002c0 e4 9a cb bd ed c7 b2 bd b4 df b1 be 9d a6 06 3e
       -0.099416524 -0.08729539 -0.34740984 0.13149495
0002d0 fd f4 cd 3d 41 83 e8 3d b7 ed 81 bd 9f 02 2b 3e
       0.100564934 0.1135316 -0.06344169 0.16700219
0002e0 06 df 35 3e 7b 74 02 3e ac 4c e9 3d 07 f6 17 be
       0.17760858 0.12739746 0.11391577 -0.14839946
0002f0 46 be 8c bd 22 44 4d 3d 69 bd e1 bd a0 38 63 3e
       -0.06872229 0.050113805 -0.11022455 0.2218957
000300 45 ee 6f be 3c 92 e0 3d 77 d1 49 bd a9 b1 25 bd
       -0.23430736 0.10965392 -0.049272027 -0.040452633
000310 ab fb e3 bd 21 7a 12 3e e2 13 51 be 57 10 34 be
       -0.11131986 0.14304401 -0.20417741 -0.17584358
000320 7a 92 80 3e 7b 39 78 bd 15 a9 95 3c 35 3e 47 3e
       0.25111753 -0.060601693 0.018269101 0.19457324
000330 bc 12 fe 3e 65 ac 9b 3d 32 58 e2 bd 4a 97 24 3d
       0.49623668 0.07601241 -0.11051978 0.040183343
000340 5b 39 b0 bd 37 99 ea 3d bd ba 82 be 6f 60 16 be
       -0.0860469 0.11455005 -0.25533095 -0.14685224
000350 97 0a 62 3e c1 a4 10 be 12 f3 b4 bd b3 c2 46 3d
       0.22074352 -0.14125349 -0.088354245 0.048525523
000360 7e 62 ba 3d 95 71 63 be 11 a6 2c 3e 6d 41 ab bd
       0.09100817 -0.22211297 0.16860224 -0.08362088
000370 26 07 ee bb ac 24 bd 3d 34 09 c4 bd 30 0a a7 3c
       -0.0072640358 0.0923551 -0.09572068 0.0203906
000380 9a b6 a5 bd f9 17 4a be 5e ce 24 3d bf d5 ee 3c
       -0.08091469 -0.19735707 0.04023587 0.029154656
000390 b4 ad 66 3e ed 32 7e be 0d 62 c9 bc 97 dc 6f 3e
       0.225272 -0.24824114 -0.024582887 0.23423992
0003a0 47 f1 2a 3d eb 1e 67 bd 34 12 aa 3d 30 f5 27 3e
       0.041734006 -0.05642597 0.08304253 0.16402125
0003b0 59 fb 50 3e 1f 95 2a be 9f 89 72 bd 4f 85 66 3e
       0.20408382 -0.16658448 -0.059213277 0.2251179
0003c0 11 a7 6c b6 6f 78 20 be 68 fc f2 bd fa 92 92 3d
       -3.5263986e-06 -0.15670942 -0.11864549 0.0715694
0003d0 ec e4 71 bd d7 1d 23 3e 6e d6 ea bd e1 86 14 3e
       -0.059056208 0.15929352 -0.114666805 0.14504577
0003e0 09 4e 49 3e 9e e4 1a 3c 28 ed 5b 3c 81 f5 81 be
       0.19658674 0.009453921 0.013423242 -0.25382617
0003f0 87 fd ea bb d9 4f 8e bb 4b 32 9c bc 66 e3 ae bd
       -0.007171336 -0.0043430147 -0.01906695 -0.085394666

model.encoder.node_encoder.0.2.bias f4 [18]
000000 a8 4a de bd 3c d5 b4 bd 37 3c a7 3d 59 26 b1 3d
       -0.10854083 -0.08829734 0.08165782 0.08649892
000010 63 7a 73 3d 39 47 c7 3d 62 12 ba bd 06 7b 15 be
       0.05944289 0.097303815 -0.090855375 -0.14597711
000020 d4 da 28 bd 0d c4 4e bd e1 b2 ee bc fc 30 0f be
       -0.041224316 -0.050479937 -0.02913803 -0.1398353
000030 b0 16 5b 3d da ca 1d be c4 8a 95 bd 87 6a 8e 3d
       0.053488433 -0.15409413 -0.07301858 0.06953912
000040 ab 0a 67 be 12 62 1f 3e
       -0.22562663 0.15564755

model.encoder.node_encoder.0.4.weight f4 [18, 18]
000000 41 72 f9 bd cc 62 e8 bb dc 82 4f 3e d5 b7 5c 3e
       -0.12179995 -0.0070918556 0.20264763 0.21554501
000010 e1 5e c2 bd 7d ff 2f be 88 98 24 be bf f2 48 be
       -0.09490753 -0.17187305 -0.16073811 -0.1962385
000020 ea fb 9f 3d 43 48 2e be f3 d8 16 3e 9a 67 c7 3c
       0.07811721 -0.17019753 0.14731197 0.024341393
000030 5a 09 ec 3d 87 59 6a 3e a6 de f8 3b bf 22 61 3e
       0.11525221 0.22885714 0.007594901 0.21985911
000040 58 d5 09 be 98 05 45 3d 91 38 ae 3d b0 ca 13 3d
       -0.1346029 0.048101038 0.08506883 0.03608197
000050 a9 48 4b 3e d9 5d b0 bd e3 6c 14 be e4 48 ef 3d
       0.19851936 -0.0861165 -0.14494662 0.11683825
000060 ea 69 e7 3d 39 d6 02 bc 20 9b 37 3e e5 ec 02 bd
       0.112994984 -0.007985645 0.17930269 -0.0319642
000070 4c 52 4a be 3e 51 88 3d 1d ac 68 3d 5a f4 1c 3d
       -0.19757956 0.06656121 0.056804765 0.03831897
000080 8c 97 a1 bd 7f df 9e 3d 96 7a b7 bd 14 a0 7c bd
       -0.078902334 0.07757472 -0.08958928 -0.0616761
000090 0b 3f 00 3e 65 23 42 bd be d4 b2 bc 45 4a 39 3e
       0.12524049 -0.047397036 -0.021829959 0.18094738
0000a0 9a 3a 90 3d ea 97 1d 3e d9 52 1c be 7d 84 41 bd
       0.07042427 0.15389982 -0.15265979 -0.04724549
0000b0 82 5c 8c 3e ac 65 c2 bd 04 ed 2c bd aa ef 3c 3e
       0.27414328 -0.094920486 -0.042218223 0.184508
0000c0 64 83 4b 3e cb 52 80 be 6d ba e4 3d 1b 7b da 3d
       0.1987434 -0.25063166 0.111683704 0.10668012
0000d0 20 c2 32 be d5 bf ee 3d 58 2d 9a 3d 1f d4 5b 3e
       -0.17456865 0.11657683 0.0752818 0.21467637
0000e0 4c 7e 74 3c a5 39 74 3e cd 26 63 3e 2e 07 27 be
       0.01492269 0.23850115 0.2218277 -0.16311333
0000f0 ca a5 59 be 6b 54 38 bd 57 17 e2 bd cc 4a 56 3e
       -0.2125465 -0.045002382 -0.11039608 0.2092697
000100 ab 3d 17 3e b1 9b 43 be a9 30 5b 3e d4 cb 8c 3c
       0.14769618 -0.1910236 0.21405281 0.017187037
000110 63 46 1c be 29 f5 2a bc 26 dc e7 3d 3c a0 2f 3b
       -0.15261225 -0.010434427 0.11321287 0.0026798388
000120 c5 48 61 3e 3f 16 5c 3e 55 0e 04 3e b8 90 16 bd
       0.22000416 0.21492861 0.12896092 -0.03675911
000130 a0 bd 01 bd 10 86 03 3c 84 a4 26 3d c8 98 35 be
       -0.03167498 0.008027568 0.040684238 -0.17734063
000140 55 23 68 3e 65 8f 15 be b4 53 15 be 14 e4 b1 bd
       0.22669728 -0.14605482 -0.14582711 -0.086860806
000150 87 c0 4c 3e e0 1e 23 bd b4 07 69 be 40 18 dd bc
       0.19995318 -0.039824367 -0.22756845 -0.026989102
000160 f9 0b 41 3e 4a 0e d1 3d 77 78 9b bc ca cd 87 3d
       0.18852223 0.102078035 -0.01897834 0.06631048
000170 88 9d cb 3d f6 58 0c 3e 36 ca 28 3e b8 d6 37 be
       0.09942156 0.13705811 0.16483387 -0.17953002
000180 08 94 2e bd 7f 15 c3 3d b0 87 0b 3d 2d 9d 1a 3e
       -0.042621642 0.095255844 0.03406495 0.1509902
000190 bc 0a 6a 3d 10 5b b9 bc 53 7f a9 bc e3 64 60 be
       0.057139143 -0.02262643 -0.020690596 -0.21913485
0001a0 49 8d 21 be 86 13 fa bd e0 54 3e bd cd df eb bd
       -0.15776552 -0.12210755 -0.04646766 -0.11517296
0001b0 be e8 0b 3e b8 0f 40 3e 21 b0 44 3e 0f 22 56 3e
       0.13663003 0.18755996 0.19207813 0.2091143
0001c0 f1 de d6 bc 5b cc 49 3e 4e 63 28 be d3 93 87 3d
       -0.026229354 0.19706862 -0.16444132 0.06619992
0001d0 15 1d 69 be 38 0b b6 3d fa a2 3f be 70 b3 08 be
       -0.22765 0.088888586 -0.18714514 -0.133497
0001e0 90 03 15 be db 1d c2 bd 9a 22 bd 3d c7 11 80 bd
       -0.1455214 -0.09478351 0.09235115 -0.06253391
0001f0 da 6d 89 3d c2 01 78 be a4 cb 30 be ad cc 24 3e
       0.06710406 -0.2421942 -0.17265183 0.16093703
000200 f1 ab 4e 3d 9a a8 4c be 42 db 2c ba ee 0d 28 3d
       0.050456945 -0.19986191 -0.0006593951 0.04102891
000210 49 30 60 be db 58 3d bd 08 2c 10 bd 37 be 4a be
       -0.2189342 -0.046227317 -0.03519824 -0.19799124
000220 29 05 5d 3e e7 9b 97 3e a7 d3 c3 bd 82 b5 88 3e
       0.21584 0.29611132 -0.09561854 0.2670098
000230 4d d1 4c bc cd f5 27 3e 55 df 09 3e a1 db 49 3e
       -0.012501073 0.1640236 0.134641 0.19712688
000240 a4 fe 28 be 5e d5 82 3c 4e 99 96 3d 2a 5d 3c be
       -0.16503388 0.015970882 0.07353459 -0.18394914
000250 03 b9 89 be d3 52 9c 3d 34 37 67 3d 35 6d 1c 3d
       -0.26898965 0.07632985 0.05644913 0.038190085
000260 6f f3 88 bd fc 63 4e bd 75 e5 5c 3e 23 ab 19 be
       -0.06687056 -0.05038832 0.21571906 -0.1500669
000270 7c 9e e0 3d 46 15 28 bd 36 76 f3 3d 24 b6 15 3e
       0.109677285 -0.041035913 0.11887781 0.14620262
000280 ce 73 f1 3d 1d f8 4f 3b ec f7 55 3e 1e bb 35 be
       0.11789666 0.003173358 0.20895356 -0.17747161
000290 f7 60 e4 3d 5a 38 2a 3c 0b 59 bc 3d 8c dd 29 3e
       0.11151307 0.010389412 0.09196671 0.1658842
0002a0 16 35 f4 3d 18 f9 85 3e cc a2 59 bc 42 77 50 3d
       0.11924188 0.26166606 -0.013283443 0.050894983
0002b0 ae ca 1e 3e 9e 75 53 be 8b fa e7 bd 73 b9 ad bd
       0.15507004 -0.20650336 -0.11327084 -0.08482637
0002c0 34 f7 82 3e 90 8e b3 3d b3 2d 3b 3e 7d 6c a0 bd
       0.25579226 0.08767426 0.18279152 -0.078331925
0002d0 b5 d5 bb bc 30 96 05 bd 54 0c 8d bd 1d 1f 12 3e
       -0.022929052 -0.032613933 -0.06887117 0.14269681
0002e0 72 2d 9f bc 88 0a 90 bd 08 05 3f bd 12 7a 48 be
       -0.01943085 -0.07033259 -0.046635658 -0.19577816
0002f0 b5 68 90 3d c8 69 81 bd 92 67 60 bb 08 cd 93 bd
       0.07051221 -0.06319004 -0.003424142 -0.07216841
000300 34 6b 8c bd 69 43 f4 3c 3e e6 93 3b 7a b3 57 3e
       -0.06856385 0.0298173 0.004513531 0.21064559
000310 f4 84 44 3d e7 c9 56 3e e0 4a e5 bd 34 28 2d 3e
       0.047978356 0.20975457 -0.11195922 0.16909868
000320 ed 76 22 be 13 ef 11 be 79 6c bb 3d e7 5c 7d be
       -0.15865679 -0.14251356 0.09151549 -0.2474247
000330 a8 72 a2 3c 77 43 29 3d d0 bf e0 ba ef d4 e0 bd
       0.019830063 0.041324105 -0.0017147008 -0.10978114
000340 11 51 b7 3d 46 36 44 be a3 04 5b 3c 0e cd ac bd
       0.08951009 -0.19161329 0.013367805 -0.084375486
000350 95 7a 37 3d af 8f 15 be fa 61 83 bd c1 45 03 be
       0.044794638 -0.14605592 -0.06415172 -0.12819578
000360 d0 df 0c bd 15 c8 39 be 48 00 07 3e e8 88 93 bd
       -0.03439313 -0.18142731 0.13183701 -0.07203847
000370 b4 e4 5b 3c c4 31 49 3e f4 65 d8 bd 22 83 4f 3e
       0.013421226 0.1964789 -0.10566321 0.20264867
000380 a8 ff 62 bc a2 d4 cf 3c ae 95 04 3c bf aa 08 be
       -0.0138548985 0.025369946 0.008092327 -0.13346384
000390 2c 66 29 3e 07 7f a5 3d f9 29 fe 3d be 3d 21 be
       0.16542882 0.08080869 0.124103494 -0.15746209
0003a0 7a 65 e1 3d 43 0f c7 3d fa 4e 23 be 69 03 09 3e
       0.11005683 0.09719708 -0.15948096 0.13380207
0003b0 3c d8 c9 3d ea dc 05 3e 75 84 fe 3d c0 84 8f bd
       0.098556966 0.13072553 0.12427608 -0.07007742
0003c0 e8 53 a1 3c 8b b5 7f 3d c6 31 a6 be 49 0e ce 3c
       0.01969333 0.062428992 -0.3245985 0.025153296
0003d0 ed 5e c5 3d 70 80 5b 3d 21 dc 39 be 9e 9f d5 bd
       0.09637246 0.053589284 -0.18150379 -0.10430835
0003e0 62 4b 3d 3e 61 ee 6e be 59 d9 6c 3e c1 17 10 bd
       0.18485788 -0.23333122 0.23129787 -0.035178903
0003f0 13 dc 21 3c f3 f1 93 bd 3b 43 eb 3c a3 1b 47 be
       0.00987913 -0.072238825 0.028718581 -0.19444136

model.encoder.node_encoder.0.4.bias f4 [18]
000000 85 eb f4 3d df 57 61 be 77 75 07 3e a7 ad 3a be
       0.11958984 -0.22006176 0.13228403 -0.18230306
000010 62 69 67 be ff ca 6a be 79 ed 62 3e 1f 43 e7 bd
       -0.22598794 -0.22929 0.22160901 -0.11292099
000020 50 00 41 be 51 ce f0 bd 63 1c 2b bd 59 f4 33 3e
       -0.18847775 -0.11758102 -0.04177512 0.1757368
000030 30 5f 00 be f4 a4 bb 3d 23 58 0e bd f0 f9 df bd
       -0.12536311 0.09162322 -0.034752022 -0.10936344
000040 79 f5 a9 bd 10 e9 07 3c
       -0.08298773 0.0082953125

model.encoder.node_encoder.0.6.weight f4 [18, 18]
000000 2b c9 47 3e fd 94 52 3e 13 69 85 bd a8 19 17 3e
       0.19510333 0.20564647 -0.06514182 0.14755881
000010 47 5d 5c 3e 6f 2b 86 bd 1e 0c 1a be 87 ff 7d bd
       0.21519957 -0.06551253 -0.15043685 -0.062011268
000020 b5 20 4b 3e f7 91 39 be e1 f4 b9 bd 57 39 52 be
       0.19836695 -0.18122087 -0.0907991 -0.20529686
000030 da a9 17 bd a6 54 b9 bd b7 98 9b bc 26 0b ed 3d
       -0.037027217 -0.090493485 -0.018993719 0.11574392
000040 e4 ad ec 3e da 15 92 3c c9 a1 01 3d 02 fa 46 be
       0.46226418 0.017832685 0.03164843 -0.19431308
000050 e9 12 28 3e 4a 77 12 be 4a 09 b2 3d b1 fe 97 bc
       0.16413464 -0.14303318 0.08693178 -0.018554064
000060 1e 4d 55 be b7 f5 89 be b5 f5 d4 3d b4 0e 2c be
       -0.20830199 -0.26945278 0.103984274 -0.16802484
000070 b4 c9 8d bd 94 93 58 be ea 5b 9e 3d 82 49 4a 3e
       -0.069232374 -0.21150047 0.07732375 0.19754604
000080 74 13 e5 3d ac a5 33 bd 35 44 ae bd 4c 67 54 be
       0.11185351 -0.04385917 -0.08509103 -0.2074253
000090 d9 d5 cb bd 6a 30 e9 bb 9a 5a 82 bd eb 21 93 be
       -0.099528976 -0.007116367 -0.06364937 -0.28736815
0000a0 c8 a2 91 3c 34 eb 65 be 0b 1a 06 bd 50 2c ee bd
       0.017777815 -0.22453004 -0.03273968 -0.11629546
0000b0 8a ad ce 3d bc 08 82 3d 3f 1d 53 3e 7e 49 26 3e
       0.10091694 0.06349322 0.20616625 0.16238973
0000c0 fe 2a 74 3d 38 8a d2 bd e8 89 a4 3d 4e 50 3d be
       0.059611313 -0.102802694 0.08034116 -0.18487665
0000d0 db c7 97 be 1c 7a 01 3e c3 1a df bd b3 7a eb 3a
       -0.29644665 0.12644237 -0.10893776 0.0017965644
0000e0 53 69 ea 3b 8e 65 78 bd ce eb e9 3d 6f 72 34 be
       0.007153669 -0.060643725 0.11421929 -0.17621778
0000f0 93 23 21 3d 0c 9a 37 3c 6b 2f ba b9 09 de 52 be
       0.039340567 0.011206161 -0.00035512014 -0.20592512
000100 81 40 2b 3e 2a 9e 00 3e ec e1 ff 3c 42 ea 5f 3e
       0.16723825 0.12560335 0.031235658 0.21866706
000110 d9 78 43 3e 0b 0b 2e 3e d2 e0 0f be 27 ea 6c bc
       0.19089068 0.169964 -0.14050606 -0.014460123
000120 d2 d3 51 3e 7c 22 1c 3e f6 00 76 bb 35 74 ba bd
       0.2049096 0.1524753 -0.0037537194 -0.09104196
000130 d2 53 be 3d 16 ca ed 3d fe be 29 be ad a1 5f be
       0.09293331 0.116108105 -0.16576764 -0.21839018
000140 e0 c3 69 be 72 d1 f6 bd de 4d 3a 3d f1 10 58 be
       -0.22828627 -0.12051667 0.045484416 -0.21100213
000150 9d 56 3b 3d ac 67 03 be 51 f3 ce 3d 80 7b 95 bc
       0.045736898 -0.12832516 0.10105003 -0.018247366
000160 c4 d4 39 be 81 db 3b bd 22 30 01 be e8 ab 36 3e
       -0.1814757 -0.045863632 -0.12616017 0.17839015
000170 f0 d6 25 3e c9 92 da bd 47 a0 5f 3e c2 c7 be bd
       0.16195273 -0.10672528 0.21838485 -0.093154445
000180 dc b2 27 3e a5 2b db bd 44 b1 43 be e1 eb 03 3e
       0.16376823 -0.10701684 -0.1911059 0.1288295
000190 63 d7 0a 3e 66 09 1f be 56 32 2a be 93 94 53 bd
       0.13558726 -0.15530929 -0.16620764 -0.051655363
0001a0 a3 41 5d 3e 12 52 ba 3d bd bb 0a 3e 51 88 6e bc
       0.2160707 0.09097685 0.13548179 -0.014558868
0001b0 68 59 01 bd e9 34 b4 3c a8 fd 30 3c c3 7b a4 3c
       -0.031579405 0.021997886 0.010802664 0.020078545
0001c0 c9 96 40 be 71 4d 17 3e 0b 9e b5 bd 1a ec 2b 3e
       -0.1880752 0.14775635 -0.08868035 0.16789284
0001d0 8d 87 dc 3d a1 7b 8e bd 4f d7 64 be d2 af 3c 3d
       0.10768042 -0.06957174 -0.22347759 0.046066113
0001e0 a3 5c 66 bc 39 02 82 bd ad c4 1e 3d ac 94 4b 3d
       -0.014060172 -0.0634808 0.038761783 0.04970233
0001f0 20 82 a1 3c 16 61 2c be 6d 2f 4b bd a0 08 ed 3c
       0.019715369 -0.1683391 -0.049605776 0.028934777
000200 7a 34 73 3d 28 96 d1 3e 7f c9 3f 3e 9a f3 4c be
       0.059376217 0.40934873 0.18729208 -0.20014802
000210 7a ea 15 bd 3a f5 79 be 22 59 25 3e c9 04 30 3e
       -0.036600567 -0.24409953 0.16147283 0.17189325
000220 89 34 0a bd 0a 2b c6 3d 5d 5b 33 3e 59 46 5f 3e
       -0.033741508 0.09676178 0.17515321 0.21804179
000230 74 ea cc bd 02 52 ea 3d 5c 49 f3 3d 0f 0f 2c 3e
       -0.10005656 0.11441423 0.118792266 0.1680262
000240 40 14 30 3e 53 20 21 3d 14 9f f8 3c 93 0a 7e 3c
       0.17195225 0.039337467 0.030349292 0.015505451
000250 20 1c db bc ba b7 2a be 42 58 07 3d ca d5 66 3e
       -0.02674681 -0.16671649 0.033043154 0.22542492
000260 97 3e af 3d fb 38 06 bc bf f8 0f bd db 37 3d be
       0.0855686 -0.008192296 -0.035149332 -0.18478338
000270 0b 8a 38 be 82 cb 6b 3e 6f f3 20 be a3 9b 6a 3e
       -0.18021409 0.23026851 -0.15717863 0.22910933
000280 4f a2 45 be 32 5e 49 be ce fe 52 be e1 df 40 3e
       -0.19300197 -0.19664839 -0.20605013 0.18835403
000290 d0 2a ad 3d 46 a9 f0 3d bb 6f 6e 3e b8 44 02 be
       0.084554315 0.11751036 0.2328481 -0.12721527
0002a0 5b 53 60 3e 5d 57 55 3e d7 cf 4f 3e 6a 51 94 3d
       0.21906798 0.20834108 0.20294128 0.07242091
0002b0 15 cc d3 3d f2 b2 06 be c0 29 df 3c 0a 24 2a 3e
       0.1034166 -0.131542 0.027241588 0.1661531
0002c0 02 52 b2 bd f7 0b 44 be 95 6a 9f 3d 50 cf 39 3e
       -0.08707048 -0.19145189 0.07784001 0.1814549
0002d0 a4 7e d2 bd a1 b8 04 be 9d 89 61 be 2c 36 71 bb
       -0.10278061 -0.12961055 -0.22025152 -0.003680597
0002e0 69 65 0e 3e 23 a0 54 be e8 a0 08 3e 0f 30 7f 3e
       0.13905872 -0.20764212 0.13342631 0.24920677
0002f0 0b f6 9e bd 9a 58 1a 3d 0c b5 55 bd 18 fe 10 bd
       -0.07761773 0.037682153 -0.052174613 -0.035398573
000300 27 89 3d be 23 c7 2e be f6 1e f9 bd f4 32 61 be
       -0.1850935 -0.17068152 -0.121641085 -0.21992093
000310 49 33 94 3e d6 cc 18 3e 05 19 d6 bd 6c 2e 68 be
       0.28945377 0.14921889 -0.10453991 -0.22673959
000320 e4 11 fb 3d a5 c6 95 bd 4c d5 f3 bd a8 34 68 3e
       0.12259272 -0.07313279 -0.119059175 0.22676337
000330 7b c8 c9 3d 86 f8 22 be cf 0c 98 be e0 bb 47 3e
       0.09852692 -0.15915117 -0.29697272 0.19505262
000340 65 c1 2c 3e 9d 65 03 be cf c1 63 3d f1 a6 97 3c
       0.16870649 -0.12831731 0.055604752 0.018512221
000350 bf cc b5 bd 75 8f 4a 3e 3b 86 67 bd 0e 77 2e 3e
       -0.08876943 0.19781287 -0.056524497 0.17037603
000360 ad 6b 0f bd 66 96 ff 3d 61 8f 61 3c bc 53 c3 3d
       -0.035014797 0.12479858 0.013767094 0.095374554
000370 c8 15 8d 3c bf fd 3a 3d 6c 43 3f be b8 70 b8 bd
       0.0172223 0.045652147 -0.18678063 -0.090058744
000380 a2 99 24 3e c5 7f 68 3d 6c 2e 3f 3e 11 17 90 3d
       0.16074231 0.056762476 0.18670052 0.070356496
000390 d0 74 4a 3e 7a 0e b1 bd 69 74 97 bc c5 70 1e 3e
       0.19771123 -0.08645339 -0.018488126 0.15472706
0003a0 c0 b7 09 be 34 5d 35 3e 63 1a a7 bd 6d b5 a2 bd
       -0.13449001 0.17711335 -0.0815933 -0.079447605
0003b0 60 fa 25 3d af d5 b0 3d c2 d0 62 be a1 f3 49 3e
       0.04052198 0.08634507 -0.22149947 0.19721843
0003c0 61 29 69 3e 27 61 d6 3d 7c 9f 32 3e d1 3c 76 3d
       0.22769691 0.10467749 0.17443651 0.060116593
0003d0 75 b1 a2 3d 61 d1 e9 bd d0 91 bd 3d e3 a7 31 be
       0.079440035 -0.11416889 0.09256327 -0.173492
0003e0 1b f9 51 3d 7b f7 17 3e ed ee 3f bd 14 7c 48 3e
       0.051262956 0.148405 -0.046858717 0.19578582
0003f0 70 17 0a 3e 5b d3 e4 bd f6 f7 f1 3d 42 86 e0 3d
       0.13485503 -0.11173125 0.11814873 0.10963108
