model_collection/best24-200.pth (torch, 138364 bytes, 92 tensors)

model.encoder.edge_encoder.0.0.weight f4 [24, 1]
0	0xbe1c5d08	-0.15269864
1	0x3f1fc406	0.62408483
2	0x3dc218e0	0.09477401
3	0xbee9b5e8	-0.45646596
4	0xbecae2ac	-0.39626062
5	0xbe2c3f71	-0.16821076
6	0xbf3f6cb8	-0.74775267
7	0xbf301160	-0.6877651
8	0x3f7ae9a0	0.98012733
9	0xbf47ab38	-0.77995634
10	0xbc8eda00	-0.017437935
11	0xbc31ae80	-0.010844827
12	0xbd89f210	-0.06735623
13	0xbd8bbee0	-0.06823516
14	0x3eec9284	0.46205533
15	0xbf536564	-0.82576585
16	0xbdb743f0	-0.08948505
17	0x3f3340bb	0.70020646
18	0x3f1fe6ac	0.6246135
19	0x3e206b78	0.15665996
20	0xbe85f1e8	-0.26161122
21	0x3d09536c	0.033526823
22	0xbf104072	-0.56348336
23	0x3e35aec0	0.17742443

model.encoder.edge_encoder.0.0.bias f4 [24]
0	0xbe2c2ae8	-0.16813242
1	0xbe949929	-0.29023102
2	0x3e2ac427	0.16676389
3	0xbf5a1b78	-0.85198164
4	0xbf18f9e8	-0.59756327
5	0x3f2fe940	0.68715286
6	0x3e1ab4e8	0.15108073
7	0xbea6da6c	-0.32588518
8	0x3ed8e5e7	0.42362902
9	0xbdb5c690	-0.088757634
10	0xbc46e980	-0.012140632
11	0xbf2860da	-0.65772784
12	0xbf6c1010	-0.9221201
13	0xbeb183d0	-0.34670877
14	0xbe0c65c1	-0.13710691
15	0xbf1587ee	-0.5841054
16	0xbf527dee	-0.82223403
17	0x3ef8b90a	0.48578674
18	0xbe788663	-0.24270014
19	0xbd846a9f	-0.06465649
20	0xbf50233c	-0.81303763
21	0x3dc85374	0.097815424
22	0xbf7e99f6	-0.99453676
23	0xbf7dbbf2	-0.99114907

model.encoder.edge_encoder.0.2.weight f4 [24, 24]
0	0xbde771e8	-0.11301023
1	0x3dc3ad60	0.09554553
2	0xbc8bad98	-0.01705055
3	0x3e042720	0.1290555
4	0xbe18a885	-0.14908035
5	0xbd8c60c8	-0.06854397
6	0x3dfa4ec4	0.122220546
7	0xbe2e83ec	-0.17042512
8	0xbe310909	-0.17288603
9	0x3df874b0	0.121316314
10	0xbe47aab1	-0.19498707
11	0x3d9bb020	0.076019526
12	0x3d80b524	0.0628455
13	0xbe0c5647	-0.13704787
14	0xbe2fb9c9	-0.17160715
15	0xbd9a3da2	-0.07531287
16	0xbe3ee188	-0.18640721
17	0xbe2d139a	-0.16902009
18	0xbe0809c2	-0.13284972
19	0xbe1af070	-0.15130782
20	0x3e065dec	0.13121766
21	0xbda5ad87	-0.08089738
22	0x3d48d638	0.04903242
23	0xbdb4b477	-0.088234834
24	0x3d8e3e5c	0.06945488
25	0xbdd4a102	-0.10382272
26	0xbd966c92	-0.07344927
27	0x3c4e15f0	0.0125784725
28	0x3ddd4848	0.10804802
29	0x3d4ea478	0.05044982
30	0xbe1c3d0d	-0.15257664
31	0x3db0f89c	0.086411685
32	0xbd129980	-0.03579092
33	0xbd2ad270	-0.041704595
34	0xbdb4e350	-0.08832419
35	0x3dcda32c	0.10040888
36	0xbe2c2ae7	-0.16813241
37	0x3d93311c	0.07187101
38	0xbcad03b8	-0.021119937
39	0xbda3fac2	-0.08006813
40	0xbdafc73f	-0.08582925
41	0xbd439688	-0.04775098
42	0xbd1b6a74	-0.03794332
43	0x3d644180	0.05572653
44	0xbd335704	-0.043784156
45	0xbdb79e69	-0.08965761
46	0x3d9aea54	0.07564226
47	0xbb77a200	-0.0037785769
48	0xbcd52718	-0.026019618
49	0x3c2f9b10	0.010718122
50	0x3dfc8f88	0.12332064
51	0x3d8ea998	0.06965941
52	0xbe479cce	-0.1949341
53	0xbe20e11f	-0.15710877
54	0xbe46b2c7	-0.19404136
55	0xbe445047	-0.19171248
56	0xbe2b211d	-0.1671185
57	0xbe2866eb	-0.1644551
58	0x3e2bf0a8	0.16791022
59	0x3d851c44	0.06499532
60	0xbdc186b1	-0.094495185
61	0x3d06e750	0.03293544
62	0x3e3b3f8a	0.18285957
63	0xbd3143e4	-0.043277636
64	0xbde93268	-0.11386567
65	0xbdda3ade	-0.10655759
66	0xbd4af9f4	-0.04955478
67	0xbd916d40	-0.07100916
68	0xbd318170	-0.04333633
69	0xbe101a6e	-0.14072582
70	0x3d428a58	0.047495216
71	0x3e0c3dfc	0.1369552
72	0xbd944c6e	-0.0724114
73	0xbe048e51	-0.12944914
74	0xbe2703cb	-0.1631004
75	0xbd4c55ac	-0.04988639
76	0x3da6ca9c	0.081441134
77	0xbbaf4d56	-0.0053497953
78	0xbdc905ff	-0.09815597
79	0xbd1f575c	-0.03890167
80	0x3d64d475	0.055866677
81	0x3e057408	0.13032544
82	0x3b350800	0.0027623177
83	0xbd3c2aa4	-0.045939103
84	0xbe43e2c7	-0.19129477
85	0xbe362cf9	-0.17790593
86	0xbd33a924	-0.043862477
87	0x3e0ab9b8	0.13547409
88	0xbda1c31e	-0.07898544
89	0x3cd906be	0.026492473
90	0xbdcb8823	-0.099380754
91	0x3e1e454d	0.15456124
92	0x3ce7b418	0.028284118
93	0x3d22f5df	0.039785262
94	0xbcce0f18	-0.025153682
95	0x3c9da558	0.019243881
96	0xbd973360	-0.07382846
97	0x3d8261f0	0.06366336
98	0xbd88add2	-0.066737786
99	0x3e0fa020	0.14025927
100	0xbe0b07a8	-0.1357714
101	0x3d402874	0.04691358
102	0x3a8e6080	0.00108625
103	0xbccdb088	-0.02510859
104	0x3e168fe3	0.14703326
105	0x3c2f9190	0.010715857
106	0x3d7c30a0	0.06156981
107	0x3d1ff75c	0.03905426
108	0xbe4bfc4e	-0.19920465
109	0xbe145468	-0.14485323
110	0x3e3f0bbf	0.18656825
111	0x3de583f4	0.11206809
112	0xbdaa1717	-0.08305185
113	0x3e40cc36	0.188279
114	0x3e55b8de	0.20871302
115	0x3e01d12e	0.12677452
116	0xbe042ac0	-0.12906933
117	0x3df7a21c	0.12091467
118	0x3e30674a	0.17226902
119	0xbdb4e8ac	-0.08833441
120	0x3c1ac030	0.009445235
121	0xbe31b044	-0.17352396
122	0x3c9dbaff	0.019254206
123	0xbe4bcc25	-0.19902094
124	0x3e260676	0.16213402
125	0x3d1e69c5	0.03867509
126	0xbe393ab9	-0.18088807
127	0xbda5adcf	-0.08089792
128	0x3e2e76bb	0.1703748
129	0x3d4754b8	0.04866478
130	0xbd30548c	-0.04304938
131	0xbe4aef3b	-0.19817822
132	0x3e4e1ad6	0.20127425
133	0x3deba174	0.11505404
134	0xbd584d0a	-0.052807845
135	0xbe42f31c	-0.19038051
136	0x3c775c00	0.015097618
137	0x3e2461e3	0.16052966
138	0x3c186226	0.009300744
139	0x3cb186ab	0.02167066
140	0xbe351985	-0.17685516
141	0xbdf6bde3	-0.12047937
142	0xbd3b46bc	-0.045721754
143	0xbd97e974	-0.074175745
144	0xbe26923a	-0.16266719
145	0xbc459d80	-0.012061477
146	0xbe1f9650	-0.15584683
147	0x3e1adea6	0.15123996
148	0x3e39ed06	0.18156824
149	0xbd5bdd4c	-0.053677842
150	0x3ba56120	0.0050469786
151	0xbe1d0535	-0.15334018
152	0xbcf43458	-0.029810116
153	0xbd2d3f74	-0.04229684
154	0xbdbdc664	-0.09266356
155	0xbe315090	-0.17315888
156	0x3cd45928	0.02592142
157	0xbe296957	-0.1654409
158	0x3d73df30	0.05953902
159	0xbdf01cd6	-0.1172425
160	0x3e0c6c46	0.13713178
161	0xbceae1a0	-0.02867204
162	0x3bc1a9a0	0.0059101135
163	0xbda9aa5b	-0.08284446
164	0xbde3a1cc	-0.11114845
165	0x3dbf0b10	0.09328282
166	0xbe160a28	-0.14652312
167	0xbdb73d43	-0.089472316
168	0xbe1611a4	-0.14655167
169	0xbda1f030	-0.0790714
170	0xbe0cf30a	-0.13764587
171	0x3d824ee0	0.063627005
172	0x3cc75780	0.024333715
173	0x3e157b9e	0.14597937
174	0xbe34c822	-0.1765447
175	0x3d0c22d8	0.034212917
176	0x3d548288	0.051882297
177	0x3d652140	0.055939913
178	0xbdb48b04	-0.088155776
179	0xbdc2ca17	-0.09511202
180	0xbcd43e08	-0.025908485
181	0xbdaf54c9	-0.08561093
182	0x3e3507fa	0.17678824
183	0x3c5c9360	0.013462871
184	0xbe063739	-0.13107003
185	0xbe2246d3	-0.1584733
186	0x3e42678e	0.18984815
187	0xbe44b2ac	-0.19208783
188	0x3e0ae7f2	0.13565043
189	0xbddc13e6	-0.10745983
190	0xbe269f9f	-0.16271828
191	0x3e031758	0.12801874
192	0x3d882a84	0.06648734
193	0x3dec4ff0	0.11538684
194	0x3d03d28c	0.032183215
195	0xbd25e9e8	-0.040506274
196	0xbdd373af	-0.10324799
197	0x3c0e8ec0	0.008701026
198	0x3cd5ccb8	0.026098594
199	0x3d9d98f0	0.07695186
200	0xbe1fa44c	-0.15590018
201	0xbcd14050	-0.025543362
202	0xbd086d7c	-0.033307537
203	0xbe4b5852	-0.1985791
204	0xbd9cd740	-0.07658243
205	0xbe035ef2	-0.12829188
206	0xbda8c3f0	-0.08240497
207	0x3d5d0c68	0.05396691
208	0xbdd6e7b5	-0.10493413
209	0xbd12ef3c	-0.035872683
210	0x3e212d0e	0.15739843
211	0x3e4f913a	0.20270243
212	0x3e4a048a	0.19728294
213	0x3e1526a0	0.14565516
214	0x3db36790	0.08759987
215	0xbd13ecbc	-0.03611444
216	0xbdee9f82	-0.116515175
217	0xbe119e6c	-0.1422059
218	0xbe49f72d	-0.19723196
219	0x3e0c45ec	0.13698548
220	0xbc2a5100	-0.0103952885
221	0xbd3599e8	-0.04433623
222	0x3cafdc80	0.021467447
223	0x3d020ad0	0.031748593
224	0xbe3ddb62	-0.18540719
225	0xbad17800	-0.0015981197
226	0x3dfe4c5c	0.12416908
227	0x3e18de92	0.14928654
228	0x3b647340	0.0034858733
229	0xbe48655d	-0.19569917
230	0xbe23ec63	-0.16008143
231	0xbd3c0f4c	-0.045913026
232	0xbe410ec7	-0.18853293
233	0x3d0c2b50	0.034220994
234	0xbe339d62	-0.17540506
235	0x3e3ce298	0.18445814
236	0xbdd04dad	-0.101710655
237	0x3e205094	0.15655738
238	0x3dbe0d7c	0.09279916
239	0xbd84e8e2	-0.06489731
240	0xbd8cc304	-0.06873134
241	0x3e419514	0.18904525
242	0x3cd36000	0.025802612
243	0xbda4511d	-0.08023284
244	0xbd94e0dc	-0.07269451
245	0x3d164ca4	0.036694184
246	0x3dd87104	0.10568431
247	0xbe1fab7c	-0.1559276
248	0xbc1d72b0	-0.009609863
249	0xbdbeaba2	-0.0931008
250	0x3e4a0d8e	0.19731733
251	0x3c559d10	0.013037935
252	0xbe43964a	-0.191003
253	0xbd360308	-0.044436485
254	0x3e4579d0	0.19284749
255	0x3daf98b0	0.08574045

model.encoder.edge_encoder.0.2.bias f4 [24]
0	0xbdee88da	-0.11647196
1	0xbdabd703	-0.083906196
2	0x3cc76680	0.024340868
3	0xbadc7763	-0.0016820248
4	0x3df1b0b5	0.11801282
5	0xbe50dbaf	-0.20396303
6	0xbcfb9980	-0.030712843
7	0xbda14954	-0.07875314
8	0xbd54c230	-0.051943004
9	0xbe0854d6	-0.13313612
10	0xbcc5d950	-0.024151474
11	0xbd34ab84	-0.044108883
12	0x3e4e360b	0.20137803
13	0x3e06b8e5	0.13156469
14	0xbd280621	-0.04102147
15	0x3df4bb29	0.119497605
16	0x3e386d99	0.18010558
17	0x3dad4470	0.08460319
18	0x3e19fba8	0.15037405
19	0xbe2c7b47	-0.16843902
20	0xbd7e3328	-0.062060505
21	0x3d8b7956	0.06810252
22	0x3db0b804	0.08628848
23	0x3e575981	0.21030237

model.encoder.edge_encoder.0.4.weight f4 [24, 24]
0	0x3e38cb8c	0.18046397
1	0xbbeaf440	-0.00717023
2	0xbddef6a0	-0.10886884
3	0xbe18dd18	-0.1492809
4	0x3e409bed	0.18809481
5	0xbdc18ac3	-0.09450295
6	0x3de80210	0.113285184
7	0xbdb7f0ee	-0.089815006
8	0x3e243320	0.16035128
9	0x3c238fb0	0.009982988
10	0xbd841296	-0.064488575
11	0x3e165a86	0.1468297
12	0x3e0c55c8	0.13704598
13	0x3e30a7e6	0.17251548
14	0x3d4ab126	0.04948535
15	0x3e0acf6b	0.13555686
16	0x3d624e62	0.055250533
17	0x3d0271a4	0.031846657
18	0x3d9ceaa5	0.076619424
19	0xbe162be3	-0.14665179
20	0xbc5db690	-0.013532296
21	0xbc6c80e5	-0.014435028
22	0x3e5464ee	0.20741627
23	0x3e55d97e	0.20883748
24	0xbe39210c	-0.18079013
25	0xbd115c58	-0.035488456
26	0x3e47b7ec	0.19503754
27	0x3d816dc0	0.06319761
28	0xbd63f5cc	-0.055654332
29	0x3e378fc0	0.1792593
30	0xbe1bf0ca	-0.15228572
31	0x3df2b158	0.11850232
32	0x3d0584e0	0.032597423
33	0xbe14962a	-0.14510408
34	0x3d12cbb8	0.035838813
35	0xbb775740	-0.0037741214
36	0x3d90f53c	0.07078025
37	0x3e283440	0.16426182
38	0x3e3ce8ce	0.18448183
39	0x3d02fb40	0.031977892
40	0x3e0fdbc8	0.14048684
41	0x3e2f060c	0.1709215
42	0xbe2de73c	-0.1698274
43	0xbb9ab760	-0.004721567
44	0xbc0daeb0	-0.008647606
45	0x3d48a8e8	0.048989207
46	0xbdac11bd	-0.08401821
47	0xbd5c3dec	-0.05376999
48	0xbe24dfd2	-0.16101006
49	0x3e16ddb8	0.14733016
50	0x3d4c4430	0.049869716
51	0xbe32054e	-0.17384836
52	0x3c92681e	0.017871913
53	0xbe188a82	-0.14896587
54	0xbe360f39	-0.17779244
55	0x3d17bcb4	0.037045196
56	0xbe1be5f6	-0.15224442
57	0xbdd15053	-0.10220399
58	0x3e4290a8	0.19000494
59	0xbd6d3c2c	-0.057918712
60	0x3e11f28a	0.14252678
61	0xbcc742e9	-0.024323897
62	0x3dfbc8f3	0.122941874
63	0xbe174f08	-0.14776242
64	0xbe0ba53b	-0.13637249
65	0x3c3490c0	0.011020839
66	0xbda6dfbc	-0.08148143
67	0x3cc6d1a8	0.024269894
68	0xbc0b5e70	-0.008506402
69	0xbd40896a	-0.04700605
70	0x3dc8a0c0	0.09796286
71	0xbcaf4c3c	-0.021398656
72	0xbd49b5ec	-0.04924576
73	0x3d4dc860	0.05023992
74	0xbdd5cf09	-0.104398794
75	0x3d257425	0.040393967
76	0x3e245a58	0.16050088
77	0xbe4d6bdd	-0.20060678
78	0xbe152cc4	-0.14567858
79	0x3c93d1e0	0.018044412
80	0xbe30d11c	-0.17267269
81	0xb9cf5e00	-0.00039552152
82	0x3dc0e288	0.094182074
83	0x3e3432be	0.17597482
84	0xbbcbf5b6	-0.0062243594
85	0x3df053f1	0.117347606
86	0x3e06c121	0.1315961
87	0xbe064ecf	-0.13116
88	0xbd9fb1c7	-0.0779758
89	0xbe36eba8	-0.17863333
90	0x3e11feea	0.14257398
91	0xbe1aff7e	-0.15136525
92	0xbe019510	-0.12654519
93	0x3d49b73d	0.049247015
94	0x3daf0bba	0.085471585
95	0xbd5109d8	-0.05103478
96	0xbda489dc	-0.08034107
97	0x3e3f4842	0.18679908
98	0x3e2d7c9e	0.16942069
99	0x3d854ee4	0.06509188
100	0xbded5f0c	-0.115903944
101	0xbe4edab6	-0.20200619
102	0x3cf95a28	0.030438498
103	0x3dbd6914	0.09248558
104	0x3e014426	0.12623653
105	0xbcff5340	-0.031167626
106	0x3cf23590	0.029566556
107	0x3dc36c50	0.09542143
108	0xbd746ef8	-0.05967614
109	0x3db4d818	0.08830279
110	0x3d93271c	0.07185194
111	0xbdc89f6c	-0.09796032
112	0xbd6205d8	-0.055181354
113	0xbdf2b410	-0.118507504
114	0xbdd89e79	-0.10577101
115	0x3db481fc	0.08813855
116	0xbe187976	-0.14890084
117	0xbde4f372	-0.11179246
118	0x3e0f5e00	0.14000702
119	0x3d0e06b4	0.03467436
120	0xbd6da32c	-0.05801694
121	0x3e0ec9cc	0.13944167
122	0x3e2c3322	0.1681638
123	0xbc8c7871	-0.017147275
124	0x3da83b0d	0.08214388
125	0x3de05725	0.109541215
126	0xbe0d2ddf	-0.1378703
127	0xbde59b35	-0.11211244
128	0xbc178670	-0.009248361
129	0xbdd5168f	-0.10404693
130	0x3da71668	0.081585705
131	0xbe36cbb4	-0.17851144
132	0xbd4f3609	-0.05058864
133	0xbd74445d	-0.05963551
134	0xbe4c1eaa	-0.19933572
135	0x3d850a9d	0.06496165
136	0xbd5d04c9	-0.05395964
137	0x3d83a074	0.064270884
138	0xbe4c7757	-0.199674
139	0x3e341f40	0.17590046
140	0x3c6862c0	0.0141837
141	0xbdedf614	-0.11619201
142	0x3cc3896d	0.02386924
143	0xbe10b44c	-0.14131278
144	0x3e107ce2	0.14110139
145	0x3e13887c	0.14407533
146	0xbe4975d3	-0.19673853
147	0xbe304847	-0.17215072
148	0x3dd8764f	0.105694406
149	0x3dcc4fcd	0.09976158
150	0x3de609d8	0.11232346
151	0x3dea4530	0.11438978
152	0x3d864188	0.06555468
153	0xbe46d5fd	-0.19417568
154	0xbb9d0040	-0.0047912896
155	0xbc40f090	-0.011776105
156	0x3c9f9132	0.019478414
157	0x3cbd8fd0	0.023139864
158	0x3d66001a	0.05615244
159	0x3dc1bd73	0.09459963
160	0x3da28604	0.07935718
161	0xbe306ec2	-0.17229751
162	0x3e12a161	0.14319374
163	0x3e3436b3	0.17598991
164	0xbdbba4e8	-0.09162313
165	0x3e316ae8	0.17325938
166	0xbd89f6b1	-0.06736506
167	0xbde33781	-0.11094571
168	0xbdad5b1e	-0.08464645
169	0x3ddfe3b0	0.109321
170	0xbe3690a3	-0.17828612
171	0xbe0ffc18	-0.1406101
172	0xbe43f550	-0.19136548
173	0x3e03cc7d	0.12870975
174	0xbcc48758	-0.023990318
175	0x3dfa9f0c	0.12237367
176	0xbd6c04a4	-0.057621613
177	0xbe34e6e6	-0.17666206
178	0xbdfa6d56	-0.122278854
179	0x3dcc9594	0.09989467
180	0x3dc687d5	0.09693877
181	0xbe1e5e09	-0.15465559
182	0x3dfaf898	0.12254447
183	0xbe42745e	-0.18989703
184	0x3e41bd0e	0.18919775
185	0x3e24f9ae	0.1611087
186	0x3e2d9e53	0.16954927
187	0xbd9ef4d0	-0.07761538
188	0xbe0380f2	-0.12842157
189	0x3d1e4df4	0.03864856
190	0xbcc71ba1	-0.024305167
191	0x3e0f64c4	0.14003283
192	0x3de50bbc	0.11183879
193	0x3d1777a8	0.036979347
194	0x3d9b2b34	0.075766
195	0xbd23efac	-0.04002349
196	0xbdf5e468	-0.12006456
197	0xbd3db934	-0.0463192
198	0x3d145cd0	0.036221325
199	0x3e4c8e66	0.19976196
200	0x3e2f094a	0.17093387
201	0xbd5ad4cc	-0.053425595
202	0xba00b200	-0.00049093366
203	0xbe289ea0	-0.1646676
204	0x3e24691e	0.16055724
205	0xbd22b890	-0.039726794
206	0xbe1d25e2	-0.15346482
207	0x3dc74294	0.09729496
208	0x3dad7510	0.084695935
209	0xbd99424e	-0.0748335
210	0x3e34e49c	0.17665333
211	0xbbcd3ac0	-0.006263107
212	0xbdb0fd3f	-0.08642053
213	0xbe286022	-0.16442922
214	0xbe48cf44	-0.19610316
215	0xbe0177b4	-0.1264332
216	0x3e331010	0.17486596
217	0xbe1032bc	-0.14081854
218	0xbe28df0c	-0.16491336
219	0x3c4a0386	0.012329942
220	0x3bea6746	0.0071534244
221	0xbdc884a8	-0.09790927
222	0xbdb1ae67	-0.08675843
223	0x3e427748	0.18990815
224	0x3e3c45be	0.1838598
225	0xbde775bf	-0.11301755
226	0x3e123a70	0.14280105
227	0xbd9c26d8	-0.07624596
228	0xbc977193	-0.018486774
229	0x3e167b75	0.14695533
230	0xbc45c46f	-0.012070759
231	0xbbed70b9	-0.0072461036
232	0xbdd80127	-0.10547095
233	0xbc579d30	-0.013160035
234	0x3e1ec6ac	0.15505475
235	0x3e03e7ca	0.1288139
236	0x3bd8ee40	0.0066201985
237	0x3e3bbcf3	0.18333797
238	0x3dcfbaf9	0.10143084
239	0x3e0c98ce	0.13730165
240	0xbdae2a09	-0.08504111
241	0x3e0a9c20	0.1353612
242	0xbdaa43a0	-0.0831368
243	0x3c5411d3	0.012943703
244	0x3e3a7293	0.18207769
245	0x3e1a8c4f	0.15092586
246	0xbcf99db8	-0.030470714
247	0x3d4112d0	0.04713708
248	0xbe4cbad9	-0.19993152
249	0xbbcd7820	-0.0062704235
250	0xbdf4a13d	-0.11944816
251	0xbe2b665d	-0.16738267
252	0x3db67994	0.08909908
253	0xbd0eb970	-0.034844816
254	0xbdfe0450	-0.12403166
255	0xbd4e4aee	-0.050364427

model.encoder.edge_encoder.0.4.bias f4 [24]
0	0x3e51e979	0.20499219
1	0xbe3fbfd9	-0.18725528
2	0x3e494cbf	0.19658183
3	0x3ca15bd4	0.019697107
4	0xbd52934c	-0.051410004
5	0x3e32edf3	0.17473583
6	0x3da9c3ab	0.08289274
7	0xbc206901	-0.00979066
8	0xbdf0c1cf	-0.11755716
9	0xbdee652b	-0.1164039
10	0xbd0be399	-0.0341526
11	0xbc58ba0f	-0.013227954
12	0xbe4071c4	-0.18793398
13	0xbe4d89e3	-0.20072131
14	0xbe1cbd1d	-0.15306516
15	0x3dbe9925	0.09306554
16	0xbdcdd50e	-0.100504026
17	0x3dacd99c	0.08439943
18	0xbdaea860	-0.08528209
19	0x3e20f919	0.15720023
20	0x3ccb9a88	0.02485396
21	0x3e362afe	0.17789838
22	0x3e1c4169	0.15259327
23	0xbe350c4f	-0.17680477

model.encoder.edge_encoder.0.6.weight f4 [24, 24]
0	0xbd8ff172	-0.07028474
1	0x3aaa9680	0.0013014823
2	0x3e3fa03f	0.18713473
3	0xbe0a5889	-0.13510336
4	0xbe4dd80c	-0.20101947
5	0xbdbc5715	-0.09196297
6	0x3e0b0755	0.13577016
7	0x3e41d932	0.1893051
8	0xbd8162c8	-0.06317669
9	0xbe435b5c	-0.1907782
10	0xbe313109	-0.17303862
11	0xbc16b474	-0.009198297
12	0x3e4c2036	0.19934162
13	0x3de8b080	0.1136179
14	0x3dbe35c5	0.092875995
15	0xbbbc8c33	-0.0057540177
16	0x3df001b8	0.11719078
17	0xbd8b0b48	-0.06789261
18	0x3cfd0dc0	0.030890346
19	0xbd9110f5	-0.070833124
20	0xbdfdf76b	-0.12400707
21	0x3de27f44	0.1105943
22	0xbe1e5121	-0.15460636
23	0x3e0d6676	0.13808617
24	0xbc6b9deb	-0.014380912
25	0xbd86c78e	-0.06581031
26	0x3d06ee43	0.032942068
27	0xbe378fc8	-0.17925942
28	0xbd5b9208	-0.053606063
29	0xbb2992bf	-0.002587482
30	0xbd5ea227	-0.05435386
31	0x3d9b92b1	0.075963385
32	0x3e445972	0.19174746
33	0xbe22c752	-0.15896347
34	0x3df60e7d	0.12014482
35	0x3dac46d6	0.084119484
36	0xbd74a64c	-0.059728906
37	0x3e320082	0.17383006
38	0xbd151ea0	-0.03640616
39	0x3e295ea4	0.16540009
40	0x3e14fbd0	0.14549184
41	0x3e3519ec	0.1768567
42	0x3d757d38	0.05993387
43	0xbe3f34a9	-0.18672432
44	0xbdbb7759	-0.09153623
45	0xbdbf345f	-0.09336161
46	0x3e0919ab	0.13388698
47	0x3e469aa2	0.19394925
48	0x3e1ff173	0.1561945
49	0x3e180a52	0.14847687
50	0xbc5276b7	-0.012845687
51	0xbe4509cb	-0.19242017
52	0xbcc4a5e8	-0.024004892
53	0xbe2fbba3	-0.17161421
54	0xbe386e20	-0.1801076
55	0x3d0ea28e	0.034822993
56	0xbd6e4f7c	-0.05818127
57	0xbd276b55	-0.040873844
58	0x3dc99d5f	0.09844469
59	0x3e0bf26d	0.13666697
60	0xbdf90f54	-0.12161127
61	0xbca3f020	-0.020011961
62	0x3e11a5e2	0.14223436
63	0x3d92f0d6	0.07174842
64	0x3dfc93b8	0.123328626
65	0xbdd77d96	-0.105220005
66	0xbd91de76	-0.07122509
67	0xbcfea117	-0.031082673
68	0xbde787bc	-0.11305186
69	0xbdb80b5d	-0.089865424
70	0x3a0e0e9f	0.0005419049
71	0xbe39a391	-0.18128802
72	0xbe446cdd	-0.19182153
73	0xbe48736c	-0.1957528
74	0xbe3a7ece	-0.18212435
75	0x3cafff31	0.02148399
76	0xbe0834b6	-0.13301358
77	0x3dfd2503	0.12360575
78	0x3d038767	0.03211155
79	0xbc43c947	-0.011949844
80	0xbe475a15	-0.19467957
81	0xbdf0eaaf	-0.11763512
82	0xbe30048c	-0.17189234
83	0xbe444137	-0.19165502
84	0xbdd556f9	-0.10416979
85	0xbce68050	-0.028137356
86	0xbe0d95c5	-0.13826664
87	0x3d13aab2	0.03605146
88	0x3d2feda0	0.042951226
89	0xbd94d7f8	-0.07267755
90	0xbc8f5c28	-0.017499998
91	0xbe1bd38f	-0.15217422
92	0x3de53d88	0.11193377
93	0xbd992524	-0.07477787
94	0xbe463962	-0.19357827
95	0xbdb0ea5e	-0.08638452
96	0x3e33de34	0.17565233
97	0xbdea3257	-0.11435383
98	0x3e32829c	0.17432636
99	0x3e173eb8	0.14770019
100	0x3e02de6c	0.1278016
101	0x3d439ed7	0.047758903
102	0xbda52a47	-0.080647044
103	0x3c717300	0.014736891
104	0x3dfc48f4	0.12318602
105	0xbdddacaa	-0.10823949
106	0xbdc8b7f5	-0.09800712
107	0xbcf52b83	-0.029927975
108	0x3d6d11a8	0.057878166
109	0xbe415375	-0.18879493
110	0x3da9d2ad	0.08292136
111	0x3e00ff6b	0.12597434
112	0xbe19fee8	-0.15038645
113	0x3dcc20e4	0.09967211
114	0x3c60db50	0.013724163
115	0xbc3b760a	-0.011441717
116	0xbe14c5f3	-0.14528637
117	0x3e0b0066	0.1357437
118	0xbdeb05c8	-0.11475712
119	0x3d29494c	0.041329667
120	0xbd9e6084	-0.07733253
121	0x3c45aad0	0.012064651
122	0xbca189f4	-0.019719101
123	0xbd17a671	-0.037023965
124	0xbdbac35d	-0.09119294
125	0xbdcef59e	-0.101054415
126	0x3e4845ef	0.19557928
127	0x3e02687b	0.12735169
128	0xbdad0bd1	-0.084495194
129	0xbe3fecf6	-0.18742737
130	0x3e4b350d	0.19844456
131	0xbe3d90d8	-0.18512285
132	0xbd685e78	-0.056730717
133	0x3d882018	0.066467464
134	0x3beab44a	0.0071626054
135	0x3e2b15ef	0.16707586
136	0x3df66a0c	0.120319456
137	0x3e462aee	0.19352314
138	0x3e180704	0.14846426
139	0x3e1f53de	0.15559337
140	0x3e032d4e	0.12810251
141	0x3c93f1e8	0.018059686
142	0xbb0512eb	-0.0020305465
143	0xbdc6014f	-0.09668218
144	0xbe11393a	-0.14181986
145	0xbe204f2b	-0.156552
146	0x3e3716e0	0.1787982
147	0xbd3cafa7	-0.046065953
148	0xbe105268	-0.14093935
149	0xbd2313ec	-0.03981392
150	0x3c498c37	0.012301496
151	0xbda4a296	-0.08038823
152	0xbe3052ed	-0.17219134
153	0x3d567974	0.05236192
154	0x3b46e0a9	0.003034631
155	0x3e1e16be	0.15438363
156	0x3bf17960	0.0073692054
157	0x3e430494	0.19044715
158	0x3e05cdc6	0.13066778
159	0xbe1ff2b9	-0.15619935
160	0x3cca2c20	0.024679244
161	0xbdaa9b01	-0.08330346
162	0xbd917b72	-0.071036234
163	0x3e36c9cf	0.17850421
164	0xbd5f4b1c	-0.05451499
165	0xbc0ead60	-0.008708328
166	0xbe020792	-0.126982
167	0xbd9558f0	-0.07292354
168	0xbdf82c41	-0.12117816
169	0xbe455a76	-0.1927279
170	0x3db84da3	0.08999183
171	0x3d878b37	0.0661835
172	0x3dcae0f8	0.09906191
173	0xbe2ad927	-0.166844
174	0xbcd729f0	-0.026265115
175	0xbd0f58f5	-0.034996945
176	0x3e3f70ec	0.1869542
177	0x3d8c2aa1	0.06844068
178	0x3d2c99a5	0.042138714
179	0x3df069cb	0.117389284
180	0x3e3a7a34	0.1821068
181	0xbc9a9cb0	-0.018873543
182	0x3e252414	0.16127044
183	0x3e3f34e6	0.18672523
184	0xbde1c32a	-0.11023553
185	0x3d36bba4	0.04461254
186	0x3d3283a4	0.043582574
187	0xbe05b302	-0.13056567
188	0xbe3f751e	-0.1869702
189	0x3ddf01e4	0.108890325
190	0x3e033071	0.12811448
191	0xbe43403d	-0.19067474
192	0x3c48ec76	0.012263408
193	0xbe2a9ae7	-0.16660653
194	0xbdbe015d	-0.09277604
195	0xbe3a5d33	-0.18199615
196	0x3dbe9e50	0.093075395
197	0x3e219fe0	0.15783644
198	0x3dca8cbe	0.09890126
199	0xbcf0171d	-0.029307896
200	0x3e3d5d14	0.18492538
201	0xbe004d7c	-0.12529558
202	0x3e142b59	0.14469661
203	0xbd48c22d	-0.049013305
204	0xbe4b685d	-0.1986403
205	0xbe13a1ad	-0.14417143
206	0xbe0087a6	-0.12551746
207	0x3dece1c8	0.11566502
208	0xbc07fd60	-0.008300155
209	0x3c524bb0	0.012835428
210	0xbdd5ed7a	-0.10445686
211	0x3e17b6ae	0.1481578
212	0x3e44c614	0.19216186
213	0x3d88f850	0.06687987
214	0x3e17f5c3	0.14839844
215	0xbcec4378	-0.028840765
216	0x3defa154	0.11700693
217	0x3e1f471e	0.15554473
218	0x3ca4e29f	0.020127593
219	0x3e29b10a	0.16571441
220	0xbe2144b6	-0.15748867
221	0x3e4a2b0a	0.1974298
222	0x3e43e656	0.19130835
223	0xbe1abfbf	-0.15112208
224	0x3e4a5d3a	0.19762126
225	0x3dcd661a	0.1002924
226	0x3d82694d	0.06367741
227	0xbdade10e	-0.084901914
228	0xbd16a080	-0.03677416
229	0x3c7b7b40	0.015349209
230	0xbe30debf	-0.17272471
231	0x3e30463b	0.17214291
232	0xbdfe5203	-0.12417986
233	0xbe3c41a4	-0.18384415
234	0xbd1ee820	-0.03879559
235	0x3e4cb381	0.1999035
236	0x3de09930	0.10966718
237	0x3d51d428	0.05122772
238	0x3d259ea0	0.04043448
239	0x3dff9cf0	0.12481105
240	0x3dc9c855	0.098526634
241	0x3e507646	0.20357618
242	0xbe2aa23d	-0.16663451
243	0x3e44c406	0.19215402
244	0xbd0ae120	-0.033906102
245	0x3dd82949	0.105547495
246	0xbdf090ac	-0.11746344
247	0x3e2f589a	0.17123643
248	0xbca47718	-0.02007632
249	0x3d140524	0.036137715
250	0x3e0ed957	0.13950096
251	0xbe135bd8	-0.14390504
252	0x3d0b6504	0.034031883
253	0xbe2c793c	-0.16843122
254	0x3e417b87	0.18894778
255	0x3d57e94d	0.052712727

model.encoder.edge_encoder.0.6.bias f4 [24]
0	0x3d79ca02	0.060983665
1	0xbd56f37d	-0.052478302
2	0xbe250327	-0.16114484
3	0xbdd9f13c	-0.10641715
4	0xbe22d3c7	-0.15901099
5	0x3df9ded7	0.122007065
6	0xbbe1355a	-0.006872815
7	0x3da77e31	0.08178366
8	0xbdb0d3ed	-0.08634172
9	0x3dc19a97	0.09453314
10	0xbd94ebff	-0.07271575
11	0x3dbed0ac	0.09317145
12	0x3a46d097	0.0007584183
13	0x3db87d1e	0.09008239
14	0x3e353f4a	0.17699924
15	0x3e198166	0.14990768
16	0xbd9145dc	-0.07093403
17	0xbdbbe897	-0.09175222
18	0x3d8a07c1	0.0673976
19	0x3e0c3fc3	0.13696198
20	0xbd81b11f	-0.06332611
21	0x3e0b57aa	0.1360766
22	0x3e3824c9	0.17982782
23	0xbddc6673	-0.10761728

model.encoder.edge_encoder.1.weight f4 [24]
0	0x3f7cfc77	0.9882273
1	0x3f7c8581	0.9864121
2	0x3f7e223a	0.99270976
3	0x3f812412	1.0089133
4	0x3f7a6b90	0.9782038
5	0x3f7e90e6	0.9943985
6	0x3f7f2133	0.99660033
7	0x3f7a7575	0.97835475
8	0x3f618bfe	0.88104236
9	0x3f7ef8f0	0.995986
10	0x3f7974df	0.97443956
11	0x3f7dffed	0.99218637
12	0x3f7a4d0d	0.9777382
13	0x3f7dffa8	0.99218225
14	0x3f802fba	1.0014565
15	0x3f7c99a9	0.98671967
16	0x3f7e470a	0.99327147
17	0x3f7da2fd	0.99076825
18	0x3f7a9a45	0.97891647
19	0x3f76801a	0.9628922
20	0x3f7deb11	0.9918681
21	0x3f7ef5c5	0.99593765
22	0x3f7d3e19	0.9892288
23	0x3f65001a	0.8945328

model.encoder.edge_encoder.1.bias f4 [24]
0	0x3b98f845	0.004668268
1	0x3bd39ea5	0.006458121
2	0x3b5c947d	0.0033657842
3	0xbc329b93	-0.01090135
4	0x3c6a08ed	0.014284355
5	0xbaf43116	-0.0018630351
6	0x38923790	6.972172e-05
7	0xbc2eb6ad	-0.0106636705
8	0x3b978f25	0.0046252185
9	0xbaf01b32	-0.0018318652
10	0x390243ec	0.00012423069
11	0x3bda84e8	0.0066686757
12	0xbc82bec2	-0.015960101
13	0xbb77b693	-0.0037798032
14	0x3b0786b1	0.0020679648
15	0xbbe243ab	-0.0069050393
16	0x3a6a1f83	0.0008931087
17	0x3bf77c0c	0.0075526293
18	0x3ba584de	0.0050512394
19	0xbc68adf9	-0.014201635
20	0x3ba8b4ec	0.0051485207
21	0xbae2c732	-0.0017301796
22	0xbbcafad2	-0.006194451
23	0xbb6d7609	-0.0036233685

model.encoder.node_encoder.0.0.weight f4 [24, 3]
0	0xbf217b33	-0.6307861
1	0xbed7ef7a	-0.42174894
2	0xbe1d72db	-0.15375845
3	0xbc979783	-0.018504864
4	0xbf101244	-0.5627787
5	0xbebe3188	-0.37147164
6	0xbe9fba39	-0.31196764
7	0xbeb5cc66	-0.35507506
8	0x3eaaa9e3	0.33332738
9	0xbf05f6db	-0.52329797
10	0xbecc4563	-0.39896688
11	0x3da3d68c	0.07999906
12	0x3ef337b1	0.47503427
13	0xbe1ba57b	-0.15199845
14	0xbd7224c0	-0.05911708
15	0xbcc037db	-0.023464134
16	0x3d6686f2	0.056281038
17	0xbed11228	-0.40834165
18	0xbe2186ed	-0.15774126
19	0xbefa6bc8	-0.48910356
20	0x3f96a544	1.1769185
21	0x3d407f67	0.0469965
22	0xbefae0e2	-0.48999697
23	0x3d76654c	0.060155198
24	0x3ece5a4b	0.40303263
25	0x3e95d290	0.2926221
26	0x3ef7abc8	0.48373246
27	0x3ed3ec63	0.41391286
28	0xbe8a5606	-0.27018756
29	0xbd15f530	-0.036610782
30	0xbcde52d4	-0.027139105
31	0xbdf80615	-0.12110535
32	0x3dfc89ae	0.12330948
33	0xbe9c8c34	-0.30575716
34	0x3e130984	0.14359099
35	0x3f04626e	0.5171269
36	0x3d27068b	0.040777724
37	0xbf0daeee	-0.55345047
38	0x3e0457ac	0.12924069
39	0x3d8f617d	0.07001016
40	0x3ef030e4	0.469123
41	0x3f2b9754	0.67027783
42	0x3f166a7a	0.5875622
43	0xbdbbc112	-0.091676846
44	0xbd082580	-0.033238888
45	0xbeefbe43	-0.46824846
46	0xbe981784	-0.2970544
47	0xbf6a3df3	-0.91500777
48	0xbec87f8a	-0.39159805
49	0xbd960480	-0.07325077
50	0x3f78e74d	0.97227937
51	0xbec6ae7e	-0.38805002
52	0x3ca76f17	0.020438714
53	0xbf41612d	-0.75538903
54	0x3e3b03da	0.18263188
55	0xbd8432a3	-0.06454971
56	0x3ec96792	0.3933683
57	0x3e4ae1f7	0.19812761
58	0xbed80b09	-0.4219592
59	0xbecc82e6	-0.39943618
60	0x3ef80d78	0.48447776
61	0xbf0372d5	-0.51347095
62	0xbf0ec905	-0.5577548
63	0xbeb42a81	-0.35188678
64	0x3d9b35fd	0.07578657
65	0x3e53933b	0.20661633
66	0xbcfa08f6	-0.030521851
67	0x3ec81203	0.39076242
68	0xbe322026	-0.17395076
69	0x3f089c11	0.5336314
70	0xbe2944f3	-0.16530208
71	0x3e8358c8	0.25653672

model.encoder.node_encoder.0.0.bias f4 [24]
0	0xbef3fbc0	-0.47653008
1	0x3cfc1e12	0.030776057
2	0x3bae544c	0.0053201076
3	0x3e966d63	0.2938033
4	0xbdf315f3	-0.11869421
5	0x3e7dc3cf	0.24781726
6	0xbe648b22	-0.223187
7	0x3da62ed9	0.08114404
8	0xbef9b80a	-0.48773223
9	0xbe9dd449	-0.30826023
10	0x3e9fd98a	0.31220657
11	0xbee5a412	-0.44851738
12	0xbec75819	-0.389344
13	0x3ea2e9e3	0.31819066
14	0xbe330ed6	-0.17486128
15	0x3e130977	0.1435908
16	0xbe864bfa	-0.2622984
17	0x3ecf30d3	0.40466937
18	0xbe7dc2c4	-0.24781328
19	0xbef77c67	-0.483371
20	0x3f0a0451	0.53912836
21	0x3effc6fd	0.49956504
22	0xbeb03e37	-0.34422466
23	0xbe4f3445	-0.20234783

model.encoder.node_encoder.0.2.weight f4 [24, 24]
0	0xbde365ce	-0.11103402
1	0x3d049db3	0.032376956
2	0x3d038742	0.032111414
3	0xbc3e514d	-0.011616063
4	0x3e43fbdd	0.19139047
5	0xbe3bb650	-0.18331265
6	0x3e2a4c3d	0.16630645
7	0xbd84373d	-0.06455848
8	0x3e454b6a	0.1926705
9	0x3da9029a	0.08252449
10	0xbcfd3a08	-0.03091146
11	0x3e18215d	0.14856477
12	0x3cb3d0e8	0.0219502
13	0xbdf7a425	-0.12091855
14	0xbdbf5060	-0.09341502
15	0xbe2ed2bc	-0.17072576
16	0x3e0c54af	0.13704179
17	0x3df82147	0.12115722
18	0x3e4a5298	0.1975807
19	0xbe290e98	-0.16509473
20	0xbe3534b1	-0.17695881
21	0xbe357f45	-0.1772433
22	0xbcf481cc	-0.029847048
23	0xbda6f03f	-0.08151292
24	0xbe45d85e	-0.19320819
25	0x3e339a84	0.17539412
26	0x3c447e8b	0.011993061
27	0xbd4358f1	-0.047692243
28	0xbd87a5e9	-0.06623442
29	0x3e2e3b5b	0.1701483
30	0x3c77ba85	0.015120153
31	0x3cfd83c3	0.030946618
32	0xbe11c2ec	-0.14234513
33	0xbdbe0884	-0.09278968
34	0xbe3c2f59	-0.18377437
35	0xbc7789d0	-0.015108541
36	0x3e144d3c	0.14482588
37	0xbdfef13e	-0.12448357
38	0xbd2bd3e6	-0.04195013
39	0xbdc972d9	-0.098363586
40	0x3d3ed9b8	0.04659435
41	0xbdddee38	-0.10836452
42	0xbd5d9f4c	-0.054106995
43	0x3ce3821e	0.027772006
44	0xbda41533	-0.08011856
45	0x3c6a6d6a	0.014308313
46	0xbe34c100	-0.17651749
47	0x3caf0f6e	0.021369662
48	0xbd80ef3a	-0.06295629
49	0x3e2f7a5d	0.17136522
50	0x3d811088	0.06301981
51	0x3afdab76	0.0019353468
52	0xbe4392d6	-0.19098982
53	0xbe3d2f79	-0.1847514
54	0x3e390e3a	0.18071833
55	0xbe5d86db	-0.21633475
56	0xbde8dcd0	-0.11370242
57	0x3dce19b5	0.10063497
58	0xbddead52	-0.10872902
59	0xbdbccfc2	-0.09219314
60	0xbe04467e	-0.12917516
61	0xbdc7542e	-0.09732853
62	0xbdb80515	-0.08985344
63	0xbdbd1d21	-0.092340715
64	0xbd048406	-0.03235247
65	0xbd80ef40	-0.06295633
66	0x3e36a662	0.17836908
67	0x3e3f9cb9	0.18712129
68	0xbdb3fba1	-0.08788229
69	0xbd3a334a	-0.04545907
70	0xbe3b4b7d	-0.18290515
71	0x3e33c1b7	0.17554365
72	0x3ce601b3	0.028076982
73	0x3c445f9d	0.011985687
74	0xbe375167	-0.17902146
75	0xbdde5324	-0.108557016
76	0xbd106bc7	-0.035259034
77	0xbe102742	-0.14077476
78	0x3cfe0c6a	0.031011779
79	0xbd5961cd	-0.053071786
80	0xbe75f2ef	-0.24018453
81	0x3e1ae81c	0.15127605
82	0x3e435fb7	0.19079481
83	0xbccab0d4	-0.024742521
84	0x3d4aa86b	0.049477022
85	0x3e1ff30e	0.15620062
86	0xbc855cce	-0.016279604
87	0x3d71f7dd	0.05907427
88	0x3e4a1f1c	0.1973843
89	0xbe4438aa	-0.1916224
90	0xbda73bab	-0.08165678
91	0x3d771db4	0.06033106
92	0x3dadae15	0.08480469
93	0xbdca231b	-0.09869977
94	0x3d87c5b1	0.066295035
95	0x3b92d61d	0.0044810907
96	0x3e36f510	0.17866921
97	0xbdadbb12	-0.084829465
98	0xbe230e5d	-0.15923448
99	0xbe5b4483	-0.21412854
100	0xbd13e1c1	-0.036103968
101	0xbcfa8c6e	-0.03058454
102	0x3e81b960	0.25336742
103	0xbc09da71	-0.008413897
104	0xbd9c4771	-0.07630814
105	0xbc938d3e	-0.018011685
106	0xbd649fed	-0.05581658
107	0xbe427818	-0.18991125
108	0x3e451dae	0.19249603
109	0xbdf8eac7	-0.12154155
110	0xbde65b36	-0.11247866
111	0x3c31d958	0.010855041
112	0xbda2ba57	-0.07945698
113	0xbcf2a5b2	-0.029620025
114	0x3d240e6b	0.040052813
115	0x3d220275	0.039553124
116	0xbe4c3672	-0.19942644
117	0x3e1128c7	0.14175712
118	0x3e3083e8	0.17237818
119	0x3dc66549	0.09687287
120	0x3e099a36	0.13437733
121	0x3de3cf11	0.11123479
122	0xbc5fb9a6	-0.013655102
123	0xbdb3eeca	-0.0878578
124	0xbd906ca1	-0.07051969
125	0xbd0cf6d2	-0.034415074
126	0x3dcc8cf4	0.09987822
127	0x3e21e6d2	0.15810707
128	0x3e61ce9d	0.22051473
129	0xbe450039	-0.19238366
130	0xbdfa0d48	-0.122095644
131	0xbc90ad71	-0.017660828
132	0x3dc14c50	0.094383836
133	0xbc141e1e	-0.009040384
134	0xbe41b741	-0.18917562
135	0x3e594a0f	0.21219657
136	0xbe291310	-0.16511178
137	0xbd817d94	-0.0632278
138	0xbde1dcbe	-0.11028431
139	0xbd4b3fdb	-0.049621444
140	0x3d9adea1	0.07561994
141	0xbdfc254e	-0.12311803
142	0x3df74a43	0.12074711
143	0x3da9977a	0.08280845
144	0x3e382b84	0.1798535
145	0x3cbc88e6	0.023014497
146	0x3dec0c2a	0.115257576
147	0x3d85cccd	0.06533203
148	0xbc25ec7a	-0.010127181
149	0xbde374e8	-0.111062825
150	0x3e1b108e	0.15143034
151	0x3c036dce	0.008021785
152	0xbd082838	-0.03324148
153	0xbd8a4881	-0.0675211
154	0x3e2847aa	0.16433588
155	0xbe7a29de	-0.24430034
156	0x3d70943c	0.058735117
157	0x3d60cec4	0.054884687
158	0x3e0f9000	0.14019775
159	0xbdbac71d	-0.09120009
160	0xbd9f9154	-0.07791391
161	0xbe2d29ce	-0.16910478
162	0x3e869162	0.26282793
163	0xbaa60a5b	-0.0012667881
164	0x3e3a8362	0.18214181
165	0xbdacb408	-0.08432776
166	0xbd76c357	-0.060244884
167	0x3de2636b	0.11054119
168	0xbe620f18	-0.2207607
169	0x3e1d1743	0.15340905
170	0x3db438d3	0.08799901
171	0x3d000f7b	0.031264763
172	0xbd00472a	-0.031317867
173	0x3d87ecd0	0.06636965
174	0x3da3173a	0.079634145
175	0x3d17a14c	0.03701906
176	0xbe411393	-0.18855123
177	0x3d8ea643	0.06965306
178	0x3e43c6a8	0.1911875
179	0xbdd074c1	-0.10178519
180	0x3da27c2d	0.07933841
181	0x3bd678b2	0.0065451497
182	0x3ccd638c	0.025071882
183	0xbdb3db8d	-0.0878211
184	0x3cb9686e	0.022632804
185	0x3da46b2c	0.08028254
186	0xbe85d55d	-0.26139346
187	0x3da06f91	0.078337796
188	0x3e3f76f2	0.18697718
189	0x3d707cff	0.058712956
190	0xbdfb7544	-0.12278226
191	0xbe53cabc	-0.20682806
192	0x3d039bef	0.03213113
193	0x3e2f6c5e	0.17131183
194	0xbdd4be00	-0.10387802
195	0x3db3bdeb	0.08776458
196	0x3cedc1b0	0.029023021
197	0x3c3f4428	0.011673965
198	0xbd1033c9	-0.035205636
199	0xbdec3b60	-0.115347624
200	0xbe22d7da	-0.15902653
201	0xbe14b0ed	-0.14520617
202	0x3d550f39	0.05201647
203	0xbe075699	-0.13216628
204	0xbcc80800	-0.024417877
205	0xbd84fda6	-0.06493692
206	0x3e5e4a8c	0.21708125
207	0xbdd96e6f	-0.10616767
208	0xbe431728	-0.19051802
209	0x3e2e3a91	0.17014529
210	0x3dbc52b4	0.09195462
211	0xbd955ad3	-0.07292714
212	0xbd29fd1a	-0.041501142
213	0x3e41e614	0.18935424
214	0x3e0d236f	0.13783048
215	0xbd61cf4a	-0.055129327
216	0xbe1dadac	-0.15398282
217	0xbe4f85c6	-0.20265874
218	0xbe1dae94	-0.15398628
219	0x3d6f7968	0.05846539
220	0x3db1f7b0	0.08689821
221	0x3d56ee60	0.052473426
222	0x3ca07900	0.019588947
223	0xbcb42488	-0.021990076
224	0x3c48b670	0.012250528
225	0x3dbaa838	0.091141164
226	0xbd2c690c	-0.042092368
227	0xbde46b24	-0.11153248
228	0xbcf5eb90	-0.030019552
229	0x3d360288	0.044436008
230	0x3d80b978	0.06285375
231	0xbbac4460	-0.0052571744
232	0xbc7555f0	-0.014974102
233	0xbe121eb4	-0.14269525
234	0x3d0daef8	0.03459069
235	0x3e38943a	0.18025294
236	0xbe4d8ccc	-0.20073241
237	0xbe2d4b0e	-0.16923162
238	0xbe1a3a0d	-0.15061207
239	0xbccd8448	-0.02508749
240	0x3e589ea0	0.2115426
241	0x3cb6da05	0.022320757
242	0xbd963e75	-0.073361315
243	0x3d36ac69	0.044598017
244	0x3e3aac5b	0.18229811
245	0xbe3dc1d0	-0.18530965
246	0x3dfb142c	0.12259707
247	0x3d4cd555	0.050008137
248	0x3e314783	0.17312436
249	0x3d301719	0.042990778
250	0xbdaf8f01	-0.08572198
251	0xbde4d9a5	-0.11174325
252	0x3da5a9bd	0.08089016
253	0x3e1a6c4e	0.15080377
254	0x3e2086c5	0.1567641
255	0x3dd2acb2	0.10286845

model.encoder.node_encoder.0.2.bias f4 [24]
0	0xbd8e220f	-0.0694009
1	0xbd3b2cb5	-0.045696933
2	0xbd6d4fd3	-0.057937454
3	0xbcc6d1dc	-0.02426999
4	0x3e2480e9	0.160648
5	0x3e0299f8	0.12754047
6	0x3cdae3c8	0.026719943
7	0xbca19f6f	-0.019729344
8	0xbdee525b	-0.11636802
9	0xbe317f14	-0.17333633
10	0x3e07a857	0.1324781
11	0xbdc58bb0	-0.09645784
12	0x3d0f2232	0.03494472
13	0x3dbccafd	0.092184044
14	0xbdfa640b	-0.12226113
15	0xbc33dedf	-0.01097843
16	0xbe21e3d0	-0.1580956
17	0x3e3fdf89	0.18737616
18	0x3dcd9bea	0.10039504
19	0x3e486d78	0.19573009
20	0x3cf39dd9	0.029738354
21	0x3d54ed1d	0.05198394
22	0xbe72d55b	-0.23714201
23	0x3c91737f	0.017755268

model.encoder.node_encoder.0.4.weight f4 [24, 24]
0	0x3e094d06	0.13408288
1	0xbe1e4bbe	-0.15458581
2	0x3e3d6849	0.18496813
3	0x3d9dc3ee	0.07703386
4	0xbe51159f	-0.20418404
5	0xbb81a3c9	-0.0039562923
6	0x3e40a5ff	0.18813322
7	0x3e4c7143	0.19965081
8	0xbe1cb58a	-0.15303627
9	0x3e245330	0.16047359
10	0x3d717cc7	0.058956888
11	0x3dc5ca07	0.09657674
12	0xbe2ef36a	-0.17085043
13	0x3dda09d4	0.10646406
14	0xbd732110	-0.059357703
15	0xbd6a18db	-0.05715261
16	0xbe375cb7	-0.17906462
17	0xbcac0be2	-0.02100176
18	0x3e0d295d	0.1378531
19	0xbe216741	-0.15762044
20	0xbf3468c0	-0.70472336
21	0x3d3fdff4	0.046844438
22	0x3daca2ed	0.08429513
23	0xbd809f66	-0.06280403
24	0x3e2507df	0.16116284
25	0x3e423306	0.18964776
26	0xbe1a78a1	-0.15085079
27	0x3e0154ff	0.1263008
28	0x3e65de0a	0.22447982
29	0x3e5cb61c	0.21553844
30	0x3da569cc	0.0807682
31	0x3da3e92b	0.08003458
32	0xbd9cb7e2	-0.0765226
33	0xbe4e080b	-0.20120256
34	0xbdf9e335	-0.122015394
35	0x3cb587a2	0.022159401
36	0xbd283373	-0.04106469
37	0x3da7f01f	0.08200096
38	0xbdffb3c2	-0.12485458
39	0x3e8bb8e5	0.272895
40	0xbdd6cd5e	-0.104883894
41	0x3d8c3e09	0.0684777
42	0x3e2df004	0.1698609
43	0xbde48784	-0.1115866
44	0xbe855ccd	-0.26047364
45	0xbe0d9ea3	-0.13830046
46	0x3e0b90c9	0.1362945
47	0xbe24b6f1	-0.16085412
48	0x3e28bb9a	0.16477814
49	0xbe440a4f	-0.19144557
50	0x3dd7ac50	0.10530913
51	0xbdf1219d	-0.11773989
52	0xbd468ff2	-0.04847712
53	0x3d334645	0.043768186
54	0xbcc6b48b	-0.024256011
55	0x3ce26552	0.027636204
56	0x3c8a9ccc	0.01692047
57	0x3e453baa	0.19261041
58	0xbcea0f3a	-0.028571714
59	0xbe7fa438	-0.24964988
60	0xbe09847a	-0.13429442
61	0xbcca6462	-0.02470607
62	0x3d1138e5	0.03545465
63	0x3b36c822	0.0027890285
64	0x3d10470b	0.035224
65	0x3d45e779	0.048316453
66	0x3e0bfdbb	0.13671009
67	0x3e02dde2	0.12779954
68	0x3e4a593b	0.19760601
69	0x3e12903b	0.14312832
70	0xbdbf23a1	-0.093329675
71	0xbe0e32a1	-0.13886501
72	0x3d9d57b0	0.07682741
73	0x3c18171e	0.009282855
74	0xbd49d723	-0.049277436
75	0xbe3018d3	-0.1719697
76	0x3e904e38	0.28184676
77	0xbe76e368	-0.24110186
78	0xbe0ea735	-0.13930972
79	0xbcf5de42	-0.030013207
80	0x3d4779c8	0.048700124
81	0x3df265e4	0.1183584
82	0xbdcd9a97	-0.10039251
83	0x3dc33cd5	0.09533087
84	0xbdef0e53	-0.11672654
85	0xbe11a8be	-0.14224526
86	0xbe228828	-0.15872252
87	0x3b1d6293	0.0024015054
88	0x3e65fe9d	0.22460409
89	0xbe3afded	-0.18260927
90	0xbd635821	-0.05550397
91	0x3d925810	0.07145703
92	0x3de2223e	0.110416874
93	0x3d3613bb	0.04445241
94	0xbdafedc9	-0.08590276
95	0x3e134ef0	0.14385581
96	0xbd1ba348	-0.037997514
97	0x3d8db2e5	0.06918887
98	0xbdc531eb	-0.09628662
99	0x3e033e47	0.12816726
100	0xbd768f60	-0.060195327
101	0x3b5a16df	0.0033277792
102	0x3df90c97	0.121606044
103	0xbe3d7b4c	-0.18504065
104	0x3da93cf2	0.082635775
105	0x3e4410f0	0.19147086
106	0xbe58cd45	-0.21172054
107	0xbd10ea10	-0.03537947
108	0x3e30a4a3	0.17250304
109	0x3dddcc9e	0.10830043
110	0xbd60cc37	-0.054882254
111	0x3dff7c75	0.1247491
112	0x3e0171e8	0.12641108
113	0xbe24de2e	-0.1610038
114	0xbd7d2535	-0.06180306
115	0x3e1d812d	0.15381308
116	0x3d67689e	0.056496255
117	0xbe745937	-0.23862158
118	0xbdc64cdf	-0.09682631
119	0xbca24d5a	-0.019812275
120	0xbc8b0d43	-0.016974097
121	0x3e3ac4dd	0.1823916
122	0xbe1a966b	-0.15096442
123	0x3e24d88f	0.16098236
124	0xbe78634c	-0.24256629
125	0x3d309877	0.04311415
126	0xbddd191e	-0.10795806
127	0x3db2e41b	0.08734914
128	0xbdfbfefc	-0.12304494
129	0x3b7728c0	0.0037713498
130	0x3e10c8bc	0.14139074
131	0x3d969d45	0.073542155
132	0x3e376a63	0.17911677
133	0xbd9ede9f	-0.07757305
134	0xbd9b7d4a	-0.07592256
135	0xbd74c783	-0.05976058
136	0xbe5e0036	-0.21679768
137	0xbdfe3f58	-0.124144256
138	0xbd1f96cf	-0.03896218
139	0x3d9c7012	0.07638563
140	0xbe6ee40b	-0.23329179
141	0xbe10aa5a	-0.14127484
142	0xbdc9cdb3	-0.09853687
143	0x3e17a24d	0.14808007
144	0xbe203457	-0.15644966
145	0x3d463408	0.048389465
146	0xbe25e7bc	-0.16201681
147	0xbdf4e3d0	-0.11957514
148	0x3e11cd54	0.14238483
149	0x3bdf11c2	0.006807537
150	0xbe0a5a07	-0.13510905
151	0x3bb17806	0.0054159192
152	0x3e2343bf	0.15943812
153	0x3d1c5f74	0.03817697
154	0x3b4334bd	0.0029786073
155	0x3c869aff	0.01643133
156	0xbe153588	-0.14571202
157	0xbdea00bb	-0.114259206
158	0xbdf789d0	-0.120868325
159	0x3d7997c7	0.06093576
160	0xbbe16f7f	-0.0068797464
161	0x3d613da5	0.05499043
162	0xbd819e98	-0.063290775
163	0xbe0d320c	-0.13788623
164	0x3e1239d8	0.14279878
165	0x3ddab027	0.1067813
166	0xbe47be87	-0.19506274
167	0x3e3c875e	0.18411013
168	0x3e32ad3a	0.17448893
169	0x3cba7968	0.02276297
170	0x3e26767e	0.16256139
171	0xbeb1bb78	-0.3471334
172	0xbdcf4726	-0.10120992
173	0x3e040c6c	0.12895364
174	0xbc843942	-0.016140584
175	0xbe36975c	-0.17831177
176	0x3e4cab15	0.19987138
177	0xbcea3100	-0.028587818
178	0x3e2562d1	0.16150977
179	0x3d9f7f3e	0.077879414
180	0xbb3304aa	-0.0027316012
181	0xbe15db52	-0.14634445
182	0xbe16d282	-0.1472874
183	0x3da8958b	0.08231648
184	0x3e0cfb02	0.13767627
185	0xbdedd2fd	-0.116125084
186	0xbd93d808	-0.07218939
187	0xbe25294e	-0.16129038
188	0xbd6e4031	-0.058166686
189	0x3e310bc8	0.1728965
190	0xbde160d1	-0.110047944
191	0xbda3138e	-0.07962714
192	0xbe1cd548	-0.15315735
193	0x3dcef4e4	0.10105303
194	0x3dbc882d	0.09205661
195	0xbd90dcb6	-0.07073347
196	0x3d5597c5	0.05214669
197	0x3e1d10e5	0.15338476
198	0x3e41d982	0.18930629
199	0xbd1dcc6e	-0.038525037
200	0xbd4c1577	-0.049825158
201	0x3e4785ca	0.1948463
202	0x3dd1efa8	0.10250789
203	0xbe2834c6	-0.16426381
204	0xbda4e4ab	-0.080514275
205	0xbbe5a3b7	-0.0070080417
206	0x3daa48d0	0.08314669
207	0xbe206c20	-0.15666246
208	0xbd8f8752	-0.07008232
209	0xbd638434	-0.055546
210	0x3e11f296	0.14252695
211	0x3cd86410	0.026414901
212	0x3e4295c3	0.19002442
213	0xbba70f04	-0.0050982255
214	0xbd8acc33	-0.06777229
215	0xbdad49a6	-0.08461313
216	0xbe3785b0	-0.17922091
217	0xbc0cb6cb	-0.008588503
218	0xba947f80	-0.0011329502
219	0x3e0c108d	0.13678189
220	0x3d68d217	0.056840982
221	0xbdd6feda	-0.10497828
222	0x3d990701	0.07472039
223	0x3d087a1e	0.033319585
224	0xbe5fe4d2	-0.21864632
225	0x3e494ea4	0.19658905
226	0xbdd4bbda	-0.10387392
227	0xbe1c8570	-0.15285277
228	0xbe376e5b	-0.17913191
229	0xbe203924	-0.15646797
230	0xbec29b44	-0.38009083
231	0xbf2ff09c	-0.68726516
232	0x3e84fda6	0.25974768
233	0xbd7b9ac3	-0.06142689
234	0xbddc5a9f	-0.10759472
235	0x3d975760	0.07389712
236	0x3e37a093	0.17932348
237	0xbd924817	-0.07142656
238	0xbd91c307	-0.07117277
239	0xbc067d2c	-0.008208554
240	0xbe30c613	-0.1726306
241	0xbd6487ec	-0.055793688
242	0x3e117804	0.14205939
243	0xbe528516	-0.20558581
244	0xbdbf704a	-0.09347589
245	0x3e21fc05	0.15818794
246	0x3e60cbc9	0.21952738
247	0xbe85d981	-0.26142505
248	0x3e4b2cd3	0.19841318
249	0x3d252f34	0.04032822
250	0x3d6abe01	0.057310108
251	0x3d07641f	0.033054467
252	0x3d29a9c3	0.041421663
253	0xbe09c84f	-0.13455318
254	0x3dce8a03	0.100849174
255	0xbd37686b	-0.044777315

model.encoder.node_encoder.0.4.bias f4 [24]
0	0xbe22f077	-0.15912043
1	0x3da41879	0.0801248
2	0x3d289d5f	0.041165706
3	0x3e3252c9	0.17414393
4	0x3d62e9d9	0.055398796
5	0x3d93ebb6	0.07222693
6	0x3e147928	0.14499342
7	0x3dd8e8b0	0.105912566
8	0xbe2b06ee	-0.16701862
9	0x3dffb31b	0.124853335
10	0xbe5d3ab7	-0.21604429
11	0xbe13f215	-0.14447816
12	0xbd845dff	-0.06463241
13	0xbe3b5835	-0.18295367
14	0xbda2801c	-0.07934591
15	0xba4abb17	-0.0007733567
16	0xbdae5d9f	-0.085139506
17	0x3e438d97	0.19096981
18	0xbe1b6dcc	-0.15178603
19	0x3da95dfe	0.08269881
20	0xbdaca082	-0.08429052
21	0x3d82d9d9	0.063892074
22	0xbc8c5c30	-0.017133802
23	0x3dba97c9	0.09110982

model.encoder.node_encoder.0.6.weight f4 [24, 24]
0	0x3e375ce2	0.17906526
1	0x3e55b16d	0.20868464
2	0x3e8ffb89	0.28121594
3	0x3e901c03	0.2814637
4	0xbe69de64	-0.22838742
5	0x3e225f62	0.15856698
6	0x3e162852	0.14663818
7	0x3e333ab4	0.17502862
8	0xbdc47429	-0.09592468
9	0x3e3988b0	0.18118548
10	0x3ea458bb	0.32098946
11	0xbe147b8e	-0.14500257
12	0x3d628b7b	0.0553088
13	0xbe000907	-0.12503444
14	0x3d832382	0.06403257
15	0xbdc60d64	-0.09670523
16	0x3e2cded5	0.16881879
17	0xbdce0719	-0.100599475
18	0xbde3bdb5	-0.11120168
19	0x3d28457f	0.0410819
20	0x3d499909	0.04921821
21	0x3dc90cf5	0.098169245
22	0xbe232827	-0.15933286
23	0x3e2f72e7	0.17133676
24	0xbbcb3d9e	-0.0062024137
25	0xbc063802	-0.008192064
26	0xbe2f9c3a	-0.1714944
27	0x3cc905a2	0.024538819
28	0x3e0fa07d	0.14026065
29	0x3d49b33e	0.049243204
30	0xbe95a5ae	-0.29227966
31	0x3e76ac20	0.24089098
32	0x3e2671a0	0.16254282
33	0x3c7e983b	0.015539224
34	0xbdcfe8d5	-0.10151831
35	0xbc4460c2	-0.0119859595
36	0xbe010b73	-0.12602024
37	0xbe897f19	-0.2685478
38	0x3e840b86	0.25790042
39	0x3db636d1	0.08897174
40	0x3dd75856	0.105148956
41	0xbe20e33b	-0.15711682
42	0x3e274acf	0.16337131
43	0x3ddfabf5	0.1092147
44	0x3de7d9a5	0.11320809
45	0xbe70f019	-0.2352909
46	0xbdf825ed	-0.12116609
47	0x3c8ab625	0.016932556
48	0x3ddd1edf	0.10796904
49	0xbcf501cf	-0.029908089
50	0x3d76ed2c	0.06028478
51	0xbe8347fc	-0.25640857
52	0xbe498d98	-0.1968292
53	0x3e46bd1d	0.19408078
54	0xbe0d7b8e	-0.13816664
55	0x3c42928e	0.011875762
56	0xbe2af1e3	-0.16693835
57	0xbe5175f0	-0.20455146
58	0x3d934630	0.071911216
59	0xbe8ec23e	-0.2788257
60	0x3c27159b	0.010198022
61	0xbe54bb2d	-0.20774527
62	0x3cc63f11	0.024199994
63	0x3ca6add5	0.020346561
64	0xbddc1879	-0.10746855
65	0xbe661664	-0.22469479
66	0xbebde754	-0.37090552
67	0x3d967887	0.073472075
68	0xbd912e77	-0.070889406
69	0x3e68c03b	0.2272958
70	0x3dde47f4	0.10853568
71	0xbd78dc4b	-0.060756963
72	0xbd81883e	-0.06324814
73	0xbe1e48fa	-0.15457526
74	0x3d888593	0.06666102
75	0xbe045bba	-0.12925616
76	0xbe1145a5	-0.14186724
77	0x3db292ca	0.08719404
78	0x3da2abd7	0.07942932
79	0x3d9f5671	0.07780159
80	0xbd799b97	-0.060939398
81	0xbd888abb	-0.06667086
82	0x3e8daa40	0.27668953
83	0x3e7ba1de	0.24573466
84	0xbdddb8be	-0.108262524
85	0x3e397719	0.18111838
86	0x3e4a39fd	0.19748683
87	0xbe38ad26	-0.18034801
88	0xbd206625	-0.039159913
89	0xbb3d5d7b	-0.002889483
90	0xbd08905f	-0.033340808
91	0x3e004104	0.12524801
92	0xbdeb5b9a	-0.11492081
93	0x3e39473e	0.18093583
94	0x3dbf7444	0.09348348
95	0xbe437b3d	-0.1908998
96	0x3dd6ad47	0.10482269
97	0xbd423c69	-0.047420893
98	0xbd046de8	-0.032331377
99	0x3c7c75a2	0.015408905
100	0x3e2c4394	0.16822654
101	0xbe09e2a6	-0.13465366
102	0xbdf7a247	-0.12091499
103	0x3d266cb1	0.040631
104	0x3cc65982	0.024212603
105	0xbe1055aa	-0.14095178
106	0x3b89eb9e	0.004208996
107	0xbe4e732c	-0.20161122
108	0xbe7f99fa	-0.24961081
109	0xbe092fcf	-0.13397144
110	0x3d62e336	0.055392466
111	0xbc6b9f2a	-0.014381209
112	0x3de2aa52	0.11067642
113	0xbd947270	-0.0724839
114	0x3e408bd4	0.1880334
115	0x3d81c854	0.06337038
116	0x3e119bd3	0.14219598
117	0xbe0ebe1b	-0.13939707
118	0xbe1485d9	-0.14504184
119	0x3e6aec65	0.2294174
120	0xbe576aeb	-0.2103688
121	0xbe2c1e69	-0.16808476
122	0xbdfb7a0d	-0.12279139
123	0x3d8544cb	0.06507262
124	0xbdce6820	-0.10078454
125	0x3df1d87c	0.11808869
126	0xbe637790	-0.22213578
127	0x3cf53816	0.02993397
128	0xbd586ec0	-0.052839994
129	0x3e6565a5	0.22402056
130	0xbe13c20e	-0.14429495
131	0xbde7b1fd	-0.113132454
132	0xbe78c56e	-0.24294063
133	0x3cc8639c	0.02446156
134	0xbd03a67c	-0.032141194
135	0x3eaa80ad	0.33301297
136	0x3dd8bf10	0.10583317
137	0xbe16c0a2	-0.14721921
138	0x3b339291	0.0027400593
139	0xbe617e3f	-0.22020815
140	0x3e3a0d75	0.18169196
141	0xbd154a5c	-0.036447868
142	0xbe04284e	-0.12906
143	0x3e0e39b0	0.13889194
144	0xbdb0138d	-0.08597479
145	0xbdac29be	-0.08406399
146	0xbe4a9a68	-0.19785464
147	0xbdf7671b	-0.12080213
148	0x3e28f466	0.1649948
149	0x3e33048a	0.174822
150	0x3e5e8df2	0.21733835
151	0xbe0e95b6	-0.13924298
152	0xbd00ee32	-0.03147716
153	0x3e8ab440	0.27090645
154	0x3de47db5	0.11156789
155	0xbc8e66dd	-0.017383033
156	0xbca9416e	-0.020661082
157	0x3db40160	0.08789325
158	0x3e1a5b37	0.15073858
159	0x3e414b23	0.18876319
160	0x3dad54c2	0.08463432
161	0x3d8d3348	0.06894547
162	0x3e4ce16b	0.20007865
163	0xbe57ad3c	-0.21062177
164	0xbd9a849f	-0.07544827
165	0xbce59e76	-0.028029662
166	0xbd856e46	-0.065151736
167	0xbcf8fe61	-0.030394735
168	0xbda0a325	-0.07843617
169	0x3e53df70	0.20690703
170	0xbdf659fb	-0.12028881
171	0x3de94e32	0.11391868
172	0xbd8f7374	-0.07004443
173	0x3b0812a3	0.0020763061
174	0x3e05aea7	0.13054906
175	0x3db31134	0.087435156
176	0xbdab3a39	-0.083607145
177	0x3dc32d7b	0.09530159
178	0x3e129841	0.14315893
179	0x3dae86ab	0.085217796
180	0xbdf19a62	-0.11797024
181	0xbe6b8baa	-0.23002496
182	0xbdc2b1a0	-0.095065355
183	0xbe2179a7	-0.15769063
184	0xbddce0cd	-0.10785065
185	0xbcbe6a50	-0.023244053
186	0xbd3d5793	-0.046226095
187	0x3de4e6e4	0.111768514
188	0xbe07287b	-0.13199036
189	0xbbfe5bfa	-0.0077624293
190	0x3e2b477e	0.16726491
191	0xbe305fd5	-0.17224057
192	0xbdbaa2c6	-0.09113078
193	0x3c8e707f	0.017387627
194	0x3e09f3be	0.13471887
195	0x3e1c3021	0.15252735
196	0xbd949f81	-0.072569855
197	0xbd1cc07b	-0.0382695
198	0xbcfb3b81	-0.030668022
199	0x3dbd72ac	0.092503875
200	0x3c84f9d0	0.016232401
201	0x3cd78013	0.026306188
202	0xbdaad60e	-0.08341609
203	0x3e11f2e6	0.14252815
204	0x3e86b542	0.26310164
205	0x3d6d6695	0.057959158
206	0xbcb4f2fc	-0.02208852
207	0x3c81d2cf	0.015847592
208	0x3e4563f9	0.19276418
209	0x3db212d0	0.086949944
210	0x3e0947c0	0.13406277
211	0x3b596924	0.003317424
212	0x3ceb252d	0.02870425
213	0xbc658ef7	-0.014011136
214	0x3d5bbba0	0.05364573
215	0xbe3fc851	-0.18728758
216	0xbdf4954e	-0.1194254
217	0x3de73fbc	0.11291453
218	0xbe0951d6	-0.13410124
219	0x3de174c6	0.11008601
220	0xbe65b513	-0.22432356
221	0xbe0532d3	-0.13007669
222	0xbcdbb712	-0.026820693
223	0x3d9d39e8	0.0767706
224	0xbe32251c	-0.17396969
225	0x3e5b92b3	0.2144268
226	0xbd1c21e6	-0.038118266
227	0xbe18fa77	-0.14939295
228	0xbdb417b8	-0.087935865
229	0xbea56169	-0.3230088
230	0x3cbff1a7	0.023430659
231	0x3e9e8052	0.30957276
232	0x3e6c9d2d	0.23106833
233	0xbdf416fa	-0.11918445
234	0xbe6b5898	-0.22983015
235	0x3e24e9d3	0.16104822
236	0x3e5c1a13	0.21494322
237	0x3dd6a792	0.1048118
238	0x3decb348	0.11557633
239	0x3d4f0058	0.050537437
240	0xbcb5aaef	-0.022176234
241	0xbd98f274	-0.07468119
242	0x3e2eefe4	0.17083699
243	0xbcfff113	-0.031242883
244	0xbe140443	-0.1445475
245	0xbdee10b2	-0.11624278
246	0xbe1b8b27	-0.15189801
247	0xbdb1bc87	-0.08678537
248	0xbdbc6807	-0.09199529
249	0xbdc4d16b	-0.09610256
250	0xbe8c2e3f	-0.27379033
251	0x3e5143fc	0.2043609
252	0xbdb29dbd	-0.087214924
253	0x3daf7f8f	0.08569252
254	0xbe0b0f89	-0.13580145
255	0x3cf7d813	0.0302544

model.encoder.node_encoder.0.6.bias f4 [24]
0	0xbe27b1ef	-0.1637647
1	0xbd8a8588	-0.0676375
2	0xbc7d7f19	-0.015472197
3	0xbe3e9b3a	-0.18613902
4	0xbe296ec3	-0.16546158
5	0x3daab522	0.083353296
6	0xbd6ba5f6	-0.05753132
7	0x3d3ac4c3	0.045597803
8	0xbe362b15	-0.17789872
9	0xbd54c33c	-0.051944003
10	0x3e2696d9	0.16268481
11	0x3dd7c1ee	0.10535036
12	0xbcacd95e	-0.021099743
13	0xbde4715b	-0.11154433
14	0xbdb49fd9	-0.08819551
15	0xbe0e8b19	-0.13920249
16	0xbdac9567	-0.08426934
17	0xbe117171	-0.1420343
18	0x3de3861b	0.11109563
19	0xbe189b3a	-0.14902964
20	0x3de04512	0.10950674
21	0xbe097b3b	-0.13425915
22	0xbb857a61	-0.0040734266
23	0xbd9ad577	-0.075602464

model.encoder.node_encoder.1.weight f4 [24]
0	0x3f8adc88	1.0848551
1	0x3f8f21fe	1.1182249
2	0x3f95b3e8	1.1695528
3	0x3f81c065	1.0136839
4	0x3f8185e9	1.0118991
5	0x3f8047e7	1.0021943
6	0x3f857b17	1.0428189
7	0x3f80084d	1.0002533
8	0x3f81bcc0	1.0135727
9	0x3f924e6b	1.1430181
10	0x3f80a822	1.005131
11	0x3f8035d4	1.0016427
12	0x3f87b557	1.0602216
13	0x3f88bf1a	1.068332
14	0x3f8b0c84	1.0863194
15	0x3f81f854	1.0153909
16	0x3f81ecfa	1.0150445
17	0x3f7e05de	0.992277
18	0x3f817d2b	1.0116323
19	0x3f83fc34	1.0311341
20	0x3f826aff	1.0188903
21	0x3f805d3e	1.0028455
22	0x3f8488b3	1.0354217
23	0x3f81b423	1.0133098
