model_collection/best_no_edge.pth (torch, 986874 bytes, 122 tensors)

model.encoder.node_encoder.0.0.weight f4 [64, 3]
0	0xbecdd77d	-0.40203467
1	0xbf0248fc	-0.50892615
2	0xbe0faa32	-0.14029768
3	0x3e4e143c	0.20124906
4	0x3d84eae3	0.064901136
5	0xbec5413a	-0.38526326
6	0xbf00474a	-0.5010878
7	0xbeb02422	-0.34402567
8	0x3e319b85	0.17344482
9	0xbeda5b03	-0.4264756
10	0x3ec6f6f8	0.38860297
11	0x3ebf8606	0.3740694
12	0xbed135ab	-0.40861258
13	0xbdb7d98f	-0.08977043
14	0xbe0b937a	-0.13630477
15	0xbe1e3d75	-0.15453131
16	0xbca7f4b1	-0.02050242
17	0x3e6e386e	0.23263714
18	0x3e8f341c	0.27969444
19	0xbe7f36b5	-0.24923213
20	0xbdbb89d0	-0.09157145
21	0xbef9504e	-0.4869408
22	0xbefee224	-0.49781907
23	0xbf89d6f5	-1.0768725
24	0x3e711935	0.23544772
25	0x3eda7861	0.42669967
26	0xbe91d7ae	-0.28484863
27	0xbebf4a51	-0.37361386
28	0x3ef0575e	0.46941656
29	0x3cb16d58	0.021658584
30	0x3d8e7e99	0.0695774
31	0xbe860e26	-0.2618267
32	0xbe13dcde	-0.14439723
33	0xbf12e562	-0.5738126
34	0xbd9f826b	-0.07788547
35	0xbf28b760	-0.6590481
36	0x3e2e492d	0.17020102
37	0x3e201578	0.1563319
38	0x3d85f950	0.06541693
39	0x3da04419	0.078254886
40	0x3e668dda	0.2251505
41	0xbe59759c	-0.2123627
42	0xbf12aebf	-0.5729789
43	0x3ee6eae7	0.4510109
44	0xbe1319ef	-0.14365362
45	0x3eaa7eea	0.33299953
46	0xbe49defc	-0.19713968
47	0x3db8fdb0	0.09032762
48	0x3ee912d8	0.4552219
49	0x3e9cd652	0.30632263
50	0xbdf6e5e4	-0.12055567
51	0x3eba7685	0.36418548
52	0x3e2a28a9	0.16617073
53	0x3e836e3e	0.25670046
54	0xbd653cea	-0.055966295
55	0xbe869822	-0.26287943
56	0xbe28be01	-0.1647873
57	0x3f121487	0.5706257
58	0xbe743279	-0.23847379
59	0xbf03368d	-0.5125511
60	0xbef49eee	-0.47777504
61	0x3e0d4b67	0.13798295
62	0x3dd21e5b	0.10259696
63	0x3da73bda	0.08165713
64	0x3d6246b0	0.055243194
65	0x3f07c776	0.5303873
66	0x3eb82c26	0.35971183
67	0x3e05d6ed	0.13070269
68	0x3ea97acc	0.331015
69	0x3dea5846	0.11442618
70	0xbdff2a20	-0.124592066
71	0x3ea93616	0.33049077
72	0x3f0f26ac	0.55918384
73	0x3df1cf34	0.11807099
74	0xbea98ad2	-0.33113724
75	0xbed1c5e6	-0.40971297
76	0xbe3a1348	-0.18171418
77	0x3f5d4496	0.8643278
78	0xbf08bd74	-0.5341408
79	0xbd9afb6e	-0.07567488
80	0xbf417eee	-0.75584304
81	0xbea387f3	-0.3193966
82	0xbf02c0cf	-0.5107545
83	0x3e332255	0.17493565
84	0x3e530a88	0.20609486
85	0xbc00649f	-0.00783649
86	0x3ec5b196	0.3861205
87	0x3d8c70d0	0.06857455
88	0x3ee80e6c	0.45323503
89	0x3f7ee2e2	0.99564946
90	0xbec30acd	-0.38094178
91	0xbd8dac52	-0.06917633
92	0x3f4d17da	0.8011452
93	0xbe414496	-0.1887382
94	0x3d795771	0.060874406
95	0xbed6eeea	-0.41979152
96	0x3e182d0c	0.14860934
97	0xb9eb6f82	-0.00044905773
98	0xbe29a408	-0.16566479
99	0xbe057960	-0.13034582
100	0x3dca7fdf	0.09887671
101	0xbe8cd572	-0.27506596
102	0x3e9ceb5a	0.3064831
103	0x3e7a3db5	0.24437602
104	0x3e31ca24	0.17362267
105	0x3ecfb602	0.40568548
106	0xbe999953	-0.2999979
107	0x3f01deb4	0.50730443
108	0x3ea2102e	0.3165297
109	0xbe5ae4f4	-0.21376401
110	0xbd2037d0	-0.039115727
111	0x3e881c85	0.2658426
112	0xbf12b22d	-0.57303125
113	0xbe0f1352	-0.13972214
114	0xbf034e26	-0.5129112
115	0xbd2f443c	-0.042789683
116	0x3f87eb1e	1.0618627
117	0x3e3d160c	0.18465441
118	0xbeb3d573	-0.35123786
119	0xbe82ad48	-0.25522828
120	0xbd0b8511	-0.03406245
121	0xbf0a5855	-0.54041034
122	0x3d1b1c47	0.037868764
123	0xbe7b0fa0	-0.24517679
124	0x3edf4049	0.43603733
125	0xbef6e81e	-0.48223966
126	0x3f0807f6	0.5313715
127	0xbe73b5b5	-0.23799784
128	0xbf11da81	-0.56974036
129	0xbe98a0e5	-0.29810253
130	0x3d812048	0.06304985
131	0xbf5fd945	-0.874409
132	0x3ee7d610	0.45280504
133	0xbe8a3036	-0.26989907
134	0xbf0f3ce3	-0.5595228
135	0xbe8320e4	-0.2561103
136	0xbefde8b3	-0.49591598
137	0x3e91e4ac	0.28494775
138	0xbe7d841a	-0.24757424
139	0xbf0a4690	-0.5401392
140	0xbf76dfa2	-0.96434987
141	0xbe888299	-0.26662138
142	0x3ee0379d	0.4379243
143	0xbf7587c0	-0.95910263
144	0x3ec3991c	0.3820275
145	0x3ce8e932	0.028431509
146	0xbe80cb05	-0.25154892
147	0xbe321ea2	-0.17394498
148	0x3f0a6a2a	0.54068244
149	0xbf379bbd	-0.7172201
150	0x3ef3979c	0.47576606
151	0xbe62986f	-0.22128461
152	0x3e887c1a	0.26657182
153	0x3ee3caff	0.4449081
154	0x3db85c38	0.09001964
155	0x3e9fe118	0.3122642
156	0xbf07803f	-0.52930063
157	0x3dd0b352	0.10190453
158	0x3f26cba6	0.6515449
159	0xbea703ba	-0.3262003
160	0x3e7f4c1d	0.24931379
161	0x3e1d5392	0.15363911
162	0xbe6a5e18	-0.22887456
163	0x3e9443c3	0.28957948
164	0xbe7e5a87	-0.24839221
165	0x3f0c77e1	0.5487042
166	0x3eed44bc	0.46341503
167	0x3ea28e28	0.31749082
168	0x3ed50310	0.416039
169	0x3dbd0788	0.09229952
170	0x3e822d5c	0.2542523
171	0x3f0516f6	0.5198816
172	0x3f0d2943	0.55141085
173	0xbebed3ca	-0.37270957
174	0x3dd765fa	0.10517497
175	0x3e3cb306	0.18427667
176	0xbeea1127	-0.4571621
177	0xbe123e58	-0.14281595
178	0xbd7be4e2	-0.061497577
179	0x3ef7eb08	0.48421502
180	0xbecfa700	-0.40557098
181	0xbe507473	-0.20356922
182	0x3f417fb7	0.755855
183	0xbd9b909d	-0.07595942
184	0xbc03443d	-0.008011875
185	0x3da0807a	0.07837005
186	0x3ef2256e	0.47294182
187	0xbe701a03	-0.23447423
188	0x3eb4bdaa	0.35300952
189	0x3e91b2ba	0.2845667
190	0x3e05d55d	0.13069673
191	0xbed1cb29	-0.4097531

model.encoder.node_encoder.0.0.bias f4 [64]
0	0xbddf3436	-0.1089863
1	0x3c8cff9c	0.017211728
2	0x3e6d1827	0.23153745
3	0xbe899ee1	-0.26879027
4	0x3f121f36	0.57078874
5	0x3ec0b4b9	0.3763788
6	0x3e925f72	0.28588444
7	0xbef1a228	-0.47194028
8	0x3e9368c0	0.28790855
9	0x3dcb69db	0.099323
10	0xbe1f4c12	-0.15556362
11	0x3e2459f5	0.16049941
12	0xbecad622	-0.39616495
13	0x3e78d43a	0.24299708
14	0xbe6ebb72	-0.23313692
15	0x3ee9df19	0.45678023
16	0x3eb54477	0.35403797
17	0x3ea8a6ed	0.32939854
18	0x3e9aa5e7	0.30204698
19	0x3e3bf7a4	0.18356186
20	0xbe313580	-0.17305565
21	0xbe019261	-0.12653495
22	0x3e4ad35d	0.19807191
23	0xbe4e994f	-0.2017567
24	0x3ddbb2e4	0.1072748
25	0x3dd6e88c	0.104935735
26	0x3f0739a0	0.52822304
27	0xbd47d66c	-0.048788473
28	0x3e7a5bbe	0.2444906
29	0x3edfc5c4	0.4370557
30	0x3e44556f	0.19173215
31	0xbea97071	-0.33093598
32	0x3f0c8a8d	0.5489891
33	0xbee05344	-0.43813527
34	0x3e8fff06	0.28124255
35	0x3f039c15	0.5141004
36	0x3f0aeaca	0.5426451
37	0xbf05c001	-0.522461
38	0x3e0940a9	0.13403572
39	0xbe72ed4f	-0.23723339
40	0xbd05e3c2	-0.03268791
41	0xbebcd0e9	-0.36878136
42	0x3e63905f	0.22223042
43	0x3d8f5bd2	0.06999935
44	0xbede499a	-0.4341553
45	0xbd860425	-0.06543759
46	0xbf131e1d	-0.57467824
47	0x3ebbd5eb	0.36686644
48	0x3e96ee7e	0.2947883
49	0xbe952704	-0.2913133
50	0xbe966ba2	-0.29378992
51	0xbecfcc56	-0.40585583
52	0xbefcb94d	-0.49360123
53	0xbdb219c9	-0.086963244
54	0x3e0a5711	0.13509776
55	0xbe8ce92c	-0.27521646
56	0xbe5c88d9	-0.21536578
57	0x3eb9a301	0.36257175
58	0xbf00745b	-0.50177544
59	0x3e04bd84	0.1296292
60	0x3f0160fd	0.5053862
61	0x3f066c4c	0.52509
62	0x3ec571ca	0.38563377
63	0xbe86e782	-0.263485

model.encoder.node_encoder.0.2.weight f4 [64, 64]
0	0xbbd11a41	-0.0063813035
1	0xbccddcf0	-0.025129765
2	0xbde6bde2	-0.11266686
3	0xbdf26fb2	-0.118377104
4	0x3d7cc984	0.061715618
5	0xbdf1615f	-0.1178615
6	0x3caf88eb	0.021427592
7	0xbd2699ed	-0.04067414
8	0xbb04ea58	-0.0020281281
9	0x3d63e011	0.05563361
10	0xbc8f7ff8	-0.017517075
11	0x3df3a361	0.118963964
12	0xbd18fff4	-0.03735347
13	0xbc0b6ed5	-0.008510311
14	0x3daa241e	0.0830767
15	0xbd81e139	-0.06341786
16	0xbe2cab97	-0.16862331
17	0x3da723e0	0.081611395
18	0x3c7ba4b0	0.015359089
19	0xbdd63eb8	-0.104611814
20	0xbcdfda31	-0.027325721
21	0xbdeb7736	-0.11497347
22	0x3bb74920	0.005593434
23	0xbde9abd0	-0.11409724
24	0xbdc159f6	-0.09440987
25	0x3d7c56e1	0.06160629
26	0xbd5bca28	-0.053659588
27	0x3ded3023	0.11581447
28	0xb9a0d739	-0.00030677931
29	0x3d3b028f	0.045656737
30	0x3c980d91	0.018561156
31	0x3d4e6813	0.05039222
32	0xbe08a4b8	-0.13344085
33	0xbd10f52d	-0.035390068
34	0xbe10fd69	-0.14159168
35	0xbde8ad2c	-0.11361155
36	0xbce07df0	-0.027403802
37	0xbdf5fb2d	-0.120107986
38	0xbdf4d1b2	-0.11954059
39	0xbdf1819e	-0.11792301
40	0x3cd83502	0.026392464
41	0x3deccfa5	0.115630426
42	0xbde8235e	-0.11334871
43	0x3dcb4fa1	0.099272974
44	0xbc5d9ba0	-0.013525873
45	0xbde62966	-0.11238365
46	0xbc29f6d6	-0.010373792
47	0xbd825537	-0.0636391
48	0xbd7c9898	-0.061668962
49	0xbdd43b0e	-0.10362826
50	0xbd6f34d0	-0.058399975
51	0x3db80826	0.08985929
52	0xbd09ada7	-0.033612873
53	0xbd69fcce	-0.05712586
54	0x3deed587	0.11661821
55	0xbd0c648f	-0.034275588
56	0x3cb1d190	0.021706372
57	0xbdd6f151	-0.10495246
58	0xbd6178f5	-0.055046994
59	0xbd81bd8d	-0.06334982
60	0x3dfb2c39	0.12264294
61	0xbb5963f7	-0.0033171156
62	0x3b58ec40	0.00330998
63	0xbdb81bc8	-0.08989674
64	0x3c93d0c8	0.01804389
65	0xbdb4f5d3	-0.0883595
66	0xbe236d38	-0.15959632
67	0x3cc47e8b	0.023986122
68	0xbd2f9e4d	-0.042875577
69	0x3d929877	0.071579866
70	0x3d6b8fc2	0.057510145
71	0xbd3c0024	-0.04589857
72	0xbc0a2f21	-0.008434088
73	0xbdb1c7ab	-0.08680662
74	0x3d98204b	0.074280344
75	0x3d929d8b	0.07158955
76	0x3c8bfba7	0.01708777
77	0x3ddd1a8c	0.10796079
78	0x3df9d604	0.12199023
79	0xbde34b02	-0.11098291
80	0x3db0ce58	0.08633107
81	0x3cedd045	0.029029975
82	0x3cccc30d	0.024995351
83	0xbc909af1	-0.017652007
84	0x3d132955	0.03592809
85	0xbcaa15c6	-0.020762336
86	0xbde5a15e	-0.11212419
87	0xbe4b19db	-0.19834082
88	0x3d81de26	0.063411996
89	0xbd50950e	-0.0509234
90	0xbdbf42f1	-0.0933894
91	0xbdb388f2	-0.087663546
92	0xbbc69e3f	-0.006061345
93	0x3b07b1ab	0.0020705264
94	0x3c61ab14	0.013773698
95	0x3d8fb779	0.070174165
96	0x3d411954	0.047143295
97	0xbca08813	-0.019596135
98	0x3d88ca92	0.06679262
99	0x3d15fa0b	0.036615413
100	0xbda0bd14	-0.07848564
101	0xbe0e6ceb	-0.13908736
102	0x3c43a670	0.011941537
103	0xbdbc42bf	-0.09192418
104	0xbd21d5ed	-0.039510656
105	0x3ca07362	0.019586269
106	0x3ce60cde	0.028082307
107	0xbda6ff5e	-0.08154176
108	0xbda66bdc	-0.08126041
109	0xbd2c2062	-0.04202307
110	0xbd9ef060	-0.07760692
111	0xbd31d58e	-0.043416552
112	0x3dacb117	0.08432215
113	0x3c9b2d01	0.018942358
114	0xbd6233a5	-0.055225033
115	0x3d95acbb	0.07308336
116	0xbd767cee	-0.060177736
117	0xbdd9191d	-0.10600493
118	0x3dc3a2df	0.095525496
119	0x3dfb67c8	0.12275654
120	0x3d7f943a	0.06239722
121	0xbc2059a9	-0.009787002
122	0xbc11eccc	-0.008906554
123	0x3c4c54e1	0.012471409
124	0xbcf9cba2	-0.030492608
125	0xbd990073	-0.07470789
126	0x3d3d9f46	0.046294473
127	0x3d48708b	0.048935454
128	0xbda41e44	-0.08013585
129	0x3c3a0127	0.011352814
130	0xbde8da96	-0.11369817
131	0x3d5424a2	0.05179275
132	0xbd84b1fd	-0.06479261
133	0xbdbc1302	-0.09183313
134	0xbd964d2c	-0.07338938
135	0xbc4583a0	-0.012055308
136	0xbdbb41df	-0.09143423
137	0xbddc0ee1	-0.107450254
138	0xbda7f024	-0.082001
139	0xbd952a42	-0.07283451
140	0x3e0df938	0.138646
141	0xbda39aef	-0.079885356
142	0x3df72b60	0.1206882
143	0xbdcdccfb	-0.100488625
144	0x3d200a7b	0.039072495
145	0x3d6cef69	0.057845507
146	0x3deaa040	0.114563465
147	0x3d2d1d0a	0.042264022
148	0xbddbff1a	-0.10742016
149	0xbc4d5260	-0.012531847
150	0x3d6dbae2	0.058039553
151	0x3dd8e2ce	0.105901346
152	0x3dcb6446	0.09931235
153	0xbdbf6b8a	-0.09346683
154	0xbdd2e464	-0.10297468
155	0x3da80aa6	0.08205156
156	0xbdb3fbb6	-0.087882444
157	0x3d571341	0.052508596
158	0xbe4f1329	-0.20222153
159	0x3defcbc9	0.11708791
160	0x3904d865	0.00012669114
161	0x3e45eb4f	0.19328044
162	0xbc9cf2f6	-0.019158822
163	0x3cc48ecc	0.023993872
164	0xbe055f38	-0.13024604
165	0xbdf3de4a	-0.11907633
166	0xbc1df638	-0.009641223
167	0xbd615f53	-0.05502255
168	0xbd789100	-0.060685158
169	0x3d861679	0.06547255
170	0xbd345f58	-0.04403624
171	0xbdc8cd19	-0.09804744
172	0x3cc1db25	0.023664067
173	0xbd1c96ec	-0.038229868
174	0x3d969d8a	0.07354267
175	0x3d908a79	0.070576616
176	0x3dad8f5f	0.084746115
177	0x3d7a5a98	0.061121553
178	0x3d4833e6	0.04887762
179	0x3da45cd8	0.08025521
180	0xbda5f4e9	-0.081033535
181	0xbd6e15e8	-0.05812636
182	0xbd051e2c	-0.032499477
183	0x3dcc038a	0.099616125
184	0x3d782142	0.060578592
185	0xbce7962a	-0.028269846
186	0x3c2b8478	0.010468595
187	0xbb3621a9	-0.002779106
188	0xbd41a1ca	-0.047273435
189	0x3d354b8b	0.044261497
190	0xbdf97771	-0.12180985
191	0xbda0f2d8	-0.07858819
192	0xbcb8d2a0	-0.022561371
193	0x3c9c71d4	0.019097246
194	0x3b9d9960	0.0048095435
195	0x3dbf3f3c	0.09338233
196	0xbcbb57b0	-0.022868961
197	0x3df23594	0.118266255
198	0x3d7a0432	0.061039157
199	0xbdc36b9c	-0.09542009
200	0x3d9ff120	0.07809663
201	0xbdd54a91	-0.10414613
202	0x3d65fbe3	0.05614842
203	0xbde4a8f8	-0.11165041
204	0x3db7444a	0.08948572
205	0x3ddd939f	0.10819172
206	0xbd4180e4	-0.04724206
207	0x3d4d1fcb	0.05007915
208	0xbcb4792f	-0.022030441
209	0xbdaf15aa	-0.08549054
210	0xbdde163b	-0.10844084
211	0xbda48a40	-0.080341816
212	0x3d3bf5e6	0.045888804
213	0x3d55037b	0.052005272
214	0xbd99d2b7	-0.07510894
215	0xbe0c7892	-0.13717869
216	0x3c59b2a2	0.013287218
217	0xbcde8fab	-0.027168116
218	0x3db0a5a3	0.08625343
219	0x3dfc94e7	0.12333088
220	0xbdf45064	-0.11929396
221	0x3d281092	0.041031428
222	0xbac1c31b	-0.0014782877
223	0xbdd3b8ff	-0.103380196
224	0x3d0eeae4	0.034891978
225	0x3dd842e1	0.10559631
226	0x3d969963	0.07353475
227	0x3da642ac	0.081181854
228	0xbc792064	-0.015205476
229	0x3d7bedce	0.061506085
230	0x3ddc8133	0.1076683
231	0x3d9d74ab	0.07688268
232	0x3d89d0dc	0.0672929
233	0xbd9599e3	-0.07304742
234	0xbdc67926	-0.09691076
235	0xbab94027	-0.0014133499
236	0xbd640908	-0.055672675
237	0x3d24db15	0.040247995
238	0xbda27df7	-0.07934182
239	0xbd95ccb5	-0.073144354
240	0x3d662103	0.056183826
241	0xbd05df78	-0.03268382
242	0xbd033a0a	-0.032037772
243	0xbd278b83	-0.040904533
244	0x3dde9a1f	0.1086924
245	0x3d984a50	0.07436049
246	0xbde52c81	-0.11190129
247	0x3d1131ff	0.03544807
248	0x3ccc606d	0.024948323
249	0x3ddd9dd1	0.10821117
250	0x3ddf1ff2	0.10894765
251	0x3ca80c84	0.02051378
252	0x3c535a0d	0.012899888
253	0x3d36dae1	0.044642333
254	0x3db770e5	0.0895708
255	0xbd161868	-0.03664437

model.encoder.node_encoder.0.2.bias f4 [64]
0	0xbc30768f	-0.010770454
1	0xbdd91581	-0.10599805
2	0xbdf4ff9a	-0.11962815
3	0xbd2d0c4a	-0.042248048
4	0xbd6f8900	-0.058480263
5	0x3d7ef06f	0.062241014
6	0x3cbb01a0	0.022827923
7	0x3d8e2b8a	0.06941898
8	0xbdb8735a	-0.090063766
9	0x3d1cda67	0.038294222
10	0xbcba97f4	-0.022777535
11	0xbd8ca5af	-0.06867539
12	0x3dd60635	0.10450403
13	0xbd6bc6d0	-0.05756265
14	0xbd001882	-0.031273372
15	0x3dadd22e	0.08487354
16	0xbdbb4491	-0.091439374
17	0xbdc01a86	-0.09380059
18	0x3d7b7f67	0.061400797
19	0x3de1bccf	0.110223405
20	0xbde4bdfc	-0.11169049
21	0xbd822b9e	-0.063559756
22	0x3defc7d0	0.11708033
23	0xbd9ef649	-0.07761819
24	0x3cc60ee4	0.024177022
25	0xbd107d1a	-0.035275556
26	0x3dd212c5	0.10257486
27	0xbd1576f9	-0.036490414
28	0xbdd0061b	-0.101574145
29	0xbdbb8886	-0.09156899
30	0x3cafe9cb	0.021473786
31	0xbdc04fbd	-0.09390209
32	0xbd5ec0ee	-0.05438321
33	0x3dc05eb9	0.09393067
34	0xbdc77cf6	-0.09740631
35	0xbd261482	-0.0405469
36	0x3b487282	0.003058583
37	0xbd868480	-0.06568241
38	0x3c38091f	0.011232643
39	0xbddd2242	-0.1079755
40	0x3d09f421	0.033680085
41	0x3dcfd26a	0.10147555
42	0xbc7c8b34	-0.015414048
43	0x3d8ec0ef	0.06970393
44	0xbd9afd0a	-0.075677946
45	0x3dbd23ce	0.09235345
46	0x3da2459d	0.07923434
47	0xbb3b6aa2	-0.0028597494
48	0xbcbb1543	-0.022837287
49	0xbdd446b4	-0.10365048
50	0xbc899743	-0.01679576
51	0x3e03f765	0.12887342
52	0xbdb9ff22	-0.09081866
53	0x3bb63b03	0.005561234
54	0xbd6b1d9c	-0.057401285
55	0xbda1eecc	-0.07906875
56	0x3c1b7edc	0.009490695
57	0x3de6f060	0.11276317
58	0xbc40b927	-0.011762894
59	0xbd8f9f60	-0.0701282
60	0xbc7a0374	-0.015259612
61	0x3df3cbc5	0.119041
62	0xbcf5abc0	-0.029989123
63	0xbdc97538	-0.09836811

model.encoder.node_encoder.0.4.weight f4 [64, 64]
0	0x3cc65935	0.02421246
1	0x3dd16959	0.102251716
2	0x3c180ecb	0.009280871
3	0xbd4ba747	-0.049720075
4	0xbd525758	-0.05135283
5	0x3d235b30	0.039881885
6	0xbd9b4acf	-0.07582628
7	0x3df4d4d1	0.11954654
8	0xb911a400	-0.00013889372
9	0x3d93009b	0.0717785
10	0xbd97538d	-0.07388983
11	0x3d497b92	0.04919011
12	0xbd2bbe9c	-0.041929826
13	0x3c91b1f0	0.017785043
14	0xbe373549	-0.1789142
15	0xbdb8ff04	-0.09033015
16	0xbddfa993	-0.109210156
17	0xbde73383	-0.11289122
18	0x3db00589	0.08594806
19	0x3e01e2c4	0.1268416
20	0x3d955013	0.072906636
21	0x3d5a34eb	0.053273123
22	0xbd7954d8	-0.06087193
23	0x3dba5f5c	0.091002196
24	0x3dc98c3e	0.09841202
25	0xbd036d23	-0.032086503
26	0x3d13efbc	0.0361173
27	0xbd00c213	-0.031435084
28	0xbdc56245	-0.09637884
29	0x3dd3d20c	0.10342798
30	0x3d9302be	0.071782574
31	0xbdffc05b	-0.12487861
32	0x3d78c973	0.060738992
33	0x3d8acbd7	0.067771606
34	0x3acfb004	0.0015845303
35	0x3d28e40b	0.041233104
36	0xbd410dfd	-0.04713248
37	0x3de7bb88	0.113150656
38	0xbde13837	-0.1099705
39	0x3d06e63a	0.032934405
40	0xbd794aa4	-0.0608622
41	0xbda0d146	-0.07852416
42	0xbdbc2a5e	-0.091877684
43	0xbd5b568e	-0.05354934
44	0xbdb06297	-0.086125545
45	0xbd4e40bd	-0.050354708
46	0x3da1fe28	0.079098046
47	0xbcfe1585	-0.03101612
48	0xbda9eb3a	-0.08296819
49	0x3dc4629c	0.09589121
50	0x3d35f334	0.04442139
51	0x3aaa617f	0.0012999027
52	0xbde35f32	-0.111021414
53	0xbe6b215a	-0.22961941
54	0xbd1046e8	-0.03522387
55	0xbd952776	-0.07282917
56	0xbd9ea0a1	-0.07745481
57	0xbd896bfa	-0.06710048
58	0x3d7955ff	0.060873028
59	0xbd82e03e	-0.06390427
60	0x3e03d355	0.12873586
61	0x3d0a70aa	0.03379885
62	0xbc75f530	-0.015012071
63	0x3d12336f	0.035693582
64	0x3a556a00	0.00081411004
65	0xbdbc2ac0	-0.091878414
66	0xbdcc68d0	-0.09980929
67	0xbde52317	-0.111883335
68	0xbdd7d012	-0.10537733
69	0xbda31667	-0.07963257
70	0xbdef036b	-0.11670574
71	0x3d95f8ec	0.07322869
72	0xbc11ae70	-0.008891687
73	0x3dce3cf2	0.10070218
74	0x3cdd7058	0.027031109
75	0x3d71cd00	0.059033394
76	0xbdb9dc6e	-0.09075247
77	0x3d7d9258	0.061907142
78	0x3d6a8a12	0.05726058
79	0xbd45eac8	-0.048319608
80	0x3daa9e0e	0.08330928
81	0x3de8e4dc	0.113717765
82	0xbdd3ec62	-0.10347821
83	0xbdf26d24	-0.11837223
84	0x3df439a5	0.11925057
85	0xbcf5bcd9	-0.029997276
86	0xbd3fb15c	-0.046800002
87	0x3dc75f74	0.09735003
88	0xbad0fcff	-0.0015944539
89	0x3d8cc518	0.0687353
90	0x3b8b7f00	0.004257083
91	0xbd46e674	-0.04855962
92	0x3d900c76	0.07033627
93	0xbd175d6f	-0.03695434
94	0xbdfb8317	-0.12280863
95	0x3d9bae72	0.07601632
96	0x3dbc1f1c	0.09185621
97	0x3d9eb1aa	0.077487305
98	0xbd69fcb8	-0.057125777
99	0xbcc62818	-0.02418904
100	0xbd4ab1a0	-0.049485803
101	0xbd8b1e70	-0.06792915
102	0x3dfb0e60	0.12258601
103	0xbde0a8c6	-0.10969691
104	0xbc3ab264	-0.011395071
105	0xbcb7fe8b	-0.022460243
106	0x3d20a884	0.03922321
107	0xbded2010	-0.11578381
108	0x3bed5cad	0.007243714
109	0xbd7e6914	-0.06211193
110	0x3d4b52d8	0.049639553
111	0x39646030	0.00021779607
112	0xbdf951a8	-0.12173778
113	0x3c8b1e08	0.016982093
114	0xbda90944	-0.082537204
115	0xba1ad900	-0.00059069693
116	0xbd759610	-0.059957564
117	0x3d0120cc	0.03152542
118	0x3d52ac44	0.051433817
119	0x3d8fc122	0.07019259
120	0x3d0dd105	0.034623165
121	0xbdfb8232	-0.12280692
122	0xbdb5fa5c	-0.08885643
123	0x3c0e78e0	0.008695811
124	0xbd7b5248	-0.061357766
125	0x3dd5446d	0.10413442
126	0xbc0eebf0	-0.008723244
127	0x3d811a0f	0.063037984
128	0xbdb38126	-0.087648675
129	0x3d9b979e	0.07597278
130	0x3cab591e	0.020916518
131	0x3d7bb831	0.061454955
132	0x3dce662e	0.10078083
133	0xbdfc05e7	-0.12305813
134	0xbe00cfe5	-0.12579305
135	0xbde5a5ba	-0.112132505
136	0x3d81570a	0.063154295
137	0x3dcca62b	0.099926315
138	0x3ce9139b	0.028451731
139	0x3de03cb1	0.10949076
140	0x3cfa6f74	0.030570723
141	0x3ba50ac0	0.005036682
142	0x3d676247	0.05649021
143	0xbdb8e274	-0.090275675
144	0xbc4d729d	-0.012539533
145	0xbd29d8c6	-0.041466497
146	0x3d80428b	0.06262692
147	0x3d96dc1b	0.073662005
148	0xbce8530c	-0.028359912
149	0xbda8e164	-0.08246115
150	0x3da9621d	0.08270667
151	0x3df85579	0.121256776
152	0xbd1322bf	-0.03592181
153	0x3dbee1f9	0.093204446
154	0x3cebdb86	0.0287912
155	0x3de10651	0.10987533
156	0x3d796445	0.06088664
157	0xbd83ff7d	-0.06445215
158	0xbdfc764b	-0.1232725
159	0x3d5c9257	0.053850498
160	0xbd1eec5d	-0.038799632
161	0xbc98783f	-0.018612025
162	0xbb1017ab	-0.0021986763
163	0x3d7444dd	0.059635986
164	0x3c4aff71	0.012390004
165	0x3d6ffea3	0.05859245
166	0x3c914b0e	0.017735984
167	0x39fe17e6	0.0004846446
168	0xbd214d3e	-0.039380305
169	0x3bc809f5	0.0061047026
170	0x3d27a04c	0.040924355
171	0xbdf21caf	-0.11821877
172	0x3c4ef543	0.012631717
173	0x3df437d7	0.11924713
174	0x3c2b878c	0.010469329
175	0x3df883a1	0.12134481
176	0xbd0ea480	-0.03482485
177	0x3ddbe12c	0.107363075
178	0xbcd41860	-0.02589053
179	0x3cca4666	0.024691772
180	0x3dbebfb1	0.09313906
181	0xbb271716	-0.0025495938
182	0x3ca7c4b4	0.020479538
183	0xbdb7dfea	-0.08978255
184	0x3c8c1fb3	0.01710496
185	0xbd6a2b4c	-0.057170197
186	0x3d2f4826	0.042793415
187	0x3c0116ff	0.007879018
188	0x3d70533d	0.058673132
189	0x3df1498d	0.11781607
190	0x3d2687c0	0.040656805
191	0x3dff1f4d	0.12457142
192	0x3d7d0581	0.061772827
193	0xbda3696f	-0.07979094
194	0x3ddc7c8a	0.107659414
195	0xba9463b8	-0.0011321222
196	0xbdf32b38	-0.11873478
197	0x3de2cbab	0.11074003
198	0x3d8c14bf	0.068398945
199	0xbd957710	-0.072981
200	0xbd457fbc	-0.04821752
201	0x3dab9a8c	0.08379087
202	0xbd770f30	-0.06031722
203	0xbcdfa0b4	-0.027298309
204	0x3d91c88a	0.07118328
205	0xbcfa1a88	-0.03053023
206	0xbdc54540	-0.09632349
207	0x3de0da44	0.10979131
208	0xbe236db5	-0.15959819
209	0xbdad6185	-0.08465866
210	0x3d50da2f	0.050989326
211	0x3c97554d	0.018473292
212	0x3c4c4338	0.012467198
213	0x3c03f884	0.008054856
214	0xbdf11ea7	-0.117734246
215	0xbde1a099	-0.1101696
216	0xbd56041b	-0.05225001
217	0x3db202cd	0.086919405
218	0xbdbc5ebf	-0.09197759
219	0x3d1e0e56	0.03858789
220	0x3db16761	0.08662296
221	0x3c5fbe1a	0.013656164
222	0x3c6361f7	0.013878337
223	0x3d9632e2	0.07333924
224	0xbc8fce15	-0.017554322
225	0x3b742b7a	0.003725736
226	0xbddf44e1	-0.109018095
227	0x3dff1e3a	0.12456937
228	0xbc901011	-0.017585786
229	0xba4d750e	-0.0007837572
230	0xbde4f356	-0.11179225
231	0xbd4f7855	-0.050651867
232	0xbc03ce70	-0.008044824
233	0xbdf1e158	-0.11810559
234	0xbd863e83	-0.06554892
235	0x3c95b032	0.018272493
236	0xbd1e7143	-0.038682234
237	0x3db4a29f	0.0882008
238	0x3c10ca17	0.0088372445
239	0xbc7bb2d2	-0.015362458
240	0x3dcd58b3	0.10026684
241	0x3dbba982	0.091631904
242	0xbaedc600	-0.0018140674
243	0xbdc57464	-0.096413404
244	0x3de3dbeb	0.111259304
245	0xbcf0b2c6	-0.02938212
246	0x3b9da5f1	0.0048110415
247	0xbd5acf74	-0.0534205
248	0xb9c08663	-0.0003672122
249	0x3d82bdb9	0.06383843
250	0x3d3f1ead	0.046660114
251	0x3b58d8b1	0.0033088143
252	0x3d5ddaee	0.054163866
253	0xbbf222e7	-0.0073894146
254	0xbcce5df8	-0.025191292
255	0xbca133e3	-0.019678062

model.encoder.node_encoder.0.4.bias f4 [64]
0	0x3d960297	0.07324713
1	0xbd894555	-0.06702677
2	0x3dde880f	0.10865795
3	0xbde6bf5d	-0.112669684
4	0xbd8c1c05	-0.06841282
5	0x3d95692f	0.07295453
6	0x3d4441eb	0.047914427
7	0xbd90b374	-0.07065478
8	0xbdb71609	-0.0893975
9	0x3dd38911	0.10328878
10	0x3d3b7add	0.04577147
11	0x3dd2208d	0.10260115
12	0xbd814371	-0.063116916
13	0xbdad15ac	-0.08451399
14	0xbd328fb3	-0.043594074
15	0x3dd85c19	0.10564441
16	0x3d268532	0.04065437
17	0x3d73148c	0.059345767
18	0xbbd61017	-0.00653268
19	0x3d251b5f	0.040309306
20	0xbdabf7b2	-0.083968535
21	0x3d0bc017	0.034118738
22	0xbd83909e	-0.06424068
23	0xbdfefb5e	-0.12450288
24	0xbddc70cb	-0.10763701
25	0x3d19fac4	0.037592664
26	0xbddb3ae1	-0.1070459
27	0x3d673fc8	0.05645731
28	0x3b98c99f	0.004662707
29	0x3c3ad92f	0.01140432
30	0x3d7f0cb9	0.062267993
31	0xbd82a16e	-0.063784465
32	0xbdcd43d0	-0.100227
33	0xbd5e613a	-0.05429194
34	0xbd52476c	-0.051337644
35	0xbd6dd9a0	-0.05806887
36	0x3dd37036	0.10324137
37	0x3dc5760c	0.09641656
38	0xbe0771fd	-0.13227077
39	0xbd849a1d	-0.06474707
40	0xbdb9927a	-0.09061141
41	0x3d9c1c7d	0.07622621
42	0xbd7ffa38	-0.062494487
43	0x3dc1b2ab	0.09457906
44	0xbdd919d1	-0.10600627
45	0xbd55ec54	-0.052227333
46	0xbc85cd6b	-0.016333302
47	0x3e02e3fe	0.12782285
48	0xbdc753c5	-0.09732775
49	0x3d8a224a	0.06744821
50	0xbdab49bd	-0.08363674
51	0xbdd5267d	-0.10407732
52	0xbcac4467	-0.02102871
53	0x3d80c8e9	0.062883206
54	0xbd34ec83	-0.044170868
55	0x3cb65087	0.022255195
56	0xbdf3c7f0	-0.119033694
57	0x3de3e22d	0.11127124
58	0x3bc4482f	0.0059900503
59	0xbe01d969	-0.12680592
60	0xbdb615ad	-0.08890853
61	0x3c9cf9b2	0.019162033
62	0x3d7fa4f6	0.06241318
63	0xbd200a2c	-0.0390722

model.encoder.node_encoder.0.6.weight f4 [64, 64]
0	0xbd1c3516	-0.038136564
1	0xbcdc90c5	-0.0269245
2	0x3ac30a5d	0.0014880408
3	0x3d6e0c03	0.058116924
4	0x3e0fc946	0.14041623
5	0xbdd1cb19	-0.10243816
6	0xbd990818	-0.07472247
7	0x3caf7abc	0.021420829
8	0x3da788b8	0.08180374
9	0x3df3e14c	0.11908206
10	0xbdc58601	-0.096447
11	0xbc33fccc	-0.010985564
12	0x3e136401	0.14393617
13	0x3d76bcd8	0.06023869
14	0xbd798835	-0.060920913
15	0x3de1c111	0.110231526
16	0x3d12a6e2	0.035803683
17	0xbe00750b	-0.12544648
18	0xbe11c9e1	-0.14237167
19	0xbd15e082	-0.03659106
20	0x3dd4ccf6	0.10390656
21	0xbdd213af	-0.102576606
22	0x3dc1a437	0.094551496
23	0x3de819d8	0.11333054
24	0x3ba1caa3	0.0049374863
25	0x3df79f31	0.1209091
26	0x3c12899b	0.0089439405
27	0xbdebf9c1	-0.11522246
28	0xbdc2c55d	-0.095103
29	0x3d7dcdac	0.061963722
30	0x3c135487	0.008992321
31	0x3dc0b418	0.0940935
32	0xbddac800	-0.10682678
33	0xbd19b50b	-0.03752617
34	0xbcdaacf5	-0.0266938
35	0xbca59fd8	-0.020217821
36	0xbd7dd3c7	-0.061969545
37	0xbab8e3be	-0.0014105958
38	0xbd10d8de	-0.03536307
39	0x3d34f5ca	0.044179715
40	0xbbb25c91	-0.0054431637
41	0x3d78dcc8	0.06075743
42	0x3d859b50	0.06523764
43	0xbd85a6ab	-0.0652593
44	0xbd13fe38	-0.036131114
45	0x3d1ecd22	0.03876985
46	0x3db85d9a	0.09002228
47	0xbce17366	-0.027520847
48	0x3a9caf5f	0.001195412
49	0xbd7787fe	-0.060432427
50	0x3d0a1748	0.03371361
51	0x3d7a28a8	0.06107393
52	0x3d627a9e	0.055292718
53	0x3cb72bec	0.02235981
54	0x3de87984	0.11351302
55	0xbda4bfca	-0.08044393
56	0x3dae8156	0.085207626
57	0x3db2b5d6	0.08726089
58	0x3c6b70be	0.014370142
59	0x3d888164	0.06665304
60	0x3dcfee6c	0.10152897
61	0xbdcaa67f	-0.09895038
62	0xbc60a759	-0.013711774
63	0x3c8a7978	0.016903624
64	0xbd1f81a9	-0.038942013
65	0xbd06cba3	-0.032909047
66	0xbdc50287	-0.09619623
67	0x3c0ba59f	0.008523374
68	0x3ddd3211	0.10800565
69	0xbcc2d27f	-0.023782013
70	0x3d3883d1	0.045047585
71	0x3dccbccd	0.099969484
72	0x3c990839	0.018680679
73	0xbd849bcd	-0.06475029
74	0xbb1b95f7	-0.002374051
75	0xbd59ab8b	-0.05314211
76	0xbdbdc2f6	-0.092657015
77	0xbdf393ea	-0.11893447
78	0x3d330f23	0.043715607
79	0xbc2afe06	-0.0104365405
80	0x3cd7ae41	0.026328208
81	0x3d3863da	0.0450171
82	0x3dce7fd0	0.10082972
83	0x3d93aeb4	0.07211056
84	0x3d84a55b	0.064768516
85	0x3ddb5457	0.10709446
86	0xbddbeb73	-0.10738268
87	0x3ca46870	0.02006933
88	0x3e00aa54	0.12564975
89	0x3da656ae	0.081220016
90	0xbd96be9a	-0.07360573
91	0xbdf9c99e	-0.121966586
92	0x3d48632b	0.0489227
93	0x3d5eb1a9	0.05436865
94	0xbc6f4861	-0.014604659
95	0xbdc4db20	-0.09612107
96	0xbcf2bef8	-0.029632077
97	0xbd073e68	-0.0330185
98	0xbdc802e1	-0.09766174
99	0xbdaa669a	-0.08320351
100	0x3d9b5a0e	0.07585536
101	0x3d13092f	0.03589743
102	0xbd32d2d3	-0.04365809
103	0xbc23013f	-0.009949028
104	0x3d94b614	0.07261291
105	0x3cb320ba	0.021866191
106	0xbd9ca286	-0.076481864
107	0x3d035c06	0.032070182
108	0x3c2159e7	0.009848095
109	0x3db570f0	0.08859432
110	0x3b967ff2	0.004592889
111	0xbd8b8d18	-0.06814021
112	0xbdeda030	-0.11602819
113	0xbde03f72	-0.10949601
114	0xbc90e510	-0.01768735
115	0xbc04469e	-0.008073477
116	0x3ddaf4ad	0.106911995
117	0x3dceae8b	0.10091885
118	0xbddbd994	-0.10734859
119	0xbdf60318	-0.12012309
120	0x3dfb2a58	0.12263936
121	0xbbd95b89	-0.0066332263
122	0x3d591bd1	0.053005043
123	0xbdbdce2d	-0.092678405
124	0x3d9f5454	0.07779756
125	0xbdde602c	-0.10858187
126	0xbde2d3f7	-0.11075585
127	0xbdf5618f	-0.119814985
128	0x3d62252a	0.055211224
129	0xbdc6ce5c	-0.09707329
130	0xbc927edb	-0.017882755
131	0xbc955323	-0.01822812
132	0x3caf3b26	0.021390509
133	0xbd806870	-0.0626992
134	0xbdacfd8c	-0.08446798
135	0x3d6b32d4	0.05742152
136	0xbd97ef47	-0.074186854
137	0x3cecfe37	0.028929813
138	0x3ded7ff5	0.115966715
139	0x3dd0cbe9	0.10195143
140	0x3da9c281	0.08289052
141	0x3de8bb0a	0.113638
142	0x3cad694d	0.021168375
143	0x3dcc6b67	0.09981423
144	0xbdab814b	-0.0837427
145	0x3db54fae	0.08853088
146	0x3d9ba20c	0.07599267
147	0xbd5c5d3b	-0.05379985
148	0x3da08e7d	0.078396775
149	0x3d1a4419	0.0376626
150	0x3dc4c1ad	0.09607253
151	0x3dbe5b40	0.09294748
152	0xbccb1089	-0.024788158
153	0x3d4d9cb3	0.05019827
154	0xbd5bfe89	-0.05370954
155	0x3dd716ba	0.105023816
156	0x3dd78629	0.10523636
157	0x3e04dc86	0.12974748
158	0xbe0064c9	-0.12538446
159	0x3da41682	0.080121055
160	0xbd787d70	-0.0606665
161	0x3dc5c4f8	0.096567094
162	0xbd438595	-0.047734816
163	0x3c87b5d8	0.016566202
164	0xbd119b3d	-0.035548437
165	0xbdc45004	-0.09585574
166	0x3e00a0fa	0.12561408
167	0xbdfca281	-0.12335683
168	0xbdbd6279	-0.09247298
169	0xbd9416ae	-0.07230888
170	0xbdc2f69f	-0.095196955
171	0x3cbce718	0.023059413
172	0x3dc8b2d5	0.097997345
173	0x3d81060f	0.06299984
174	0x3db05f9e	0.086119875
175	0x3dbb0ae4	0.091329366
176	0x3dfac4af	0.12244546
177	0x3db0149b	0.0859768
178	0xbddc1e7c	-0.10748002
179	0xbcff8de9	-0.031195598
180	0x39ca69ab	0.0003860717
181	0x3dd16fc1	0.102263935
182	0xbdaf34ad	-0.08554969
183	0x3d8fbf7c	0.070189446
184	0x3ca68eb8	0.020331725
185	0xbd05f6da	-0.03270612
186	0xbdec68ca	-0.115434244
187	0x3df4b456	0.11948459
188	0xbc7aff1d	-0.015319613
189	0x3d57500f	0.052566584
190	0xbc80f4f1	-0.015741797
191	0x3d8df1e4	0.069309026
192	0xbcaa7201	-0.020806314
193	0xbd7ef972	-0.06224961
194	0x3ca562f6	0.02018879
195	0xbc73861d	-0.014863518
196	0x3d93a91e	0.07209991
197	0xbd40b09c	-0.047043428
198	0x3dbbfa70	0.091786265
199	0xbd9ecd31	-0.07753981
200	0xbc41a143	-0.011818233
201	0x3d18b3ca	0.037280835
202	0xbdbaf299	-0.09128303
203	0x3d59fd47	0.05322006
204	0x3db9c5ec	0.09070954
205	0xbda21e02	-0.0791588
206	0x3b703e21	0.0036658125
207	0xbdf7bfb9	-0.12097115
208	0x3df6cea9	0.12051136
209	0xbde5a0ef	-0.11212336
210	0xbdca5096	-0.09878652
211	0xbc50822a	-0.012726346
212	0xbda0103c	-0.078155965
213	0x3d7d62c1	0.061861757
214	0x3ceff142	0.029289845
215	0xbd45cbe0	-0.048290133
216	0x3e0b0cb2	0.13579062
217	0xbc0215bb	-0.007939751
218	0x3d8aa18f	0.06769096
219	0xbc35b24e	-0.011089874
220	0x3d86d75f	0.065840475
221	0x3ce6ebd0	0.028188616
222	0x3d23d4f9	0.03999803
223	0xbd50a090	-0.050934374
224	0xbdd92c0c	-0.106041044
225	0xb90cd85a	-0.00013432038
226	0xbd1f892f	-0.038949188
227	0xbddf1bde	-0.10893987
228	0xbd18fa86	-0.037348293
229	0x3a447ad0	0.0007495107
230	0xbd8e4cea	-0.06948264
231	0x3c2d272c	0.010568421
232	0x3d92f740	0.071760654
233	0x3dd268cb	0.10273894
234	0x3c32d7ec	0.010915738
235	0xbd4b0197	-0.049562063
236	0xbd6493f2	-0.055805154
237	0xbd9bac88	-0.07601267
238	0xbdb2027b	-0.08691879
239	0xbdfbd66f	-0.12296759
240	0x3ca04879	0.019565808
241	0x3daf5ee0	0.08563018
242	0xba473f54	-0.0007600684
243	0x3b350571	0.0027621652
244	0x3def97bf	0.11698865
245	0x3dec9fa5	0.11553887
246	0x3a839ee9	0.0010041866
247	0xbd0661d4	-0.03280814
248	0x3c87ba38	0.016568288
249	0xbd841e81	-0.06451131
250	0xbdfa03a8	-0.122077286
251	0x3dadd2c4	0.08487466
252	0xbd9ff001	-0.07809449
253	0x3d95173f	0.072798245
254	0x3e0467f6	0.12930283
255	0xbcc7037a	-0.02429365

model.encoder.node_encoder.0.6.bias f4 [64]
0	0x3d87d20c	0.0663186
1	0x3d82db70	0.06389511
2	0x3cdfbccb	0.027311703
3	0x3df19658	0.11796254
4	0x3decb01f	0.1155703
5	0x3dddab67	0.10823708
6	0xbd241465	-0.040058512
7	0xbde5e764	-0.11225775
8	0x3da2f980	0.079577446
9	0xbca02593	-0.019549167
10	0xbb14495c	-0.0022626733
11	0x3dc85d86	0.09783463
12	0xbdbeab83	-0.09310057
13	0xbd5d8669	-0.05408326
14	0xbd017149	-0.031602178
15	0xba223994	-0.00061883894
16	0x3ded7851	0.11595214
17	0x3df97f95	0.121825375
18	0xbcad4298	-0.021149918
19	0xbd3e5f04	-0.046477333
20	0x3c73481c	0.014848735
21	0xbdbddbbc	-0.09270427
22	0xbd9388aa	-0.07203801
23	0xbde0b411	-0.10971845
24	0xbdfcd70b	-0.12345704
25	0xbdcec4e3	-0.10096147
26	0x3ab66c43	0.0013917763
27	0x3d0d514a	0.03450135
28	0x3d684dc8	0.056714803
29	0xbc397778	-0.0113199875
30	0xbdeb60bf	-0.11493062
31	0x3db30f41	0.08743144
32	0x3c8521f8	0.01625155
33	0x3ded5f63	0.11590459
34	0x3dc22737	0.09480136
35	0x3d57c383	0.05267669
36	0xbd7514b4	-0.059834197
37	0xbdb9a8ed	-0.09065423
38	0x3d671c80	0.056423664
39	0x3d6bea2e	0.057596378
40	0xbde5fcca	-0.11229856
41	0xbda4174e	-0.080122575
42	0xbc31e183	-0.010856989
43	0x3db3670a	0.087598875
44	0x3dfe3c4e	0.12413846
45	0xbc8a7f4e	-0.016906407
46	0x3de89d40	0.11358118
47	0xbbc2a4dd	-0.0059400634
48	0x3d40164b	0.04689626
49	0xbda54259	-0.080692954
50	0x3d569278	0.052385777
51	0x3ced656e	0.02897903
52	0xbde388e5	-0.11110095
53	0xbd4f0883	-0.050545227
54	0xbde6524a	-0.11246164
55	0x3d187e38	0.037229747
56	0x3dd479b4	0.103747755
57	0x3dbafaba	0.091298535
58	0xbd7d5fc3	-0.061858904
59	0x3db538e6	0.08848743
60	0x3d9b1a17	0.075733356
61	0x3d7b7da3	0.061399113
62	0x3d353122	0.04423631
63	0x3d8c13ca	0.06839712

model.encoder.node_encoder.1.weight f4 [64]
0	0x3f7fd548	0.99934816
1	0x3f7f4e47	0.99728817
2	0x3f806e11	1.003359
3	0x3f80588c	1.0027022
4	0x3f7f8bbc	0.9982259
5	0x3f805cd2	1.0028327
6	0x3f800928	1.0002794
7	0x3f80dc61	1.0067254
8	0x3f811b57	1.0086468
9	0x3f80f33b	1.0074228
10	0x3f80f32d	1.0074211
11	0x3f7f85eb	0.9981372
12	0x3f7f4f99	0.9973083
13	0x3f7f86a0	0.99814796
14	0x3f7f1492	0.9964076
15	0x3f7ff2cf	0.9997987
16	0x3f80c03f	1.0058669
17	0x3f7f2c35	0.9967683
18	0x3f7f80f4	0.9980614
19	0x3f7f2bdd	0.99676305
20	0x3f7ee265	0.995642
21	0x3f7f808c	0.9980552
22	0x3f7f1bd4	0.9965184
23	0x3f807005	1.0034186
24	0x3f7fce31	0.99924
25	0x3f80159d	1.0006596
26	0x3f800949	1.0002834
27	0x3f7edc17	0.9955458
28	0x3f7fda81	0.99942786
29	0x3f7f6b3c	0.99773
30	0x3f7ebc33	0.9950592
31	0x3f803bef	1.001829
32	0x3f80a3b4	1.0049958
33	0x3f800875	1.0002581
34	0x3f7f7aed	0.99796945
35	0x3f7f98bc	0.9984243
36	0x3f7fa5ae	0.9986218
37	0x3f7f60b3	0.99756926
38	0x3f805920	1.0027199
39	0x3f8044d2	1.0021002
40	0x3f7fc0d1	0.9990359
41	0x3f7f9f34	0.998523
42	0x3f804322	1.0020487
43	0x3f7f9e50	0.9985094
44	0x3f805392	1.0025504
45	0x3f7ee438	0.99566984
46	0x3f80425b	1.002025
47	0x3f7fe9b5	0.99965984
48	0x3f7f90bb	0.99830216
49	0x3f7fd4d8	0.9993415
50	0x3f7fc417	0.99908584
51	0x3f80af49	1.0053493
52	0x3f7fe25c	0.9995477
53	0x3f806233	1.0029968
54	0x3f7fd82c	0.9993923
55	0x3f80593f	1.0027236
56	0x3f7f8ccb	0.9982421
57	0x3f80258c	1.0011458
58	0x3f80a688	1.0050821
59	0x3f8071c4	1.0034719
60	0x3f80ac18	1.0052519
61	0x3f7f8c05	0.9982303
62	0x3f807e68	1.0038576
63	0x3f80e476	1.0069721

model.encoder.node_encoder.1.bias f4 [64]
0	0xbb53a0d5	-0.0032291908
1	0xbb98c049	-0.004661594
2	0xba9be0e7	-0.0011892588
3	0x39ea4eba	0.00044690614
4	0xbb1f6f83	-0.002432794
5	0xbad30ecb	-0.0016102431
6	0xbb2de814	-0.0026536034
7	0x3af025a1	0.0018321761
8	0xba007c08	-0.00049012946
9	0xb7a0182e	-1.9084746e-05
10	0xb653272f	-3.1464258e-06
11	0xbb5debe5	-0.0033862528
12	0x3b21ed80	0.0024708211
13	0x3af8567e	0.0018946675
14	0x3bd9a1f6	0.0066416217
15	0x3b0ecfe4	0.0021791393
16	0xbaf17395	-0.0018421287
17	0xbb58f3c9	-0.0033104292
18	0x3b551237	0.0032512078
19	0x3af2c300	0.0018521249
20	0x3b810e8b	0.0039385012
21	0x3b2636b7	0.0025362202
22	0x3b3ad48d	0.0028508038
23	0x3a7aad2c	0.0009562548
24	0x3b0ceef1	0.0021504725
25	0x3b77e457	0.003782531
26	0x3ada9740	0.0016677156
27	0xbb5b6770	-0.0033478402
28	0xbb4e961a	-0.0031522573
29	0xbac2aa51	-0.0014851784
30	0x3b521d0c	0.003206077
31	0xba4db611	-0.00078472594
32	0xbb4afaeb	-0.0030972313
33	0xbb111fc6	-0.0022144183
34	0xbb5e15d6	-0.0033887527
35	0x3a1cd97c	0.00059833354
36	0x3a84cf16	0.0010132517
37	0x3b41f7bd	0.0029597126
38	0xbb367dfa	-0.0027846084
39	0xba8c7227	-0.0010715172
40	0x3b0546eb	0.002033646
41	0x3b48711e	0.0030585001
42	0xbacb5570	-0.0015513133
43	0xbb5613f8	-0.003266571
44	0xba99d6a9	-0.0011736947
45	0x3b23ca5c	0.0024992442
46	0xb9d80d15	-0.00041208477
47	0xbaa7077e	-0.0012743322
48	0xbb005b9c	-0.0019585853
49	0xb928e90a	-0.00016108542
50	0xb927fbcd	-0.00016020164
51	0xba1c3c4c	-0.00059599127
52	0x3af512c6	0.0018697612
53	0x3b051df0	0.0020312034
54	0x3ac21ca5	0.0014809562
55	0x3aa508e2	0.0012591148
56	0xbae3f81d	-0.0017392669
57	0xba38fae9	-0.00070564315
58	0x386fb2d1	5.7148576e-05
59	0xb9a8a035	-0.0003216282
60	0x3b11e62e	0.0022262442
61	0xbb35a07e	-0.002771407
62	0xbbba8c60	-0.0056930035
63	0x38e8bf66	0.00011098273

model.processer_list.0.node_updater.0.0.weight f4 [64, 128]
0	0x3bc78950	0.006089367
1	0xbd572d85	-0.052533645
2	0xbcf6abf8	-0.030111298
3	0xbda051ef	-0.078281276
4	0xbd59e4d6	-0.05319675
5	0xbd718010	-0.05896002
6	0xbd84b46c	-0.06479725
7	0xbd481450	-0.048847497
8	0x3c9550cd	0.018227005
9	0xbdb0f376	-0.086401865
10	0x3da88053	0.08227601
11	0x3cd522a0	0.026017487
12	0xbd17b631	-0.037038986
13	0xbcf5f3ec	-0.030023538
14	0x3dbc9719	0.09208507
15	0x3d148b22	0.0362655
16	0x3cc95037	0.024574382
17	0x3d6e3598	0.05815658
18	0x3d6db210	0.05803114
19	0x3d12cc86	0.03583958
20	0xbd5fb2fd	-0.054614056
21	0x3d0ca26f	0.034334596
22	0x3d14c73c	0.036322817
23	0xbdc3a2bf	-0.09552526
24	0x3db1fa73	0.086903475
25	0x3cd981da	0.026551176
26	0x3c119f86	0.008888131
27	0x3d83c0d2	0.06433262
28	0xbd209f27	-0.03921428
29	0x3d338dd8	0.043836445
30	0xbcbe06df	-0.023196636
31	0x3d92f80d	0.07176218
32	0xbcdb5a3c	-0.026776426
33	0xbd911ab9	-0.07085175
34	0xbda02f5e	-0.078215346
35	0x3d6cd4bf	0.057820078
36	0xbd98705a	-0.07443304
37	0xbc5138c1	-0.012769879
38	0x3d2528e2	0.040322192
39	0xbcb23c9b	-0.021757415
40	0x3cbcff44	0.023070939
41	0x3da1f408	0.079078734
42	0xbb8fee80	-0.004392445
43	0x3d1a59e0	0.037683368
44	0x3c677dad	0.014129085
45	0x3d98673f	0.07441568
46	0x3c2dc039	0.0106049115
47	0x3b754a9a	0.00374285
48	0x3d052cbc	0.032513365
49	0xbda85c71	-0.08220757
50	0x3ce99bea	0.028516728
51	0xbd718724	-0.05896677
52	0x3d915795	0.07096783
53	0xbce900ed	-0.028442824
54	0xbd4c1bc4	-0.049831167
55	0x3d5b63b4	0.05356188
56	0x3d24d268	0.04023972
57	0xbcb3de37	-0.021956546
58	0xbd8cec0f	-0.06880962
59	0xbc2533c7	-0.010083145
60	0xbd2a8578	-0.041631192
61	0xbd6bcc7d	-0.057568062
62	0xbcfaf85d	-0.030636007
63	0xbb110334	-0.0022127153
64	0xbd94526f	-0.072422855
65	0xbd8e5b54	-0.06951013
66	0xbda7b067	-0.08187943
67	0xbd89c08a	-0.06726177
68	0xbd5fffd4	-0.054687336
69	0xbc106908	-0.008814104
70	0xbcbe3f4e	-0.023223545
71	0x3c3653ac	0.011128347
72	0x3cb36d5a	0.021902729
73	0x3a9c2ccb	0.0011915205
74	0xbc213884	-0.0098401345
75	0xbd50f801	-0.051017765
76	0x3d659118	0.056046575
77	0x3d190fab	0.037368458
78	0x3d5c2081	0.053741936
79	0x3cafd790	0.021465093
80	0xbd923748	-0.0713945
81	0xbd94958b	-0.072550856
82	0x3b8874ea	0.004164328
83	0x3c83f001	0.016105654
84	0x3ca9f364	0.02074594
85	0x3bcda815	0.0062761405
86	0xbd8e314e	-0.06942998
87	0x3c751dd8	0.014960729
88	0x3d957468	0.07297593
89	0x3d61daa2	0.055140145
90	0xbda04105	-0.078249015
91	0x3d194200	0.037416458
92	0xbd2c075d	-0.04199921
93	0xbdc1a169	-0.09454615
94	0xbd5466df	-0.051855918
95	0xb9f99098	-0.00047600712
96	0xbd596841	-0.05307794
97	0x3d8c0a75	0.06837932
98	0x3c598370	0.013275966
99	0x3d4cb3f5	0.049976308
100	0x3d1c191c	0.038109884
101	0x3ddba456	0.10724704
102	0x3c86daa6	0.016461682
103	0xbdad707d	-0.08468721
104	0x3d48245b	0.048862796
105	0xbd467f35	-0.048461158
106	0xbd4671b8	-0.048448294
107	0xbd118e34	-0.035536006
108	0xbdbf97ac	-0.09355101
109	0x3d5b0684	0.05347301
110	0xbda9c586	-0.08289628
111	0x3a7f3c25	0.000973644
112	0x3d83161e	0.06400703
113	0xb99472ad	-0.000283142
114	0x3d80f1c7	0.06296115
115	0xbc9f6dd2	-0.019461546
116	0xbc8013c0	-0.015634418
117	0x3d02a85d	0.031898845
118	0x3c10a5b9	0.008828574
119	0x3ba5bce9	0.0050579202
120	0x3c7847d5	0.015153845
121	0x3ceb9ab9	0.028760301
122	0x3cbdce4e	0.023169663
123	0x3d2be376	0.04196497
124	0xbce5d86d	-0.028057301
125	0xbbf773c8	-0.007551644
126	0x3d386b1d	0.045024026
127	0x3d3bf901	0.045891766
128	0x3c6087b3	0.013704228
129	0xbb8873d0	-0.0041641966
130	0xbdbeede4	-0.09322718
131	0xbd7e13dd	-0.06203066
132	0xbd3f01ba	-0.046632506
133	0xbdb40428	-0.08789855
134	0x3d3a47c9	0.045478616
135	0x3d3944be	0.045231573
136	0x3d2b8a3a	0.04187987
137	0xbcb92d6e	-0.02260467
138	0xbc63f7dc	-0.013914075
139	0xbdbbc034	-0.09167519
140	0xbd76d1e1	-0.06025875
141	0x3d124bd3	0.035716843
142	0x3d78f98f	0.060784873
143	0xbd7ac2a6	-0.061220787
144	0x3c8debd6	0.01732437
145	0x3ad6ddb8	0.0016392982
146	0x3cd82999	0.026387023
147	0xbd669533	-0.05629463
148	0x3d0420c8	0.032257825
149	0xbccd08b0	-0.025028557
150	0xbd11c1bd	-0.035585154
151	0xbd32171c	-0.04347907
152	0x3c13bfbd	0.009017882
153	0x3d79cd5e	0.06098687
154	0xbcd9d3ee	-0.026590314
155	0x3c6b9abf	0.014380156
156	0x3d6196fa	0.055075623
157	0xbd8414ca	-0.06449278
158	0xbca7a3ca	-0.020463843
159	0x3d24eb60	0.040263534
160	0xbbfb51b8	-0.0076696537
161	0x3d21e032	0.03952045
162	0xbcfd248c	-0.030901216
163	0x3d9781bb	0.07397791
164	0xbdbf1c64	-0.09331587
165	0x3d964725	0.073377885
166	0xbcb2889b	-0.021793654
167	0x3d937245	0.071995296
168	0x3d3f5d6d	0.046719957
169	0xbc179b78	-0.009253375
170	0x3c8f9de4	0.017531343
171	0x3d6087ea	0.054817118
172	0xbc594b8b	-0.01326264
173	0xbd226a91	-0.03965241
174	0xbd90125c	-0.07034752
175	0xbd4784e4	-0.04871072
176	0x3d83a92a	0.0642875
177	0xbdbc7b3a	-0.09203191
178	0xbc8987c1	-0.016788365
179	0x3c30ba6d	0.010786635
180	0xbd9c8fba	-0.07644601
181	0x3bd9284c	0.006627118
182	0x3d79d935	0.06099816
183	0x3cfbbce6	0.030729722
184	0x3d6c5cc1	0.057705645
185	0x3da36c10	0.07979596
186	0x3d8fc0c2	0.070191875
187	0xbca666f2	-0.02031276
188	0xbc4704a8	-0.012147106
189	0x3d923863	0.07139661
190	0xbdaf949b	-0.08573266
191	0x3d90ae1b	0.07064458
192	0xbd835069	-0.064118214
193	0xbbfd4e3a	-0.0077302726
194	0x3da50398	0.08057326
195	0xbc973565	-0.018458078
196	0xbd9519ad	-0.07280288
197	0xbd87ba5f	-0.06627344
198	0x3d384db3	0.044995975
199	0x3d6fee36	0.058576785
200	0xbda35df5	-0.07976905
201	0xbdba242f	-0.09088933
202	0xbd86f3d8	-0.06589478
203	0xbaf02169	-0.0018320504
204	0xbd4dc254	-0.050234154
205	0x3c9a157a	0.018809069
206	0x3d7b6bfc	0.06138228
207	0x3d835ad2	0.06413807
208	0xbcf7031d	-0.030152852
209	0xbd940ad9	-0.072286315
210	0xbca1c407	-0.019746793
211	0x3d8fec4f	0.07027494
212	0x3d903e99	0.070431896
213	0xbd9b2512	-0.0757543
214	0x3d846f90	0.06466591
215	0x3b6c625e	0.0036069374
216	0x3c612281	0.0137411365
217	0x3d98431c	0.07434675
218	0xbc824139	-0.015900241
219	0x3d1c562c	0.038168117
220	0xbd89c54d	-0.06727085
221	0x3da1fe92	0.079098836
222	0x3da3929c	0.07986948
223	0x3c054bfe	0.008135794
224	0xbd8a2991	-0.067462094
225	0xbdbdc049	-0.09265191
226	0xbc9ff718	-0.019527003
227	0x3c9a7151	0.018852862
228	0x3d9419aa	0.072314575
229	0x3cdd3fc4	0.027007945
230	0x3c52a68e	0.012857093
231	0xbd947777	-0.072493486
232	0x3d1d0f70	0.0383448
233	0x3dac2a88	0.0840655
234	0xbbf0d369	-0.007349421
235	0xbd9a11dd	-0.075229384
236	0xbdbe203c	-0.09283492
237	0xbd6975ba	-0.05699704
238	0xbd8c9e0d	-0.06866083
239	0xbd1a9d2c	-0.037747547
240	0x3da4fb33	0.08055725
241	0x3d347ba6	0.044063233
242	0x3d9cd9e2	0.07658745
243	0x3b93e15a	0.004512948
244	0xbcfd4289	-0.030915515
245	0xbd2c5c6c	-0.042080328
246	0xbd162e33	-0.036665153
247	0x3d8c5500	0.0685215
248	0xbd6f3dba	-0.058408476
249	0xbd9ce854	-0.076615006
250	0xbd3dadb5	-0.046308238
251	0x3d87db6f	0.066336505
252	0x3cc7d0e0	0.024391592
253	0x3d44fdd6	0.04809364
254	0x3d4b22fe	0.049593918
255	0xbd27c96f	-0.040963586

model.processer_list.0.node_updater.0.0.bias f4 [64]
0	0x3d5ee15e	0.054414146
1	0x3d982456	0.074288055
2	0x3d97c169	0.07409937
3	0x3d90b6b5	0.070660986
4	0x3d8820c4	0.066468745
5	0x3d65cba8	0.056102425
6	0xbd972091	-0.073792584
7	0xbd5d27d4	-0.05399306
8	0xbd860ebc	-0.06545779
9	0xbcde39bb	-0.027127137
10	0xbc662189	-0.014046081
11	0xbcb81eae	-0.022475567
12	0xbdaaf4ac	-0.08347449
13	0xbce827a5	-0.028339216
14	0xbd85c45e	-0.06531595
15	0x3d5ae466	0.053440474
16	0x3d669fa0	0.056304574
17	0xbb9c9e26	-0.004779595
18	0x3c19d0b6	0.0093881395
19	0x3d98e849	0.0746618
20	0x3daf212b	0.08551248
21	0xbcf8c598	-0.030367658
22	0x3cd9f7dd	0.026607448
23	0x3c670664	0.014100645
24	0xbd30e29f	-0.043184873
25	0x3d905f55	0.07049433
26	0xbd375437	-0.044758048
27	0x3d4c8efe	0.049941055
28	0x3d63c2bf	0.055605646
29	0xbceff164	-0.029289909
30	0xbacd0782	-0.0015642496
31	0x3b6dabe8	0.0036265794
32	0x3c0bfa44	0.008543555
33	0x3d9ddedc	0.07708523
34	0x3dab639d	0.08368609
35	0x3c7c848e	0.015412463
36	0xbd3e577b	-0.046470147
37	0x3b829cf6	0.0039859964
38	0x3b276785	0.002554388
39	0xbd1bcd59	-0.03803763
40	0xbd04a91d	-0.03238784
41	0x3d0d07e4	0.034431353
42	0xbd64a0e0	-0.055817485
43	0x3da9c6cc	0.082898706
44	0x3a4cbc3f	0.0007810033
45	0x3d6d9855	0.058006603
46	0xbd61faca	-0.05517081
47	0xbd804c0b	-0.06264504
48	0x3cdf2b68	0.027242377
49	0x3c781ca3	0.015143546
50	0x3d2742aa	0.04083506
51	0x3d61cecb	0.055128854
52	0x3cad6c05	0.021169672
53	0x3d20af7a	0.039229847
54	0x3d25ef86	0.04051163
55	0xbd61b59e	-0.055104844
56	0x3c8e9fcb	0.01741018
57	0xbd204763	-0.03913058
58	0x3d73f082	0.059555538
59	0x3d6fb2d7	0.058520164
60	0xbcc95731	-0.024577709
61	0x3d516d86	0.05112984
62	0x3d931c6a	0.07183154
63	0x3d268c2e	0.04066103
