checkpoint/simulator.pth (torch, 84476 bytes, 92 tensors)

model.encoder.edge_encoder.0.0.weight f4 [16, 1]
000000 28 31 5f be ac 0d 31 3f 28 a7 a2 be 64 d4 03 bf
       -0.21796095 0.69161487 -0.31768155 -0.5149596
000010 cc 3f bd 3e fe 4f 69 bf 10 03 e4 bd 40 bd ab bd
       0.36962736 -0.91137683 -0.111333966 -0.08385706
000020 84 b3 d9 3e 40 fd a3 bd 00 54 08 3b e4 d9 b3 be
       0.42519772 -0.08007288 0.002080202 -0.35127175
000030 18 5b a4 3e 4a e9 7d bf 7a 9d 3c 3f 5a 90 2d bf
       0.3210075 -0.99184096 0.7367779 -0.6779839

model.encoder.edge_encoder.0.0.bias f4 [16]
000000 28 06 5d 3e ea 77 0e bf 00 76 9f 3e 00 52 26 bb
       0.2158438 -0.55651724 0.31144714 -0.0025378466
000010 f6 c9 30 3f f0 b2 5b 3f 00 7b 87 be 30 d9 45 be
       0.6905817 0.8581991 -0.2646103 -0.19321132
000020 d6 ab 58 bf 4a 36 2e bf 9c e6 f5 3e 08 20 33 3f
       -0.846372 -0.6805159 0.48027503 0.6997075
000030 f8 59 47 bf c2 b1 03 3f a0 11 53 3e 64 3b 8b 3e
       -0.77871656 0.5144311 0.20612192 0.2719375

model.encoder.edge_encoder.0.2.weight f4 [16, 16]
000000 c0 67 19 bd 56 78 26 3e 34 93 f4 bd 50 db cd bd
       -0.03745246 0.16256842 -0.11942139 -0.10051596
000010 f0 2c 7f 3e f0 35 a5 bd d8 6e 03 3d 52 d5 3c 3e
       0.24919486 -0.080669284 0.03208813 0.1844075
000020 7c 88 22 3e 00 a9 15 3b 36 a8 06 be 4c 39 50 be
       0.15872377 0.0022836328 -0.13150105 -0.20334357
000030 d0 75 3e bd a0 8d 5b 3e a8 14 68 3e a0 b2 71 bd
       -0.046499074 0.21440744 0.2266413 -0.05900824
000040 80 6e 70 3d fe 94 6b be 00 ea cf ba e2 a6 17 3e
       0.05869913 -0.23006055 -0.0015862584 0.14809754
000050 a4 ee f8 bd ce d6 15 3e c4 68 1d 3e 48 8a e2 bd
       -0.12154892 0.14632723 0.15371996 -0.11061531
000060 30 0d ed bc f6 2f 63 3e 64 7b f5 3d 40 60 a7 3d
       -0.028936952 0.22186264 0.119864255 0.08172655
000070 00 4d 3a bb 50 45 4e be 98 85 4d be ca e8 69 3e
       -0.0028427243 -0.20143628 -0.20070493 0.22842708
000080 a0 f6 30 3c 3c 8b 84 bd 60 7d 67 3e 96 28 54 be
       0.0108009875 -0.06471869 0.2260642 -0.20718607
000090 a4 7b 73 be 9a 25 42 be 54 97 95 3d 3c be dc 3d
       -0.23777634 -0.18959656 0.07304254 0.10778472
0000a0 8c ac 4c be 06 dd 66 3e f8 8d 2d 3e c0 2f 91 bb
       -0.19987696 0.22545251 0.16948688 -0.004430741
0000b0 72 5f 41 be a8 05 83 3d 70 6e ae bc 04 d5 f2 3d
       -0.18884066 0.06397563 -0.021292895 0.11857036
0000c0 c8 49 1b 3d 7c 3d 8f bd 50 16 9b 3c fa 53 0e be
       0.03791216 -0.06994149 0.018931538 -0.13899222
0000d0 b2 ca 45 be 9e e9 30 be ee 98 6e be 30 82 fb 3c
       -0.19315603 -0.17276618 -0.23300526 0.030701727
0000e0 8e 58 03 3e d8 d3 cb 3d 80 dd ef 3c 68 e6 11 3e
       0.1282675 0.09952515 0.029280424 0.1424805
0000f0 10 ac 1a 3e 00 a5 16 3b 80 fb 9a bd c0 63 b0 3d
       0.15104699 0.0022986531 -0.07567501 0.08612776
000100 60 cf 8e bc 6e df 79 be 68 f9 95 3d b0 92 9d bc
       -0.017432868 -0.24401638 0.07322961 -0.019234985
000110 06 c8 43 3e 30 35 03 3d 30 4c 13 be 38 49 25 3e
       0.19119272 0.032033145 -0.14384532 0.16141212
000120 9c cb 89 3d 0a b9 65 3e 18 57 03 3e 60 c3 3a 3c
       0.067282885 0.22433868 0.12826192 0.01139912
000130 20 1c 3b 3d f8 40 1d 3d 20 b3 66 3c 0c 81 09 3e
       0.04568112 0.038392037 0.014080793 0.13428134
000140 cc 54 24 be c0 f8 25 3d b0 a3 0f 3d 42 7e 37 3e
       -0.16047972 0.04052043 0.035068214 0.17919257
000150 a0 94 cf 3c 0e b7 2d be 32 f4 18 3e a8 df 67 3d
       0.025339425 -0.16964361 0.14936903 0.05660978
000160 e4 3a 05 3e f8 b4 10 bd 5e fa 34 be ec 29 df bd
       0.13010746 -0.035328835 -0.17673633 -0.10896668
000170 30 a6 dd 3c 02 7c 7d 3e 38 52 be bd 14 92 67 be
       0.027056783 0.24754336 -0.09293026 -0.22614318
000180 60 f4 81 3d ac f2 5c be 68 8c 25 be 90 55 77 3d
       0.06345439 -0.21576947 -0.16166842 0.060384333
000190 48 a8 0e 3d e4 37 7b 3e 88 1a 60 3e 3c 06 97 3d
       0.034828454 0.2453304 0.21885121 0.07374236
0001a0 98 78 6c 3d c8 19 85 3d 2a ba 1a 3e 08 72 3a 3e
       0.057732195 0.06499058 0.15110078 0.18207562
0001b0 e4 74 ea bd a0 d2 c6 3c f0 f5 f5 bd b8 8d 95 3d
       -0.11448076 0.024270356 -0.120097995 0.07302421
0001c0 ac bd 99 bd 42 4a 65 3e 98 2c 8e bd 48 75 eb 3d
       -0.0750688 0.22391608 -0.06942099 0.11496979
0001d0 b8 1e d0 bd 08 1c fc 3d a4 d0 58 3e 1a dc 03 3e
       -0.10162109 0.12310034 0.2117334 0.12876931
0001e0 70 80 9f bc 7c 5c f0 3d ec 94 aa 3d 50 a1 c0 3d
       -0.019470423 0.1173639 0.08329186 0.09405768
0001f0 a0 86 ad 3d 00 f7 1e 3c f6 00 7e 3e 6a da 5b be
       0.08472943 0.009702444 0.24805054 -0.21470037
000200 70 36 a6 3c b0 ec 1f be 70 5c 64 3d e8 48 40 3e
       0.02028963 -0.15617633 0.055752218 0.18777812
000210 e8 ed 62 3e 54 a6 b3 3d 00 13 23 3e 86 c3 74 be
       0.22161067 0.08771959 0.15925217 -0.23902711
000220 a6 d9 2d be fe 96 56 3e ac e6 24 3e 1c 80 e1 3d
       -0.16977558 0.20956036 0.1610362 0.11010763
000230 24 0b a2 3d c0 dc ac bc 88 01 81 3d 80 2a 0c bb
       0.07912281 -0.021101356 0.0629912 -0.0021387637
000240 08 37 05 bd 38 87 c8 3d 4a b3 49 be a0 ac 0a bc
       -0.032523185 0.09791416 -0.196973 -0.008464009
000250 c4 90 98 3d 88 83 3a 3e 90 ce d2 3d f4 75 c6 bd
       0.07449487 0.18214238 0.10293305 -0.096904665
000260 d0 0f 6b bd 4a 91 34 3e 72 73 60 be 90 a1 c4 3d
       -0.057388127 0.17633548 -0.21919039 0.09601128
000270 a0 08 c9 bd bc 2e 7c be f4 05 ef 3d 78 5a 21 bd
       -0.09816098 -0.24627203 0.11671057 -0.03939292
000280 f8 e4 af bd 40 81 2d bd 50 b9 eb bc a8 77 48 bd
       -0.08588594 -0.04235959 -0.028774887 -0.048942238
000290 bc e7 ba bd 68 c5 1c 3e 74 49 eb 3d 54 ab d7 bd
       -0.09126231 0.1530968 0.114886194 -0.10530725
0002a0 d2 2e 69 3e 56 14 0d be 66 fc 43 3e 74 ca 64 3e
       0.22771767 -0.13777289 0.19139251 0.22342855
0002b0 a0 e2 31 bd cc f6 c9 3d c6 b2 20 3e e4 5b b4 bd
       -0.043429017 0.09861526 0.15693197 -0.08806589
0002c0 06 58 2f be 60 5e 62 3e e0 5f df 3c 3c f9 23 be
       -0.17123422 0.22106314 0.027267396 -0.16013044
0002d0 3e 19 44 be 30 b6 5b 3d 56 5a 51 3e 04 29 e9 bd
       -0.19150254 0.053640544 0.20444617 -0.11384776
0002e0 a0 e1 58 bc e2 85 6b 3e 58 9e 33 3d 20 3d 66 3e
       -0.013237387 0.23000291 0.04385218 0.22484255
0002f0 40 fd 16 3c 64 c0 d2 3d aa 9d 21 be 26 f9 2c 3e
       0.009215653 0.10290602 -0.157828 0.16891918
000300 78 f2 26 bd b0 af 25 3d 3a d6 7a be d4 ed 30 be
       -0.04075858 0.04045075 -0.24495783 -0.17278224
000310 f6 97 76 be 56 ed 07 be a4 ef 3a be e8 8a 0d bd
       -0.24081406 -0.1327413 -0.18255478 -0.0345563
000320 20 78 a7 bc 1c 01 06 be 4e cf 1d 3e e8 90 5d bd
       -0.020443022 -0.1308636 0.15411112 -0.05409327
000330 5e 24 73 3e c0 de ea bd 54 bb ac 3d 28 c4 69 bd
       0.23744342 -0.114682674 0.084341675 -0.057071835
000340 b0 91 02 be ce d8 43 3e 52 00 7c be ae e9 46 3e
       -0.12750888 0.19125673 -0.24609497 0.19425079
000350 54 d2 30 3e 4a a6 39 be c8 aa ee bd b8 b5 a8 3d
       0.17267734 -0.1812984 -0.11653668 0.08237785
000360 3c e1 0e 3e 38 f9 26 3d 84 98 d6 bd ba c0 79 be
       0.13953108 0.040765017 -0.10478309 -0.24389926
000370 4c 57 0a 3e ba e4 5c be 10 27 2b be e0 3b 36 3c
       0.13509864 -0.21571627 -0.1671412 0.011122674
000380 c8 d3 31 be 00 59 49 be f0 5c 96 3c 2c e9 dd bd
       -0.17365944 -0.19662857 0.018354863 -0.1083549
000390 f8 a3 55 be 94 85 8a 3d 88 e9 56 3d 10 e2 3d 3e
       -0.2086333 0.06763759 0.052468807 0.18543267
0003a0 02 85 22 3e 7c 8e d1 bd ec b5 aa 3d 04 c5 cf bd
       0.15871051 -0.10232255 0.0833548 -0.101449996
0003b0 46 2e 04 3e cc 5d 8b bd 0c 51 03 be 70 0f c7 3c
       0.12908277 -0.06805 -0.12823886 0.024299353
0003c0 3e d9 56 3e 8e 45 00 3e a0 b7 b3 bc 00 00 95 ba
       0.20981309 0.12526533 -0.021938145 -0.0011367798
0003d0 52 43 0b 3e fc b8 e1 3d bc 96 90 bd e8 3b 33 3e
       0.135999 0.11021611 -0.0706 0.17503321
0003e0 80 85 2a bc 10 bd a7 3c c8 41 60 3e 5c 6a cf 3d
       -0.010407805 0.020475894 0.21900094 0.10127708
0003f0 e4 13 49 3e e2 c4 0b be 68 d5 78 be fc 5f 72 3e
       0.19636494 -0.13649324 -0.24300158 0.23669428

model.encoder.edge_encoder.0.2.bias f4 [16]
000000 6c f2 b1 3d 7c d1 2b 3e e8 3c f2 bd 00 ea c3 3c
       0.086888164 0.1677913 -0.11828023 0.02391529
000010 04 df 29 3e dc 17 50 be e0 27 4d 3d 80 f5 26 be
       0.1658898 -0.20321602 0.050086856 -0.16304588
000020 b2 84 2b 3e 14 d7 81 bd b4 c7 1e 3e 60 2d 67 3e
       0.16749838 -0.06339851 0.15505868 0.22575903
000030 b8 4e ee 3d b4 00 c2 bd 22 f3 7d 3e 00 3b 9d 3c
       0.11636108 -0.0947279 0.24799779 0.019193172

model.encoder.edge_encoder.0.4.weight f4 [16, 16]
000000 72 7e 73 be 82 72 4d be a4 fd f3 bd a8 92 5a 3d
       -0.23778704 -0.20063213 -0.119136125 0.05336252
000010 d2 de 06 3e 08 fe 69 3e 86 12 39 be 5a e2 03 3e
       0.13170937 0.22850811 -0.18073472 0.12879315
000020 c4 27 39 3e 5c b0 d3 3d ea 04 09 be 86 08 33 3e
       0.18081576 0.10336372 -0.13380781 0.1748372
000030 f2 9f 00 be 88 f7 42 3d ea 7b 44 be c0 dd 06 bd
       -0.12561014 0.047599345 -0.19187894 -0.03292632
000040 c8 14 51 3d 78 d9 2c 3e 6a f2 70 3e d4 e2 b2 bd
       0.05104521 0.16879833 0.23529974 -0.0873467
000050 72 71 2e be f4 61 c0 bd 8c 93 48 3e 58 27 b5 3d
       -0.17035463 -0.09393683 0.19587535 0.08845395
000060 62 13 22 3e 66 7d 2f 3e 7c 8c 1d 3e b8 57 91 bd
       0.15827706 0.1713768 0.15385622 -0.07096809
000070 20 db 14 3e e0 d7 34 3c 18 c9 41 3e 80 d9 68 bc
       0.14536715 0.011037797 0.18924367 -0.014212012
000080 9c 46 b6 bd 50 0f 30 bd fe 5e 3f 3e d4 05 9c 3d
       -0.089001864 -0.042983353 0.1868858 0.07618299
000090 5a 36 50 3e 7c 5a 90 bd 7c 87 81 3d 04 b4 03 3e
       0.20333233 -0.070485085 0.0632467 0.1286164
0000a0 e0 32 73 bd 08 39 1e be 4c 29 59 be 00 c8 24 bd
       -0.05937469 -0.15451443 -0.2120716 -0.040229797
0000b0 80 df 89 3d ec a4 71 3e 54 69 81 bd 80 ed 3b bd
       0.06732082 0.23598069 -0.06318918 -0.045880795
0000c0 8e 0e 00 3e 78 18 8a 3d f6 cd 1a 3e 2c d2 89 bd
       0.12505552 0.06742948 0.1511763 -0.0672954
0000d0 40 f3 b7 3d 20 e5 70 bd f0 83 a7 bd 78 95 37 be
       0.08981943 -0.05881226 -0.08179462 -0.17928112
0000e0 1e 6a 63 3e 40 be 97 bd 5a ea 36 be 0e f3 38 be
       0.22208449 -0.07409334 -0.17862836 -0.18061468
0000f0 0e ed 09 3e de 36 7c be d4 b7 24 3e 94 7c fa 3d
       0.13469335 -0.24630305 0.1608575 0.12230793
000100 ec 3c ad 3d 58 76 33 be f0 b4 73 be 16 f9 44 be
       0.084588856 -0.17525613 -0.23799491 -0.19235644
000110 ec b6 ce 3d 38 44 4f 3e c0 48 40 3c c0 0b 2f 3c
       0.10093483 0.20240867 0.011736095 0.010683954
000120 3a 7c 7a 3e e0 68 24 3d da b4 67 be 98 9d 56 3d
       0.24461451 0.04013908 -0.22627583 0.052396387
000130 58 72 90 3d 32 61 56 be 70 99 d3 3c 8c 54 88 bd
       0.07053059 -0.20935515 0.02583 -0.06656751
000140 dc cf 41 3e 00 cd 6b bd 00 a9 e8 ba 5c 17 a5 bd
       0.18926948 -0.05756855 -0.0017750561 -0.08061096
000150 8a a6 76 be 94 0b a2 3d 14 23 0a be fe 09 49 3e
       -0.24086967 0.079123646 -0.13489944 0.19632718
000160 74 54 c5 3d 38 7a 06 3d 7e 66 1a be 72 b1 5e 3e
       0.09635249 0.0328314 -0.1507816 0.21747378
000170 48 ee ec 3d 4e 29 76 3e a0 16 78 be 20 22 81 3d
       0.11568886 0.24039194 -0.24227381 0.06305337
000180 84 0b aa 3d 30 be f5 3d 9e f2 1c 3e 3e 69 2b 3e
       0.08302978 0.11999166 0.15326926 0.16739365
000190 00 00 70 3c 76 d9 28 be 60 3d 07 be 84 4b 1a 3e
       0.0146484375 -0.16489205 -0.13207006 0.1506787
0001a0 00 7a e2 3b 40 88 de 3b aa 11 27 be c6 90 58 3e
       0.006911516 0.0067911446 -0.16315332 0.21148977
0001b0 34 3c d6 3d 10 b8 71 bd 20 77 cf bd 86 3d 18 3e
       0.104607016 -0.059013426 -0.10130143 0.1486722
0001c0 00 0b 29 bb 40 8e 74 3e 18 a8 ba bd e0 d5 cf 3d
       -0.002579391 0.23882389 -0.091140926 0.10148215
0001d0 40 b6 f5 3b 9c 28 b6 3d c8 12 12 be 9c 8a b8 bd
       0.0074985325 0.088944644 -0.14264977 -0.09010813
0001e0 0c f0 53 be bc 68 97 3d f4 a5 30 3e 46 cb 0a 3e
       -0.2069704 0.07393023 0.17250806 0.13554105
0001f0 32 a2 29 be 9c ec 6e 3e 78 2a 3a 3e 80 b9 98 bb
       -0.16565779 0.23332447 0.18180263 -0.004660785
000200 30 f7 0e 3d 40 43 6e 3e a2 69 6a be 32 60 09 3e
       0.034903705 0.23267841 -0.22891858 0.13415602
000210 58 a6 1d be 72 8f 32 be b4 87 ae bd 68 2e 0d 3d
       -0.15395486 -0.17437533 -0.08521977 0.034468085
000220 2e a8 7c 3e 84 ad 8c bd ac ba 41 be ec 7d 56 3e
       0.2467353 -0.06869033 -0.18918866 0.20946473
000230 98 07 3a bd e0 48 8b 3d b0 54 f1 bc 3c e7 68 3e
       -0.0454174 0.06801009 -0.029459327 0.22744459
000240 c6 94 68 3e ec 58 50 3e 6c dd 95 bd 34 8b 31 3e
       0.22713003 0.20346421 -0.073176235 0.17338258
000250 36 fc 34 be 3c 85 32 3e 00 5b 85 3b ee 61 3f be
       -0.17674336 0.17433637 0.004069686 -0.18689701
000260 70 0e 9b 3c 00 0b 99 ba c6 25 17 be bc 12 8f 3d
       0.018927783 -0.0011676252 -0.14760503 0.06985995
000270 a6 44 73 3e c0 3b 58 bc 80 b3 12 bb 00 63 77 3d
       0.23756656 -0.013197839 -0.0022384822 0.060397148
000280 90 d3 7a bd 08 9a e1 bd c8 fa 03 bd 24 57 95 bd
       -0.061236918 -0.11015707 -0.032221586 -0.072920114
000290 c8 41 63 3d 3a 97 36 be ae eb 38 3e 48 24 c8 3d
       0.055482656 -0.17831126 0.18058655 0.09772545
0002a0 58 d8 76 3d f4 10 0e 3e 70 da 83 bc e0 4b ff bc
       0.060264915 0.13873655 -0.01609537 -0.03116411
0002b0 da b0 38 be f0 45 86 bd e4 7b d4 bd 94 78 d7 3d
       -0.18036214 -0.06556308 -0.10375193 0.10521045
0002c0 60 8d 00 3d 28 3b b5 3d ee 17 76 3e 00 12 64 ba
       0.031384826 0.08849174 0.24032566 -0.0008700192
0002d0 d0 96 0e bd 74 f4 c2 bd 24 62 cf 3d a0 19 8d 3c
       -0.034811795 -0.09519282 0.10126141 0.017224133
0002e0 74 d3 f2 bd b6 9e 43 3e ba b9 11 be d0 72 bb bd
       -0.11856738 0.19103512 -0.14231005 -0.09152758
0002f0 2e 60 0b 3e a4 9e b9 bd b2 0b 23 3e b4 1b 27 3e
       0.13610908 -0.090634614 0.1592243 0.16319162
000300 98 86 9e 3d bc d3 6b 3e 52 25 0a 3e 6c 13 c9 bd
       0.077405155 0.23029989 0.13490799 -0.098181576
000310 40 3f 88 bb 02 2d 4b be 38 9a 30 3e e6 4a 24 be
       -0.0041579306 -0.19841388 0.1724633 -0.16044196
000320 38 95 7d 3e a6 a6 11 be d0 e6 e3 3c 68 91 da bd
       0.24763954 -0.14223728 0.02782002 -0.10672265
000330 08 6b 69 be 64 ee fc 3d 14 7f 97 bd c4 e8 3a 3e
       -0.22794735 0.12350157 -0.07397285 0.18252856
000340 30 1c 08 3d 98 45 cc bd f2 f9 76 3e 84 03 33 3e
       0.033230007 -0.099742115 0.24118784 0.1748181
000350 34 1f 66 be 68 dc 3b bd 28 95 5f be f0 1e f8 3d
       -0.2247284 -0.045864493 -0.21834242 0.12115276
000360 dc a9 b2 bd 0c 27 64 be 38 b3 84 3d 48 8f 17 3e
       -0.08723804 -0.2228052 0.06479496 0.14800751
000370 48 9f 10 be a0 1e 0e bc a8 7f 9a bd c0 43 26 3c
       -0.14123261 -0.008674294 -0.0754388 0.010147989
000380 ee 55 31 be f0 33 67 bd d0 f7 ee 3d 80 ab b8 3d
       -0.17317936 -0.056446016 0.1166836 0.09017086
000390 60 41 c6 3d dc 23 f7 bd 40 8e 98 3b 00 9c 49 ba
       0.09680438 -0.120673865 0.0046556294 -0.00076907873
0003a0 60 c0 d9 bc 94 df 03 be b4 9a 77 3e 42 66 42 be
       -0.02658099 -0.12878257 0.24180108 -0.18984321
0003b0 ae fa 03 be 5e eb 19 3e 88 5c 57 3e e4 1e 03 3e
       -0.12888595 0.15031192 0.21031392 0.12804753
0003c0 6c a6 c8 bd ae e4 1a 3e c8 68 f6 bd d4 af b2 bd
       -0.097973675 0.15126297 -0.12031704 -0.08724943
0003d0 82 3b 01 be d0 81 05 be 60 82 83 3d 80 8e 7b bc
       -0.12620357 -0.13037801 0.064213514 -0.015353799
0003e0 86 97 2d be 20 22 12 3c 38 81 0d bd f8 65 34 be
       -0.16952333 0.008919269 -0.03454706 -0.17617023
0003f0 62 d3 2a 3e a0 cd 03 bc 38 7f 12 3e 9c 6d 0f be
       0.16682199 -0.00804463 0.14306343 -0.14006656

model.encoder.edge_encoder.0.4.bias f4 [16]
000000 4c 41 8c bd 28 fc 58 bd 14 2d 40 3e 5a cd 05 3e
       -0.06848392 -0.05297485 0.18767196 0.13066617
000010 fc a6 78 be 4a 81 1c be 90 1f 06 be 96 6e 03 3e
       -0.2428245 -0.15283695 -0.13097978 0.12835154
000020 e8 cc 67 3d 54 64 7b be 20 75 f4 bc fe f3 0c be
       0.0565919 -0.24549991 -0.029841006 -0.1376495
000030 8e 09 04 3e f0 4c eb bc 08 90 7b 3d da b8 54 be
       0.1289427 -0.02872321 0.061416656 -0.2077364

model.encoder.edge_encoder.0.6.weight f4 [16, 16]
000000 70 32 e6 3d 00 88 5d 3b 9c ed 3d be 94 9e 9f bd
       0.11240089 0.0033802986 -0.18547672 -0.07793918
000010 34 75 49 3e 62 43 53 be 30 ca ce bc 3a f6 6f be
       0.19673616 -0.20631173 -0.025242895 -0.23433772
000020 e8 cb 50 bd e8 a1 74 3e fa b4 72 be 0a 99 17 be
       -0.05097571 0.23889887 -0.2370185 -0.14804474
000030 a6 83 58 3e 06 39 30 be 04 34 1a 3e 98 91 23 3e
       0.2114397 -0.17209253 0.15058905 0.15973508
000040 00 8c f4 3d 02 5c 35 be 4a 3a 72 3e f0 f3 3f 3e
       0.119407654 -0.1771088 0.23655048 0.18745399
000050 84 47 16 3e 8a 2c 23 be 00 05 1c bc 00 6c f9 3d
       0.14675719 -0.15934959 -0.0095226765 0.121788025
000060 ca 3b 4f 3e 5c a5 9e 3d 52 be 04 3e 2c 86 c9 bd
       0.20237651 0.077463835 0.12963226 -0.098400444
000070 14 b2 8d 3d 72 b4 40 be 70 72 35 3d 0a 3a 5a 3e
       0.06918731 -0.18818834 0.04429859 0.21311203
000080 e4 f3 e3 bd 5a 0d 46 be bc 37 aa 3d d0 dc 55 bd
       -0.11130503 -0.1934103 0.08311412 -0.052212536
000090 00 c0 f2 b9 50 e8 45 be 08 c1 9f 3d c0 bf 37 3c
       -0.00046300888 -0.19326901 0.0780049 0.01121515
0000a0 50 d3 53 3e 08 02 1d be 1e 04 7f be 6e 37 13 be
       0.20686078 -0.15332806 -0.24903914 -0.14376613
0000b0 1e c6 31 3e 5a d9 6d 3e 16 b1 3b 3e f4 7c 85 bd
       0.17360732 0.23227444 0.18329272 -0.065179735
0000c0 f4 d8 05 be 36 1b 50 3e 2c 46 b5 3d 22 0d 79 3e
       -0.13071042 0.2032288 0.08851275 0.24321416
0000d0 88 76 aa bd 54 62 95 3d c0 b3 26 bd ac 64 0b 3e
       -0.08323389 0.07294145 -0.040698767 0.13612622
0000e0 60 55 f4 3d 82 14 1c be a0 a4 38 3d 96 e7 2c 3e
       0.119303465 -0.15242198 0.045078874 0.16885218
0000f0 58 df 42 bd fa 78 4d be c2 58 66 3e 06 e2 50 be
       -0.04757628 -0.2006568 0.22494796 -0.20398721
000100 7a a0 49 3e 9c 14 5b be a0 ab 61 bd 6c 69 86 3d
       0.19690123 -0.2139458 -0.055095315 0.065630764
000110 08 32 59 3e 7e 54 12 be d2 c7 64 3e 5c d1 2c be
       0.21210492 -0.14290044 0.2234185 -0.1687674
000120 be 22 1f be a0 56 7d bc 04 ab 36 3e 60 9b 97 bd
       -0.15540597 -0.015462548 0.17838675 -0.07402682
000130 28 64 e5 bd a4 18 db bd 34 ed 1b be 98 2f 84 bd
       -0.11200744 -0.10698059 -0.15227205 -0.0645439
000140 a0 5f 5f bd 1e 3a 6c be 10 fb 91 3c 18 d2 e2 3d
       -0.054534554 -0.23069045 0.017819911 0.110752285
000150 9e 65 50 3e 1a 5f 3b be 60 6c b3 bc 1e 16 53 be
       0.20351264 -0.18297997 -0.021902263 -0.20613906
000160 9e 90 4f be 92 95 5f be 50 9a a9 bc 2c 27 cb bd
       -0.20270011 -0.218344 -0.020703465 -0.09919581
000170 88 25 12 bd e0 a1 e2 bd e0 67 57 bc 40 94 a2 bd
       -0.035680324 -0.110660315 -0.013147324 -0.07938433
000180 98 f4 6b 3e 2c 55 5a 3e 08 c3 a7 bd 88 8b 3f be
       0.23042524 0.21321553 -0.08191496 -0.1870557
000190 c0 29 79 3c dc 99 cf 3d dc c9 77 be 94 10 6d be
       0.015207708 0.10136768 -0.24198097 -0.23150855
0001a0 b4 ed ea bd 80 6b 51 3b dc 76 0a be b0 5b ab 3c
       -0.114711195 0.0031954944 -0.13521904 0.020917743
0001b0 38 11 3c be b0 62 0d 3e 88 af a8 bd 38 44 91 3d
       -0.18365943 0.13807178 -0.08236605 0.0709309
0001c0 40 ee ae 3c 1c 6b e7 3d 6c af d7 3d ac 48 a3 3d
       0.02135384 0.11299726 0.10531506 0.079728454
0001d0 4c a8 50 3e 34 7d 14 be 50 4b ac bd 3e 24 70 be
       0.203767 -0.14500886 -0.08412802 -0.23451325
0001e0 de a1 5f be 08 2e 38 3d dc 73 ee bd 68 34 7d be
       -0.21839091 0.044965774 -0.11643192 -0.24727023
0001f0 fe db 65 3e 6a 0c 53 3e ac 03 35 3e d8 d6 4a 3e
       0.22447202 0.20610204 0.17677182 0.19808519
000200 b6 6c 5e be d8 37 3b bd 24 4f 7a be 42 de 0d be
       -0.21721157 -0.045707554 -0.24444252 -0.13854316
000210 ca fd 05 be 22 a8 65 be 70 94 42 3d 2c cb 03 3e
       -0.13085094 -0.22427419 0.047504842 0.12870473
000220 ce 77 54 3e f0 6c d4 3d 80 dc 98 3b 18 59 b0 bd
       0.20748827 0.10372341 0.0046649575 -0.08610743
000230 00 57 79 3e 54 53 7d 3e 46 c4 32 3e 2a c7 4d be
       0.24349594 0.24738818 0.17457685 -0.20095506
000240 e0 44 74 bc d6 48 7e 3e 20 d0 8b bc 00 8f 97 3c
       -0.014908999 0.24832472 -0.017067015 0.018500805
000250 ae b6 2f 3e e6 99 4e 3e ba 5a 3d be d0 22 88 bd
       0.1715953 0.20175895 -0.1849164 -0.06647265
000260 80 ba a8 bc 9a 03 0f be 5a 83 3d be dc 32 3a be
       -0.020596743 -0.13966218 -0.18507138 -0.18183464
000270 da ce 0a be 98 8e 77 3e 10 b3 71 bd cc 94 57 be
       -0.1355547 0.24175489 -0.059008658 -0.21052855
000280 f0 6f 4b 3e a6 69 39 3e 82 ed 7f 3e 0e 71 41 3e
       0.1986692 0.18106708 0.24992946 0.18890783
000290 e8 58 1d 3d 86 bb 41 3e 70 bb 9c bc 2a c3 04 be
       0.038414866 0.18919191 -0.019132346 -0.12965074
0002a0 c0 92 d6 3d 84 4e cd 3d ce 11 7a 3e 50 72 1f be
       0.10477209 0.10024741 0.24420854 -0.1557095
0002b0 62 32 30 be 42 d4 24 3e 98 b3 94 bd b0 b2 c4 bc
       -0.1720672 0.16096595 -0.07260817 -0.024010986
0002c0 38 ac 04 be b4 f4 56 be 04 ef 71 3e d2 42 32 3e
       -0.12956321 -0.20991784 0.23626333 0.17408302
0002d0 c8 27 36 3d ac 3e c9 bd a8 22 02 3d ac 4a 40 3e
       0.044471532 -0.09826407 0.031771332 0.18778485
0002e0 70 55 b1 bc 2e ef 64 be dc c7 bd bd 80 ab 14 be
       -0.021647185 -0.22356865 -0.09266636 -0.14518547
0002f0 82 9d 2b 3e 08 19 7e bd 8c 49 71 be 00 6f d8 ba
       0.16759303 -0.06203559 -0.23563212 -0.0016512573
000300 44 9d 1a be b0 55 92 bc 10 95 58 be d0 57 c1 bd
       -0.15099055 -0.017863125 -0.21150613 -0.09440577
000310 dc f5 33 be ee 48 2c be 00 6a d9 3b 3a 03 71 be
       -0.17574257 -0.16824695 0.0066349506 -0.23536387
000320 60 bd 07 bd 0c 9b 3c 3e 2c 47 c7 3d 88 b8 75 3d
       -0.033139586 0.1841852 0.09730372 0.059990436
000330 e0 a1 79 bd 30 2b 71 be 72 38 54 3e c0 d1 52 3c
       -0.06094539 -0.23551631 0.20724657 0.012867391
000340 d2 ba 7e 3e ec 63 82 3d 10 bd 16 3e d0 21 c7 3c
       0.24875954 0.06366715 0.14720559 0.024308115
000350 f8 07 97 bd fa 99 20 be 80 5d 66 bc c0 a7 47 3e
       -0.07374567 -0.15683737 -0.014060378 0.19497585
000360 50 35 21 3e 1c 3a 80 3d ec 7a 50 be 32 49 1a be
       0.15742993 0.062610835 -0.20359391 -0.15066984
000370 30 6e 16 3d 5c f3 82 bd 56 29 37 be d0 87 fb bd
       0.036726177 -0.06394073 -0.17886862 -0.122817636
000380 58 eb 96 bd 36 84 5f be c8 7f 76 be 8a 59 12 3e
       -0.07369107 -0.21827778 -0.24072182 0.14291969
000390 68 11 09 3d 00 6c 1e bc 18 ca 75 bd 38 f2 bc 3d
       0.033463866 -0.009669304 -0.060007185 0.09225887
0003a0 28 97 01 be 08 49 bf bd ba 6f 45 3e cc 70 cc 3d
       -0.12655318 -0.093401015 0.19280902 0.09982452
0003b0 d6 cf 41 be 34 1f 5a be ac 22 90 bd 2a 10 3d be
       -0.1892694 -0.21300966 -0.07037863 -0.18463197
0003c0 ce 78 11 3e ac f9 7a be 50 64 cd 3d f4 d2 22 be
       0.1420624 -0.24509305 0.10028899 -0.15900785
0003d0 c8 95 37 3d 3c 9d 2f 3e 60 e5 db bd f8 03 30 3d
       0.044820577 0.17149824 -0.10737109 0.042972535
0003e0 00 31 69 3e 28 f1 61 bd 58 df 63 3d 00 b5 73 3d
       0.22772598 -0.055161625 0.05563292 0.059498787
0003f0 5e 41 37 be ca ef 75 3e b4 43 bc 3d e0 3d 81 bd
       -0.1789603 0.24017254 0.09192601 -0.0631063

model.encoder.edge_encoder.0.6.bias f4 [16]
000000 d0 08 e0 bc 50 c7 28 bd 88 7a b7 bd 14 b1 94 3d
       -0.027347952 -0.041205704 -0.08958918 0.072603375
000010 b0 cd fa bd a4 a4 cb bd 8c a9 b3 3d 06 74 1f 3e
       -0.12246263 -0.09943512 0.08772573 0.15571603
000020 dc d3 39 3e 44 d0 d7 3d 30 bc bc bd de b2 08 3e
       0.18147224 0.105377704 -0.092155814 0.13349482
000030 b2 a9 53 3e ac d6 6b be 54 e4 3c be 8c bf f5 3d
       0.20670202 -0.2303111 -0.18446475 0.11999425

model.encoder.edge_encoder.1.weight f4 [16]
000000 00 00 80 3f 00 00 80 3f 00 00 80 3f 00 00 80 3f
       1.0 1.0 1.0 1.0
000010 00 00 80 3f 00 00 80 3f 00 00 80 3f 00 00 80 3f
       1.0 1.0 1.0 1.0
000020 00 00 80 3f 00 00 80 3f 00 00 80 3f 00 00 80 3f
       1.0 1.0 1.0 1.0
000030 00 00 80 3f 00 00 80 3f 00 00 80 3f 00 00 80 3f
       1.0 1.0 1.0 1.0

model.encoder.edge_encoder.1.bias f4 [16]
000000 00 00 00 00 00 00 00 00 00 00 00 00 00 00 00 00
       0.0 0.0 0.0 0.0
000010 00 00 00 00 00 00 00 00 00 00 00 00 00 00 00 00
       0.0 0.0 0.0 0.0
000020 00 00 00 00 00 00 00 00 00 00 00 00 00 00 00 00
       0.0 0.0 0.0 0.0
000030 00 00 00 00 00 00 00 00 00 00 00 00 00 00 00 00
       0.0 0.0 0.0 0.0

model.encoder.node_encoder.0.0.weight f4 [16, 3]
000000 dc 23 3b be 00 f4 08 bf 8c d4 e2 be 88 72 b4 be
       -0.18275398 -0.53497314 -0.44302785 -0.3524363
000010 24 ed 5b 3e 1a 84 95 3e a8 0a f0 3e 73 e4 bd be
       0.2147718 0.29202348 0.4688313 -0.37088355
000020 a0 91 34 3d b4 93 05 3e f4 d7 00 3e 14 61 dc bd
       0.04408419 0.13044626 0.1258238 -0.10760704
000030 ce 01 8c 3e 68 7d 08 3e 50 ec ac be 3f 9e 0f bf
       0.27345127 0.13329089 -0.33774042 -0.5610084
000040 f0 ce 9e 3d 60 e8 cd be 44 f7 34 3e b8 21 dd 3d
       0.07754314 -0.4021635 0.1767245 0.10797447
000050 e6 5e 93 be 18 97 ed be b4 51 b8 3e ec 43 06 3f
       -0.2878334 -0.46404338 0.35999835 0.5244739
000060 68 1c a0 3d ec ae b8 bd e0 3e e2 bd 0e b8 dc be
       0.07817918 -0.09017739 -0.11047149 -0.43109173
000070 08 3a 4c 3e 14 45 eb be 9c 93 53 be 28 9c 14 be
       0.19944012 -0.4595114 -0.20661777 -0.14512694
000080 6b a4 a1 be 8a 69 11 3f 92 39 e2 be bc 79 e0 3e
       -0.31570753 0.56801665 -0.44184548 0.43842876
000090 32 41 08 3f 1e 31 d6 be 86 b4 e3 be 08 cc 00 bf
       0.5322448 -0.41834348 -0.44473666 -0.50311327
0000a0 fc 3b 26 be e0 fd d9 3d 35 76 f7 be 34 f4 f1 be
       -0.1623382 0.10644126 -0.48332372 -0.47256625
0000b0 6c 8d 0b 3f 54 0f 75 be 08 c8 0a 3e 36 ad d5 be
       0.5451267 -0.23931628 0.13552868 -0.41733712

model.encoder.node_encoder.0.0.bias f4 [16]
000000 ee ff 00 3f ee 71 e4 be f4 2c 13 3e ce be e0 be
       0.5039052 -0.4461817 0.14372617 -0.43895572
000010 03 94 0d bf 78 e7 3c 3e 2a a7 cd be 0a b4 12 3f
       -0.5530397 0.18447673 -0.401666 0.5730597
000020 2c 16 2c 3e d2 04 01 3f 03 24 00 bf 64 23 f2 3e
       0.16805333 0.5039798 -0.5005495 0.47292626
000030 28 fa 0b bf 4b d0 ab be 08 19 cd bd 3a da 02 be
       -0.54678583 -0.33557352 -0.1001454 -0.1277856

model.encoder.node_encoder.0.2.weight f4 [16, 16]
000000 22 70 6c 3e 30 44 76 be b8 63 24 be 78 c1 a8 3d
       0.2308965 -0.24049449 -0.16053665 0.08240026
000010 6a 45 3a 3e 00 52 be 3a b2 09 6d 3e 30 9d 32 3d
       0.18190542 0.0014520288 0.2314823 0.043606937
000020 42 c2 69 be 08 c2 25 3d ba 2e 5e 3e dc ca 5b 3e
       -0.2282801 0.040468246 0.21697512 0.21464103
000030 00 aa 07 3d d0 c0 df bc 70 8c bb 3c ec 61 61 be
       0.03312111 -0.02731362 0.022894114 -0.2201001
000040 d4 f4 ec bd a4 37 a9 3d b6 d6 76 3e 80 f3 ad bb
       -0.11570135 0.08262566 0.24105343 -0.0053085685
000050 60 7d 4a 3d 80 1e 40 3b 18 96 1d 3e 54 af af bd
       0.049435973 0.0029315054 0.15389287 -0.08578363
000060 b8 d9 48 3d 72 fc 59 be d0 8b 10 be 40 5a 3e bc
       0.049035758 -0.21287706 -0.14115834 -0.011618197
000070 0a 66 38 be ce 49 5b be 58 6a 3f 3d 2a f9 66 3e
       -0.18007675 -0.21414873 0.046732277 0.22555986
000080 50 59 30 be 92 95 05 3e 3a 8c 34 3e 40 08 af bc
       -0.1722157 0.13045338 0.17631617 -0.021366239
000090 0a 57 4d 3e c4 d7 3b 3e f0 c6 6e 3e 28 fc 22 3d
       0.20052734 0.18344027 0.23318076 0.039791256
0000a0 24 48 5f 3e 98 c3 8a bd 9e 04 79 3e d0 87 11 bd
       0.21804863 -0.06775588 0.24318168 -0.03552991
0000b0 8e a6 24 be b0 14 4c 3e 78 4b 52 3e c2 53 5a be
       -0.1607916 0.19929767 0.20536602 -0.21321014
0000c0 e4 2d c6 bd 24 e1 b0 3d 44 95 82 bd b2 ad 56 3e
       -0.09676722 0.08636692 -0.063761264 0.20964697
0000d0 40 53 99 3c 34 74 95 bd 80 53 7e bb 90 46 ae 3d
       0.018716455 -0.072975546 -0.0038807094 0.085095525
0000e0 88 ee bb bd da 6a 3a be 90 f6 a6 bd c0 2b 76 bd
       -0.091763556 -0.18204823 -0.08152497 -0.060100317
0000f0 c0 ce a9 bc 2e c8 0f 3e 10 48 03 3e 70 f1 f7 3c
       -0.020728469 0.14041206 0.12820458 0.030266494
000100 ea 64 13 3e 22 e4 47 be b8 dc 46 3d 50 69 d3 3c
       0.14393964 -0.1952062 0.048550338 0.025807053
000110 28 c2 b5 3d c8 55 3f bd 30 05 86 bc a0 b1 70 3c
       0.08874923 -0.046712667 -0.016359895 0.014690787
000120 9a 44 03 be c8 de 0f bd 16 28 6b 3e 50 12 bf bc
       -0.12819138 -0.03512457 0.2296451 -0.023324162
000130 6c d1 76 be 54 13 fa bd ec 88 25 be f0 a7 e7 3c
       -0.24103326 -0.12210718 -0.16165513 0.028278321
000140 80 5a e2 bb c0 de 72 3d 48 99 6f be 44 86 08 be
       -0.006907761 0.059294462 -0.23398316 -0.13332468
000150 aa 44 3c be 34 43 b1 3d 80 6d 51 bd 7c 4d 3e be
       -0.18385568 0.08655396 -0.051129818 -0.18584245
000160 68 51 fe bd e4 af 46 be 7a ff 61 3e 8c e8 30 3e
       -0.12417871 -0.19403034 0.22070113 0.1727621
000170 38 5d 72 3d cc cf ff bd cc d1 81 bd 18 c7 10 3e
       0.05917093 -0.12490806 -0.06338844 0.14138448
000180 4c d2 fe 3d 10 8a 50 bd fc 18 e3 3d 84 07 ac 3d
       0.12442455 -0.050912917 0.1108875 0.08399871
000190 0e b9 5b be e0 25 7f 3e 58 00 7e be 22 38 29 be
       -0.21457312 0.24916792 -0.24804819 -0.16525319
0001a0 a0 4c 02 3d 20 f0 54 bd 8c 40 78 3e 88 33 9e 3d
       0.031811357 -0.051986814 0.24243373 0.077246726
0001b0 7e 90 67 3e 06 6c 2b be 5c 60 dc bd 70 81 04 be
       0.22613713 -0.16740426 -0.107605666 -0.12940001
0001c0 b4 75 a7 bd 28 c5 4e bd 24 3b 8f bd 30 c0 13 be
       -0.08176747 -0.05048099 -0.06993702 -0.14428782
0001d0 2c d2 cd bd 6c 73 88 bd 7a bc 57 be fa e3 05 3e
       -0.10049853 -0.0666264 -0.21067992 0.13075247
0001e0 80 0f 79 3d 1c 1f 11 3e 40 73 78 bd d8 ba 7f 3e
       0.060805798 0.14172024 -0.060656786 0.24973619
0001f0 5a a5 2c be 8a c8 6d be 62 ca 79 3e a6 5c 1a be
       -0.16859952 -0.23221031 0.24393609 -0.15074405
000200 e2 a8 6a be f8 b0 a0 3d 20 44 e9 bd 70 09 69 3d
       -0.22915986 0.07846254 -0.11389947 0.056893766
000210 fe 10 1e 3e c2 4b 48 be 60 3b 68 3d e6 d9 05 3e
       0.1543617 -0.1956015 0.05669725 0.13071403
000220 9c 5f e6 bd 5e 30 13 be d6 b4 01 be 2c 90 88 bd
       -0.11248705 -0.1437392 -0.1266664 -0.066681236
000230 9a ac 38 3e 34 d8 dd 3d e6 c6 77 be 00 88 02 3b
       0.18034592 0.10832253 -0.24196967 0.0019917488
000240 c0 a0 ce 3d 00 88 3c 3b 80 58 99 3b ec b9 61 3e
       0.100892544 0.0028767586 0.0046797395 0.2204358
000250 68 d8 44 3d 7e 72 39 be 20 fe 7e bc ce 6f 78 be
       0.048057944 -0.18110082 -0.015563518 -0.242614
000260 30 25 46 3e 1c 37 50 be 68 a5 c5 3d 52 de 1b be
       0.19350123 -0.20333523 0.09650689 -0.15221527
000270 d8 86 45 3e 88 c0 4e 3e 00 a8 43 bb 18 3d 67 bd
       0.1928972 0.20190632 -0.0029854774 -0.056454748
000280 e6 b4 25 3e 6e 5a 05 3e 1c 9a 6f 3e e0 f1 50 bc
       0.16182289 0.13022777 0.23398632 -0.01275298
000290 cc b5 bf bd f4 2c 89 bd 6c 6c 77 be 00 f0 f6 b8
       -0.09360847 -0.06698027 -0.24162453 -0.000117748976
0002a0 ac d6 1e be 00 9d c7 bd 88 93 1e be 00 0f 45 bb
       -0.15511578 -0.09746742 -0.15485966 -0.0030068755
0002b0 34 dd 7e be 58 a9 60 3e 80 75 9f bc d2 9c 47 3e
       -0.2488907 0.219396 -0.019465208 0.19493416
0002c0 94 dd 1e 3e 98 ec 50 be a8 87 c5 3d 10 a5 7c 3d
       0.15514213 -0.20402753 0.09645015 0.061680853
0002d0 30 26 48 bd 56 83 69 3e 70 ad bf 3c 0c 77 af 3d
       -0.048864543 0.22804007 0.023398131 0.08567628
0002e0 cc b6 dc 3d 20 1b a9 bc 58 57 35 3d c0 6e 91 bc
       0.10777053 -0.020642817 0.04427275 -0.017753005
0002f0 90 39 f2 3c 7a a5 3b 3e 9c 87 d4 bd 78 c2 3c 3e
       0.029568464 0.18324843 -0.10377428 0.18433559
000300 a0 15 76 bd 62 6f 2b be 40 42 78 bc a8 a9 02 3d
       -0.060079217 -0.16741708 -0.015152514 0.031900078
000310 ee aa 57 3e 24 0e 3d 3e ac 35 29 be a6 51 3c be
       0.21061298 0.18462425 -0.1652438 -0.18390521
000320 6a c5 23 be b4 b4 50 3e 76 35 02 be f8 a7 42 bd
       -0.15993276 0.20381433 -0.12715706 -0.04752347
000330 22 58 7a 3e 48 ec cb bd a4 83 0b be c2 e4 0b 3e
       0.24447682 -0.099571764 -0.13624436 0.13661483
000340 10 b9 2f bd 64 bc 5e 3e 8a 13 0a 3e b8 2c 4c 3e
       -0.0429011 0.21751553 0.13484016 0.19938934
000350 a4 f4 e6 3d ec 27 d0 3d 96 73 2d 3e 80 29 12 3d
       0.1127713 0.101638645 0.16938624 0.03568411
000360 a0 a3 24 3d cc d4 3e be 60 46 ed bd ce 9a 50 3e
       0.040195107 -0.18635863 -0.115856886 0.20371553
000370 80 03 a3 bb de a1 41 be 18 44 b3 3d 32 d0 73 be
       -0.0049747825 -0.18909404 0.08753222 -0.23809889
000380 80 7b 74 3b b0 40 44 bd 78 8b 2f be 88 4f 1d 3e
       0.0037305057 -0.047913253 -0.17143047 0.1536237
000390 de f7 1a be 08 d4 0f be c8 d1 0b 3d f8 5e 48 3e
       -0.15133616 -0.14045727 0.03413561 0.19567478
0003a0 98 63 80 3d d0 c2 dd bd 2e 0a 39 be 9c 89 09 be
       0.06268996 -0.10828173 -0.1807029 -0.134314
0003b0 f2 d7 7c be c0 01 98 bd 28 5e 3f 3e 00 55 1a 3d
       -0.24691752 -0.07422209 0.18688262 0.03767872
0003c0 3e ef 2b be 10 e5 c8 3d b8 f2 b7 3d b0 71 c5 3d
       -0.16790482 0.09809315 0.08981842 0.09640825
0003d0 a0 8e e3 3d 28 4e a6 3d dc 4b d9 bd b8 87 4a bd
       0.11111188 0.08120376 -0.10610172 -0.049445838
0003e0 3a dc 21 be fa 2b 0b be 8a e6 75 3e be 08 6a 3e
       -0.15806666 -0.13590994 0.24013725 0.22854897
0003f0 22 f0 60 3e b4 18 e3 3d 5e 42 3e 3e ac 13 74 3e
       0.21966603 0.11088696 0.18580005 0.23835629

model.encoder.node_encoder.0.2.bias f4 [16]
000000 f0 f9 3b 3e 6e f7 78 3e 04 9b e1 3d 88 0c b0 3d
       0.18357062 0.24313137 0.11015895 0.0859614
000010 88 1b 42 be 20 74 28 be 9c 8e f5 3d 80 ad 41 be
       -0.18955815 -0.16450548 0.11990091 -0.18913841
000020 7a 38 47 be b0 cd 81 3d be a6 0f be 40 6b 68 be
       -0.19455138 0.0633806 -0.14028451 -0.22697163
000030 28 a7 4e bd c0 e3 c8 bb 70 7e 16 3e fc a0 0f 3e
       -0.05045238 -0.0061306655 0.1469667 0.14026254

model.encoder.node_encoder.0.4.weight f4 [16, 16]
000000 a8 31 23 3d 90 06 71 3e d0 74 f3 bd 40 41 c8 3d
       0.039842278 0.2353766 -0.118875146 0.097780704
000010 32 e9 48 3e f0 c1 6c be 02 05 30 3e 2c 4f 99 3d
       0.19620207 -0.23120856 0.1718941 0.07485804
000020 08 bc 58 3d 56 37 2f be 20 34 ee bd 60 7b f4 bd
       0.052913696 -0.17110953 -0.11631036 -0.119375944
000030 14 8d 85 3d 50 78 11 3e 50 e1 f3 3d 30 2f 84 bc
       0.06521049 0.14206052 0.11908209 -0.016135782
000040 d0 42 0b 3d e8 c8 31 be 00 e4 47 3a e0 81 1e bd
       0.033999264 -0.17361796 0.0007625222 -0.038698077
000050 80 d3 b7 bb 1a 33 26 be 00 c0 f3 3d 30 12 e6 bd
       -0.0056099296 -0.16230431 0.119018555 -0.11233938
000060 d2 36 41 3e d8 d6 56 be 9e f6 0a 3e 40 cd e1 bd
       0.18868569 -0.20980394 0.1357064 -0.110254765
000070 98 a0 ab bd 22 04 3e be c8 56 8b 3d 48 a0 ec 3d
       -0.0838024 -0.18556264 0.068036616 0.11554009
000080 fe 0a 72 be 04 01 de 3d ce b8 21 be 50 48 34 be
       -0.23637006 0.108400375 -0.15793154 -0.1760571
000090 10 b3 2b 3d 90 a4 26 bd 28 84 20 be 80 f3 bb bb
       0.041918814 -0.040684283 -0.15675414 -0.0057358146
0000a0 4c fc a2 3d 32 bd 6e be 00 61 54 bd 98 b1 f4 3d
       0.07958278 -0.2331436 -0.05185032 0.11947936
0000b0 36 25 56 be 48 21 03 3e c0 31 fd bb b2 fc 11 3e
       -0.20912632 0.12805665 -0.007726878 0.14256552
0000c0 d2 33 76 3e e0 11 90 3d 00 1b 88 3d 86 7e 42 3e
       0.24043205 0.070346594 0.06645775 0.18993577
0000d0 38 4d 5f 3d 60 ba 97 3c 3e 97 1d be 48 39 75 be
       0.054517 0.018521488 -0.15389726 -0.23947632
0000e0 4e 0d 4d 3e a2 b9 62 be d0 b4 e9 3c 60 b5 6d bd
       0.20024607 -0.22141126 0.0285286 -0.0580343
0000f0 a0 dc 7b 3c 80 2b 9d 3b 00 90 50 3a a8 e4 55 3e
       0.015372425 0.0047964454 0.0007956028 0.20888007
000100 b4 14 27 3e 90 9e f1 3d a0 c3 f2 3c b8 69 d3 3d
       0.16316491 0.117978215 0.029634297 0.103228986
000110 90 49 17 be 00 f0 9f 3d 7c e5 97 3d c8 4b cb bd
       -0.14774156 0.07809448 0.074168175 -0.099265635
000120 3c e5 db 3d 44 d0 67 3e e8 dd 65 bd 78 83 f7 3d
       0.10737082 0.22638041 -0.05611983 0.120856225
000130 9e c0 0e 3e 0c 49 d9 3d 2e f9 0b 3e 10 a1 a8 bc
       0.13940665 0.10609636 0.13669273 -0.020584613
000140 6a a8 75 3e a8 22 00 3e 5a 93 23 be e0 77 63 3d
       0.23990026 0.1251322 -0.15974179 0.055534244
000150 00 17 a7 3c 78 68 31 3d 88 11 e0 3d de 01 28 3e
       0.02039671 0.04331252 0.10940844 0.16406962
000160 9a 17 7e be 54 bb 10 3e 98 b5 71 be 44 d7 57 be
       -0.24813691 0.1413396 -0.23604429 -0.21078211
000170 04 96 78 be a8 86 5c 3e 10 85 30 bd 04 f5 12 3e
       -0.24275976 0.21535742 -0.04309565 0.14351279
000180 d8 8e 2b 3e c0 0f 1d be 32 ce 6a 3e 08 15 e3 bd
       0.1675371 -0.1533804 0.2293022 -0.11087996
000190 b4 23 3c 3e dc 94 ed bd 4a 01 29 3e 18 a1 63 3e
       0.18372995 -0.11600658 0.16504398 0.22229421
0001a0 06 c8 1e 3e b0 cd 0c 3d 7a 69 77 3e 18 d8 fc bd
       0.1550599 0.034375846 0.2416133 -0.12345904
0001b0 e4 45 b6 3d b8 3d 44 bd 68 f0 06 3d 7a 4f 07 be
       0.08900049 -0.047910422 0.032944113 -0.13213912
0001c0 36 bd 45 be 12 1e 5e be 1c 1f 08 3e d8 b2 64 3e
       -0.1931046 -0.21691158 0.13293117 0.22333848
0001d0 72 95 1e 3e f0 db f9 3d c6 bc 35 3e 08 0e 15 be
       0.15486696 0.12200153 0.17747793 -0.14556134
0001e0 f2 2d 30 3e 10 2d 73 3d e2 32 5d be 98 c3 12 be
       0.17205027 0.059369147 -0.21601442 -0.14332426
0001f0 40 6b 0a be d8 51 43 bd ac aa dc bd 50 be 5a 3d
       -0.13517475 -0.047685474 -0.107747406 0.053404152
000200 2c 65 f3 3d f4 11 6c 3e 18 9b 54 be e0 51 43 be
       0.118845314 0.23053724 -0.20762289 -0.19074202
000210 a2 15 2a 3e ca ca 3a be 90 83 71 3d 20 c9 42 bc
       0.16609815 -0.1824142 0.05896336 -0.011888772
000220 36 20 77 be d4 b2 00 be 66 9b 20 be 68 04 ce 3d
       -0.24133381 -0.12568218 -0.1568428 0.10059434
000230 58 85 83 bd 14 c3 6c 3e 04 dd ba 3d 26 0b 0e be
       -0.06421918 0.23121291 0.09124187 -0.1387144
000240 b8 83 bb 3d 00 1c d1 3a b0 2c 8d bd 58 c2 5e 3e
       0.09155983 0.0015953779 -0.06893289 0.21753824
000250 e0 18 b7 3d ba e7 43 be 80 89 27 be 78 04 31 3d
       0.089402914 -0.19131365 -0.16361046 0.043217152
000260 f2 3b 2f be b4 e1 03 be 98 c7 76 3e d0 74 38 3d
       -0.17112711 -0.12879068 0.24099576 0.045033276
000270 38 74 de 3d a4 bf 82 bd e4 58 60 3e 00 b4 88 39
       0.10862011 -0.06384209 0.21908909 0.00026074052
000280 d0 bc 4b be 06 d5 5c 3e dc 22 75 3e a0 36 0b bc
       -0.19896245 0.21565637 0.23939079 -0.00849691
000290 ba bb 42 3e 20 6a 3c 3d 30 7c b1 3c f6 02 7b be
       0.19016925 0.045999646 0.021665663 -0.24512848
0002a0 ba 76 21 be b8 05 00 3d c8 97 21 3e c4 29 76 be
       -0.15767947 0.031255454 0.15780556 -0.2403937
0002b0 78 78 0b 3d 96 64 05 be 60 ce 68 3c b0 56 89 3d
       0.034050435 -0.13026652 0.01420936 0.067059875
0002c0 7c 4e 50 3e 0e 9d 68 be a8 8c 36 3d 30 f6 63 bd
       0.2034244 -0.22716162 0.044567734 -0.055654705
0002d0 38 74 ad bd 8c 98 ee 3d 94 06 85 bd f0 fe 82 bd
       -0.084694326 0.1165019 -0.06495395 -0.06396282
0002e0 f8 29 9c bd b0 b5 be bc c0 51 c2 bb bc 6c a3 bd
       -0.076251924 -0.023279995 -0.0059301555 -0.07979724
0002f0 1e eb 52 be c0 f0 60 3c 50 e2 31 be 64 c7 a2 bd
       -0.20597503 0.013729274 -0.17371488 -0.07948187
000300 c6 45 2c be 4c 0f 46 be 3e b6 65 be 20 84 4d bd
       -0.16823491 -0.19341773 -0.22432801 -0.050174832
000310 a0 88 82 bc 6c 5c ef bd 96 a1 24 be 88 e8 11 3d
       -0.015934289 -0.1168755 -0.16077265 0.03562215
000320 d8 eb 95 bd c0 23 12 bc 64 b1 e3 bd 48 20 ab bd
       -0.07320374 -0.008919656 -0.11117819 -0.083557665
000330 a8 35 e4 bd e0 64 21 3c 6a 0c 47 be 6e 49 11 be
       -0.111430466 0.009850711 -0.1943833 -0.14188167
000340 44 4d 70 be f4 78 67 3e 18 13 14 3d b4 27 11 be
       -0.23466974 0.22604734 0.03615102 -0.14175302
000350 b6 b5 1e be 0c e3 90 bd b8 e9 6f bd 9c 83 5b 3e
       -0.15499005 -0.07074556 -0.0585725 0.21436924
000360 08 a1 ab bd d4 df 16 be c6 01 3e be 30 51 f2 3d
       -0.08380324 -0.14733821 -0.18555364 0.118318915
000370 0c f9 2c be ae 6f 0a be 64 22 ce 3d 34 d3 1d 3e
       -0.16891879 -0.13519165 0.10065153 0.15412599
000380 be 22 41 3e 52 10 3e 3e 52 7b 4d 3e a8 71 4f 3d
       0.1886091 0.18560913 0.20066574 0.0506455
000390 c6 93 0e 3e 18 a5 5e be 44 98 96 bd 10 43 ad 3d
       0.13923559 -0.21742666 -0.07353261 0.08460057
0003a0 40 e7 a8 3b 5c 11 25 be 48 9d fc bd 1c b2 10 be
       0.0051545203 -0.16119903 -0.123346865 -0.14130443
0003b0 f0 fd 45 3e 32 36 72 3e d0 b7 f5 bc 12 27 59 be
       0.1933515 0.23653486 -0.029994875 -0.2120631
0003c0 e4 82 0e 3e a0 7f 0c 3c a8 f7 b1 bd 10 05 17 3e
       0.13917118 0.00857535 -0.08689815 0.14748025
0003d0 4c c2 88 bd 24 08 0c be 36 cc 3e be 00 8f bf 3b
       -0.06677684 -0.1367498 -0.18632588 0.0058459044
0003e0 b8 4d 92 bd c8 78 c5 bd a0 17 dd bd 1c 66 66 be
       -0.0714373 -0.09642178 -0.10795522 -0.22499889
0003f0 38 fb 50 bd 4c 59 ca 3d 6c 30 bc 3d b8 bb 77 be
       -0.05102083 0.09880313 0.09188923 -0.24192703

model.encoder.node_encoder.0.4.bias f4 [16]
000000 00 f8 13 3e 7a 8b 11 3e c6 e4 0e be bc d1 4a 3e
       0.14450073 0.14213362 -0.13954458 0.1980657
000010 d4 2c 48 be 24 3a 6f 3e e8 d5 fc 3d da 00 24 3e
       -0.1954835 0.23362023 0.12345487 0.1601595
000020 96 25 7e be fa 03 2e 3e e0 a1 3d 3e 40 00 cc 3d
       -0.24819025 0.16993704 0.18518782 0.09960985
000030 fc b6 67 be 08 4b 38 3e 08 4d 41 bd 10 1a 7e 3e
       -0.22628397 0.17997372 -0.047192603 0.2481463

model.encoder.node_encoder.0.6.weight f4 [16, 16]
000000 c2 cb 50 3e 80 f8 ab 3c 0a af 49 be d4 a0 8a bd
       0.20390227 0.020992517 -0.19695678 -0.06768957
000010 82 7d 57 be a2 8b 23 3e 1c 85 d4 3d aa 7e 47 3e
       -0.21043971 0.15971234 0.10376951 0.19481912
000020 da ee 39 3e ce 7a 5d be 20 02 6b be 7a eb 5f 3e
       0.18157521 -0.21628878 -0.2295003 0.21867171
000030 00 46 e4 3b a2 07 4d 3e e2 ff 1f be 40 18 c8 3d
       0.0069663525 0.20022443 -0.15624955 0.0977025
000040 c8 11 3d 3d 22 ed 01 3e f4 32 b7 3d 42 02 2a be
       0.046159536 0.12688115 0.089452654 -0.16602424
000050 40 e7 87 3c 1c 7d 6a be ec f0 d1 bd 6c f6 61 be
       0.01658976 -0.22899288 -0.1025103 -0.22066659
000060 00 01 7d bd dc 5d 7c be 2c 92 d8 3d fc 68 5d be
       -0.06176853 -0.2464518 0.10574755 -0.2162208
000070 10 0b ae bd d4 47 65 be 10 c4 5b bd b4 86 2b 3e
       -0.08498204 -0.22390682 -0.053653777 0.16750604
000080 fe 13 1b 3e a0 de 45 3e d0 55 36 3e 28 54 2d 3d
       0.15144345 0.19323206 0.17806172 0.042316586
000090 00 ad ba 3a f2 c3 4b 3e 00 f0 f2 bb 0c 26 78 3e
       0.0014242232 0.19898966 -0.007413864 0.24233264
0000a0 00 65 fe bb a8 e1 f0 3d 80 04 14 3d 8e 00 5f be
       -0.007763505 0.117617905 0.036137104 -0.21777555
0000b0 52 26 73 3e f0 0e 37 be 00 69 d4 3a e8 c8 9e bd
       0.23745087 -0.17876792 0.0016205609 -0.077531636
0000c0 18 86 54 be 86 eb 68 be 7c a4 8c 3d 18 46 1f 3d
       -0.20754278 -0.22746095 0.068673104 0.038885206
0000d0 ba 9f 2d be b8 ff cc 3d ca c5 43 be e4 45 04 be
       -0.16955462 0.10009712 -0.1911842 -0.12917286
0000e0 9c ca 43 3e e0 87 d2 3d 9c 9c 11 be dc 17 47 3e
       0.19120258 0.10279822 -0.14219898 0.19442695
0000f0 c0 08 38 be cc 8e 04 be b0 89 84 3c a2 8b 74 be
       -0.17972088 -0.12945098 0.016178936 -0.2388139
000100 40 95 97 3d 4a ae 45 be da 25 1c be b6 bb 19 be
       0.07401514 -0.19304767 -0.15248814 -0.15013012
000110 70 fa c5 bd d8 05 52 bd d8 5a de bd 00 e7 78 bc
       -0.09666908 -0.051275104 -0.10857171 -0.015191793
000120 7e 41 7d be e6 56 7b 3e 00 60 88 38 12 94 2c be
       -0.24732015 0.24544868 6.502867e-05 -0.1685336
000130 a0 81 44 bd 0e 71 63 be 1c c7 d7 3d d4 de 5a 3e
       -0.047975183 -0.22211096 0.10536024 0.21374065
000140 1c ef e0 bd 20 42 65 3c 00 5f 5a bc a2 06 64 be
       -0.109831065 0.013992816 -0.013328314 -0.22268155
000150 d0 cf 7e bd 70 69 6f bd 06 25 25 be c0 1a 88 bb
       -0.062209904 -0.058450162 -0.16127405 -0.0041535795
000160 3c ea f9 bd c0 2c 4e be b6 36 00 be 96 c6 6a 3e
       -0.1220288 -0.20134258 -0.1252087 0.22927317
000170 48 df 51 bd c4 c0 7d 3e da 0d 38 be 78 bd e5 3d
       -0.05123833 0.24780566 -0.17974034 0.11217779
000180 00 3c 36 3e d8 1b 6b 3e d0 c5 5a be 00 af 9e 3d
       0.17796326 0.2295984 -0.21364522 0.07748222
000190 5a b3 31 3e 52 6e 2d 3e 90 32 c0 3d a0 95 8c bc
       0.17353573 0.16936615 0.09384644 -0.01716119
0001a0 80 74 85 bc ba 88 6e be 56 57 0e be 82 eb 2f 3e
       -0.016290903 -0.23294345 -0.13900504 0.17179683
0001b0 32 9b 34 be ac 30 f8 bd 20 4a cf bc 1c 8c c1 3d
       -0.17637327 -0.121186584 -0.0253039 0.09450552
0001c0 18 5a 70 be 00 07 5e 3e 8a 1f 01 be 34 e5 c7 bd
       -0.23471868 0.21682358 -0.12609687 -0.09760514
0001d0 c0 e6 87 3b f0 56 2e 3d 84 37 d1 3d d4 d9 09 be
       0.0041473806 0.04256338 0.10215667 -0.13462001
0001e0 c0 51 9d 3b 82 bd 0d 3e 62 36 5c be 8c 55 74 3e
       0.004801005 0.13841823 -0.2150512 0.23860759
0001f0 ba ec 39 3e 70 5d 8a bd c0 34 20 bd 1c c3 f3 3d
       0.1815671 -0.06756103 -0.039112806 0.119024485
000200 78 f0 0b 3d ba 79 5d be 5c 8e 0f be 7e d4 03 3e
       0.034164876 -0.21628466 -0.1401915 0.12874028
000210 38 80 e0 3d 90 ad 89 bc b8 bd 83 bd 8c f9 8f 3d
       0.10961956 -0.016806394 -0.0643267 0.07030019
000220 e2 ae 46 3e 2c 72 b6 bd 7c 79 c7 bd 94 af 54 3e
       0.1940265 -0.08908495 -0.09739968 0.20770103
000230 20 b4 ee bc d0 9e e9 3d d0 93 df 3c d4 ef b2 3d
       -0.029138625 0.11407244 0.027292162 0.0873715
000240 10 a7 93 3c 34 20 1a 3e 80 54 4b bd 50 32 78 bd
       0.018023998 0.15051347 -0.049641132 -0.060594857
000250 60 1b 2f be f0 4c 05 3d 70 4d fa 3d e8 6e c0 bd
       -0.17100286 0.032544076 0.12221801 -0.09396154
000260 c0 5a f7 bb f2 b6 24 be 80 53 9b bd c4 fe 8b 3d
       -0.00754866 -0.16085413 -0.07584286 0.06835702
000270 20 6b 3f 3d d4 11 63 3e e8 9e f5 3d 04 2e a3 bd
       0.04673302 0.2217477 0.119931996 -0.07967761
000280 d8 08 fd 3d a0 e2 d1 bc e6 bf 72 be e2 eb 35 3e
       0.123552024 -0.025620759 -0.23706016 0.17765763
000290 08 3a 0d 3e fa df 7f be 2a d2 5a 3e f8 2d 3f bd
       0.13791668 -0.24987784 0.21369234 -0.0466747
0002a0 f4 bc 2b 3e 46 67 1b be ac 10 40 be 28 ad 7c 3d
       0.16771299 -0.15176114 -0.1875636 0.061688572
0002b0 70 c9 9f 3c 84 ad 1d 3e c2 8f 60 be f4 e3 69 3e
       0.019505233 0.15398222 -0.21929839 0.22840863
0002c0 80 cf c4 bb c4 57 d8 bd a0 d8 66 3e c0 da 64 bd
       -0.0060061812 -0.10563615 0.22543573 -0.05587268
0002d0 44 c3 99 bd 9c 33 27 3e 00 94 83 3d a4 e0 59 be
       -0.07507947 0.16328281 0.06424713 -0.212771
0002e0 28 98 8c 3d 48 7b 3c 3d 2e 08 25 be cc 19 06 be
       0.06864959 0.046016008 -0.16116402 -0.13095778
0002f0 0c 4c 9c bd 68 7f 6b 3d e0 99 7c bd fa de 7a be
       -0.07631692 0.05749455 -0.061670184 -0.24499121
000300 40 a1 6e 3d 50 c1 4b bd 1c 18 f2 3d f0 5f 7c 3d
       0.05825925 -0.049744904 0.11821005 0.06161493
000310 78 32 4d 3e 2e 91 3a be 90 5f 73 3d 40 25 88 bc
       0.20038784 -0.18219444 0.059417307 -0.016619325
000320 44 9f 65 3e 6a 38 01 be fc c3 ac 3d 40 d5 5c bd
       0.22424036 -0.12619177 0.084358186 -0.05391431
000330 34 68 5c 3e 38 d0 9e bd 30 0a df 3d 38 05 b0 bd
       0.21524125 -0.07754558 0.10890615 -0.085947454
000340 02 b3 23 3e 58 c6 51 3d b0 b2 8c bc f0 2b a8 3c
       0.15986255 0.051214546 -0.017175049 0.020528764
000350 ac 85 9b bd 82 c7 37 be 04 3d f0 bd 90 11 44 3d
       -0.07593855 -0.179472 -0.11730388 0.04786831
000360 e6 8e 58 3e 02 95 49 3e b6 a2 59 be a8 63 b5 3d
       0.21148261 0.19685748 -0.21253476 0.088568985
000370 4c e9 bb 3d 28 89 88 bd 6a 3f 44 3e 18 15 16 bd
       0.09175357 -0.066667855 0.19164816 -0.03664121
000380 76 02 0a be 20 67 9a bd e8 39 7b bd a4 d1 f0 bd
       -0.13477501 -0.07539201 -0.06133452 -0.11758736
000390 b8 7b 66 be ec dc ed 3d c8 e4 8b bd 3c d8 df bd
       -0.22508132 0.11614403 -0.06830746 -0.10929915
0003a0 98 53 15 3d 9e 7f 7a be 28 b4 35 3d a0 09 f2 3c
       0.036456674 -0.24462745 0.044361264 0.029545605
0003b0 70 d4 10 3e 60 e0 72 bd 76 07 7a 3e 16 f7 43 be
       0.14143538 -0.059296012 0.24416909 -0.19137225
0003c0 34 75 46 3e 7c a4 c9 3d 18 bf e1 bd 54 5c 03 be
       0.19380647 0.09845826 -0.11022776 -0.12828189
0003d0 aa af 39 3e b0 c9 53 bd 4a 42 38 3e b6 73 3d 3e
       0.18133417 -0.051706016 0.17994037 0.18501171
0003e0 4e d8 73 3e 10 48 6c bd 8c 43 5a be 14 a4 ec 3d
       0.23812982 -0.05768591 -0.2131483 0.11554733
0003f0 74 38 ff bd 58 7b 74 be 22 1f 7d 3e 18 7f 74 be
       -0.124619395 -0.23875177 0.24718907 -0.23876607

model.encoder.node_encoder.0.6.bias f4 [16]
000000 3c 1c b4 3d 08 23 14 bd 6a 5e 06 be 00 5d d3 3b
       0.08794448 -0.03616622 -0.13121954 0.0064502954
000010 18 64 fe bd 40 0a 31 3d 84 09 30 3e 28 9e 72 3d
       -0.12421435 0.043222666 0.1719113 0.05923286
000020 a2 14 06 be 82 3c 48 3e 58 3b 8a bd 84 e6 e8 bd
       -0.13093808 0.19554332 -0.067496 -0.11372092
000030 74 8b 05 be 40 a7 7d bc ce 4f 75 be 98 58 0c 3e
       -0.13041478 -0.01548177 -0.23956224 0.13705671

model.encoder.node_encoder.1.weight f4 [16]
000000 00 00 80 3f 00 00 80 3f 00 00 80 3f 00 00 80 3f
       1.0 1.0 1.0 1.0
000010 00 00 80 3f 00 00 80 3f 00 00 80 3f 00 00 80 3f
       1.0 1.0 1.0 1.0
000020 00 00 80 3f 00 00 80 3f 00 00 80 3f 00 00 80 3f
       1.0 1.0 1.0 1.0
000030 00 00 80 3f 00 00 80 3f 00 00 80 3f 00 00 80 3f
       1.0 1.0 1.0 1.0

model.encoder.node_encoder.1.bias f4 [16]
000000 00 00 00 00 00 00 00 00 00 00 00 00 00 00 00 00
       0.0 0.0 0.0 0.0
000010 00 00 00 00 00 00 00 00 00 00 00 00 00 00 00 00
       0.0 0.0 0.0 0.0
000020 00 00 00 00 00 00 00 00 00 00 00 00 00 00 00 00
       0.0 0.0 0.0 0.0
000030 00 00 00 00 00 00 00 00 00 00 00 00 00 00 00 00
       0.0 0.0 0.0 0.0
